data/models/arxiv_model.pth (torch, 289103 bytes, 15 tensors)

gnn.conv_params.0.weight f4 [32, 84]
00000000: dc23 56bd 1871 b43d 7bad 45bf 08f6 dcb9
00000010: 9614 4abe 6045 b23d 82ef 5d3d d304 febd
00000020: c2ef 4f3d 727f 3d3e 003b e13b 91ff 8a3c
00000030: 8091 dcbb 80f7 2e3d 8054 05be a8fa 7e3d
00000040: af80 1bbe a6c4 34be fe1d 2c3e 1259 303e
00000050: a847 583e 7d8a 08be 3cda 373e e244 47be
00000060: e991 efbd a848 253d 1e76 0b3e 4a9a 46be
00000070: 9634 293e 0873 b33c 7074 a83d 6097 bcbb
00000080: e1f8 773e a036 d83b 10f3 eb3c 1803 9abd
00000090: ec8c f2bd 9aa1 193e 442b 86bd 5423 67bd
000000a0: 9099 8c3d eda7 48be 4c2f f03d 48cd 193e
000000b0: 7aa1 1e3e 40a7 323c 32d1 07be 34e1 263e
000000c0: 7c8a 0a3e 9686 5a3e de65 3bbe f300 3bbe
000000d0: 86e5 5ebe 9f17 22be 4218 3d3e 5bc5 60be
000000e0: acae b93d a885 18bd c491 433e 58d0 5f3e
000000f0: d030 573d 7e18 b6bd 589a ff3d 4cd2 e33d
00000100: 7453 89bd 3114 4abe c374 cb3c 20e6 96bd
00000110: cd0b f5bd f09f 0a3d 2e66 2d3e 3d51 61be
00000120: 94bc 003e c82c d9bc 272f 7dbc 8ee7 543e
00000130: 4053 093c 360a cebd a894 67bd 3c1a 5ebd
00000140: 6498 2cbe b6d7 24be 8cbe c33d 5682 2abe
00000150: e828 81bd 601b 1f3e 0fe9 56bf 21b8 9bbd
00000160: b427 aabd f40f 61bd 555c 23be bc33 50be
00000170: 116f 36bd 90a0 423d 0439 203e 9917 42bd
00000180: 0467 14be 1ce5 cf3d fe60 6bbe 88b7 673d
00000190: 84ec f13d 50d3 0ebd c86d ad3d 2fdf 44be
000001a0: aaa6 b4bd d44b dd3d 2e56 4f3e e4ad 2a3e
000001b0: b86e 703d 0e54 4cbe b00f 5cbd 452d 15be
000001c0: 6e6d 2abe d449 a6bd 044d 85bd c234 423e
000001d0: 6ca4 31be 66b8 0f3e ac40 b13d 74de 21be
000001e0: 50f8 e5bc c26a 19be 87fa 403d 8876 7b3d
000001f0: 8b6f f4bd 2e56 373e ec6e 01be 443a 18bd
00000200: 8808 3dbd c71e 22be 20ea 2fbd b452 13be
00000210: 68e9 893c 20ba 8a3c 20bf 50be c06b 083e
00000220: 902b 413c 181a 5b3e d06c c93c 8634 bebd
00000230: 727f a8bd b00e dfbc 3981 7cbd d853 673d
00000240: f43e 17bd 6a66 efbd 442c 9e3d 1879 663e
00000250: 282c 00bd c0ae 933d 1d4b 24be 26e4 19be
00000260: dff1 66be fe97 eabd 401f f03d 3038 4a3e
00000270: d4f7 653e d071 d63c 442a e7bd 409e 5cbc
00000280: c89a b83d 3441 f63d b00b 64bd 70b1 1ebd
00000290: 1f01 4bbe 9c5e a53d 70af e53c 644b 03be
000002a0: c48b 2a3d f05c e33b 5eca 2c3e 4a92 a73e
000002b0: 7bfb 08be 2c14 e23d a1d7 b9bd 4489 11be
000002c0: 92ae 79bd 0052 d9b9 d093 37bd 5cb8 263e
000002d0: 652d 4fbe cebc 05be f029 91bd d4b4 33be
000002e0: f28a ecbd f71a 4bbe d2f9 e63d a3d6 e7bd
000002f0: 3edd 073e f06f 473e cab4 15be 5405 393e
00000300: b869 8cbc a6b4 603e 207f bb3d 4609 1a3e
00000310: 2813 3abd f878 563d 8808 85bc 4c2a 863d
00000320: ef11 2e3d 206f 28be 181e 523e 07b8 31be
00000330: 4052 533e 52d8 1dbe 0307 103d 2e26 2b3e
00000340: ec42 3bbe ba86 06be fa6f 433e 8abe 0abe
00000350: 250b f43d 1a94 0e3e ae2c 1abe f81a 0ebe
00000360: 1a75 59be 8000 84bd 8ea0 b7bd 7355 193e
00000370: 95d4 34be 72c0 65be 0015 063d 4cd4 8bbd
00000380: aa50 413e a0d4 4b3e 488c 403d cc92 c23d
00000390: baf6 5e3e a860 2e3d 9484 203e c409 473e
000003a0: 1bc7 60be 3cf9 183e a17a d93d e0cf f8bb
000003b0: 44a6 ad3d 1ee8 3e3e 74a9 89bd 77b0 34be
000003c0: 40bb 9f3c 4690 453e 6bcb db3d 64d3 6ebd
000003d0: d07c 25bd 5873 433d a04e ffbb 580a 583d
000003e0: 20a0 983d 7064 1f3d 00d2 aabd eca8 26be
000003f0: 7f33 b7bd 6d4e 4d3e f5e0 71bf c2ed cebd
-0.052280292 0.088106334 -0.77217835 -0.00042144977 -0.19734415 0.087046385 0.05418349 -0.12403264
0.05076576 0.18505648 0.0068734884 0.016967567 -0.006731212 0.042716503 -0.13020515 0.062250763
-0.15185808 -0.1765314 0.16808316 0.17221478 0.21121085 -0.13334079 0.17954344 -0.1945987
-0.11697752 0.040352494 0.13619277 -0.19394794 0.16523966 0.021905437 0.08225334 -0.00575535
0.24216034 0.0065983087 0.028802425 -0.07520121 -0.11843285 0.15003052 -0.06551221 -0.056430176
0.06865227 -0.19595309 0.11727771 0.15019715 0.15491286 0.010904133 -0.13263395 0.16296846
0.1352939 0.21340403 -0.18300578 -0.18262081 -0.21767244 -0.15829323 0.18466285 -0.21950285
0.09066519 -0.03723684 0.19098574 0.2185682 0.052536786 -0.0889139 0.124806106 0.11124095
-0.067053705 -0.19734265 0.02483595 -0.073681116 -0.119651414 0.033843935 0.1693351 -0.22003646
0.12571937 -0.026510611 -0.0154531365 0.20791456 0.008381665 -0.10060541 -0.056538254 -0.054224238
-0.16855007 -0.16097912 0.09557828 -0.16651282 -0.063066304 0.15537786 -0.8394937 -0.07603479
-0.08308354 -0.054946855 -0.1595319 -0.20332235 -0.044539515 0.047516406 0.1564675 -0.047385786
-0.14492422 0.10151121 -0.22986218 0.056571513 0.1181269 -0.034869492 0.08468205 -0.19225763
-0.08820851 0.10805479 0.20247719 0.16667897 0.05869934 -0.1995394 -0.0537259 -0.1456805
-0.16643307 -0.0811955 -0.0650883 0.18965438 -0.17347878 0.14035186 0.08654913 -0.15807515
-0.028072506 -0.14982131 0.04711392 0.061392337 -0.11935338 0.17903969 -0.1263997 -0.03716494
-0.046150714 -0.15832053 -0.04294789 -0.14387017 0.01683493 0.016934454 -0.20385408 0.13322353
0.011790171 0.21396673 0.024588019 -0.09287362 -0.08227433 -0.027228683 -0.061646674 0.056476444
-0.03692527 -0.11689456 0.07723287 0.22507131 -0.03129211 0.07211065 -0.16044278 -0.15028438
-0.22553204 -0.114547715 0.117247105 0.19747996 0.2245782 0.026177317 -0.112873584 -0.013465464
0.09013897 0.12024155 -0.05567521 -0.038743436 -0.19824646 0.08074686 0.028037757 -0.12821728
0.041637197 0.0069385692 0.16874072 0.32728797 -0.13377182 0.11039004 -0.09074331 -0.14212519
-0.0609575 -0.0004145056 -0.0448187 0.16281265 -0.2023216 -0.13060305 -0.07088077 -0.17549449
-0.11549939 -0.19834505 0.11278118 -0.113202356 0.13267991 0.19476295 -0.14619747 0.18068439
-0.017140254 0.21943912 0.091551065 0.150426 -0.045428425 0.05236146 -0.01623942 0.06551036
0.04249757 -0.16448641 0.20519292 -0.17355357 0.20636845 -0.15414551 0.035162937 0.16713783
-0.18287247 -0.13137332 0.19085684 -0.13549247 0.11916188 0.13923684 -0.15056106 -0.13877475
-0.21236077 -0.06445408 -0.0896617 0.14974003 -0.17659219 -0.22436693 0.03273487 -0.06827602
0.18878427 0.19905329 0.047008783 0.095006555 0.21773806 0.042572647 0.15675575 0.19437319
-0.21950953 0.14938825 0.10619093 -0.00759314 0.08478978 0.18643233 -0.06721774 -0.17645441
0.019498467 0.19293317 0.10732158 -0.058307067 -0.040402234 0.047717422 -0.0077913553 0.05274424
0.074524164 0.038914144 -0.083408356 -0.16275376 -0.08945369 0.20049448 -0.9448388 -0.101039425

gnn.conv_params.0.bias f4 [32]
00000000: 2dc3 26bb 43d0 363c 0cf1 17bd 5bf6 27bc
00000010: b63f 2c3c ef32 13bd ebd0 1cbd 266a ecba
00000020: 5a54 4bbc 3cbe 5d3b 50fb b6bc 7e8e 013d
00000030: a17f d3bc 6ae9 50bc 5bbe 63bc ed91 cc3c
00000040: 9e6b 6d3c fc24 1fbc 9ed3 b53c cbaa a5bc
00000050: db4e 0abd 93e5 e03c db10 673d 8e0d 0a3b
00000060: 8d79 3fbc f6fd 35bc 4de9 a63c 4514 d23b
00000070: 390f c0bb 40e7 bb3c bef8 553c eb15 803c
-0.0025445924 0.011158052 -0.037095115 -0.010251607 0.010513237 -0.035937246 -0.038285177 -0.0018037006
-0.012410248 0.0033835312 -0.022336632 0.03163003 -0.025817694 -0.012750963 -0.013900365 0.024971927
0.01449099 -0.009713408 0.022195634 -0.020223042 -0.03376661 0.02745322 0.05641256 0.0021065208
-0.011686695 -0.011107912 0.020374918 0.0064111077 -0.0058611897 0.022937417 0.013059793 0.015635451

gnn.conv_params.1.weight f4 [32, 32]
00000000: e196 493d d393 353e a3d6 863e 7696 56bd
00000010: 0141 3a3d 1345 2dbe 9638 63be 58a4 1c3c
00000020: 9eb4 02be 0c21 3b3e fc5b 783c ffd2 6abe
00000030: 0a04 1d3d 532e 1fbe f378 80bd d9ea 9d3e
00000040: 085a fabd a579 8dbe 3545 83bd e4b3 b9bd
00000050: 99f6 a23e a221 083e c1a1 9ebe f9ce e0ba
00000060: 7b4d 04bd 3ad8 443e 9ea6 123e 3702 153e
00000070: 5816 fb3d bffe fbbd e744 7d3d 2cd9 50bd
00000080: 1d2d e9bd e979 7dbe 1007 56bd c393 583e
00000090: bdc9 d0bd ac36 33bd 851d 943e 2e28 86be
000000a0: 031a 12be e4d7 2ebe b4b8 c63e 9c37 4fbd
000000b0: 49b2 213e f0a2 57bd ad64 16be e0bd a2be
000000c0: f2de 483e 35e1 4dbd f1a8 a73d 5a77 a13d
000000d0: f91e 8ebd 838c 5b3e 97e1 a13e 925d 59bc
000000e0: fa1f c33e 06ee 283e 5a54 0bbd 024d 91bd
000000f0: bbe6 37bd 6a74 8c3d 7870 863e e6a2 25be
00000100: ac50 8ebe 3be9 a3be a966 343a 306f d5bd
00000110: de27 973d d893 1c3e 0716 133e 92ec ac3d
00000120: 7ef1 543c cbff cdbd efb5 aabe 5d0a 0dbe
00000130: 480a 77be d82e 123e d579 cbbc faf6 913e
00000140: 2b97 843e 41ed 633d 9cdc 633e 6042 153e
00000150: 5bd8 4d3e c4ff 0a3e fd50 3a3e 98f5 6abe
00000160: 5490 5dbe ad4a a83e e07d 873e 4c1c b23c
00000170: ac07 23be e4b5 3dbe 6ed7 f83c 3636 cc3d
00000180: c209 61bd 8b3d 36be 06f9 323e c439 7abc
00000190: 7f65 cd3c 328d 073e de4c 9f3e 941d 72be
000001a0: 0276 8d3e 5979 463e fc5c 86bc 0e16 05be
000001b0: 98b1 ea3d 3c14 82be 18c9 2a3e a918 8ebe
000001c0: a7d5 c93d 0c98 523e 1681 5abe 2557 63be
000001d0: 9459 283e a1bb 27be f753 303e 55a7 3c3c
000001e0: f823 cebd be9e 923e f7b7 5ebe dcc1 dfbc
000001f0: a8a0 e53c 5b04 aebe 1770 933e 6eb1 6e3e
00000200: 22c8 023d 2f48 8d3e 27a1 8ebe 773c b4bd
00000210: 8cd4 013e 962a 12be 6eb7 233d d2df 8c3e
00000220: d8a0 9bbe b169 313e 7b71 4dbd f1e3 99be
00000230: d098 84be 91d3 133e 248c 59bc f8d8 7dbe
00000240: ead3 66be 2802 0fbe 8d83 febd 9cbf 013d
00000250: 8889 543e 1819 403d 55a8 20bd 2842 95bc
00000260: c9c5 c43d 54b0 1bbe f17d 733d 60b0 883e
00000270: eb1d 75be b8bb 983d a1db 01bd 47a3 033e
00000280: a654 b33d 84ed c3bd 989b c9bd 2301 783e
00000290: f448 37be 84c7 733e cd12 6abd 9dc0 a03d
000002a0: f179 853e a96a d33d 45d5 5b3e 70c0 5cbe
000002b0: 95e0 73be dcbe 99be f1f9 613e 4ca3 e63d
000002c0: 44a2 81be a152 733e a738 923e 6bb4 623e
000002d0: 2e16 2dbe 2519 6fbe 4ef2 7dbe c3f2 9abe
000002e0: 243a 473d c6e6 e4bd a5c5 483d 3a14 12be
000002f0: a9e0 713e 1ae6 16bd 7a41 b3ba d5cc 85be
00000300: 5340 873d 96f5 f43d 5384 6dbd 0efe dbbd
00000310: 0cb7 98bd ff4b 823e dbd7 a43d fdbc 7f3e
00000320: edc0 383e b90c 4fbe abc2 aa3e 76db 86bd
00000330: b84a 65be fdbb 5dbe acd7 52bc f24e 96be
00000340: f4b8 03bd b564 4ebe 12c0 573e b673 5c3e
00000350: 75ef 503d 5fb1 40bc 74a4 883e ff04 8bbe
00000360: 6924 d83d baf3 79bd 488f 5e3d 3944 e1ba
00000370: 651a 7e3e 4486 edbb 19e7 f23d 6659 d7bc
00000380: d31f 3e3e a07f 3e3e 9033 053e e633 903d
00000390: 5843 86be 896c 1bbe b609 d1bc df8d 1b3e
000003a0: 6948 77be 6987 38be 09f7 673e 135c 163e
000003b0: 5381 d1bd 86d8 babe 9dcc 1d3e 4d09 fabd
000003c0: c251 393e 6a44 8b3e 7e5a a43d 9b8b e83c
000003d0: 1b86 4f3e 9d5a adbd 4f68 bf3d b660 68bc
000003e0: e09c 3f3e 1dfc 853d ca93 92bd 6793 d73d
000003f0: 9e14 053d 0edb 7fbe 4ad7 f13d 9730 89be
0.049216155 0.17732172 0.2633563 -0.052389584 0.04547215 -0.16920881 -0.22189555 0.009560667
-0.12764212 0.18274325 0.0151586495 -0.22932051 0.03833393 -0.15545015 -0.06273069 0.30843237
-0.12224203 -0.2763187 -0.064096846 -0.090675145 0.31828764 0.1329408 -0.30982783 -0.0017151526
-0.032300454 0.19223109 0.14321372 0.14551626 0.12260121 -0.12304448 0.06183329 -0.05098836
-0.11385558 -0.24753536 -0.05225283 0.21150117 -0.101947285 -0.04375331 0.28928772 -0.2620253
-0.14267735 -0.17074543 0.38812792 -0.050590143 0.15790667 -0.052645624 -0.14686842 -0.31785488
0.19616297 -0.050263602 0.0818652 0.07884093 -0.06939501 0.2144032 0.31617424 -0.013266938
0.38110334 0.16497049 -0.03401599 -0.07094766 -0.044897776 0.06858142 0.26257682 -0.16175422
-0.27795923 -0.32013878 0.00068817526 -0.10421598 0.07380651 0.15290773 0.14363872 0.0844356
0.012997029 -0.10058554 -0.3334193 -0.13773485 -0.24125016 0.14275682 -0.024838367 0.2850874
0.25896582 0.055646185 0.22252125 0.14576101 0.20102064 0.1357413 0.18194957 -0.22945249
-0.21637088 0.32869473 0.26463223 0.021742009 -0.15920895 -0.18526417 0.030376162 0.099712774
-0.054940946 -0.17796914 0.17477807 -0.015272561 0.025072811 0.13237455 0.31113333 -0.23644096
0.27629095 0.19382228 -0.01640176 -0.12996694 0.114596546 -0.25406063 0.16678274 -0.2775319
0.09855204 0.20565814 -0.21338305 -0.22201212 0.16440421 -0.16380168 0.1721953 0.011514504
-0.10065454 0.28636736 -0.21749865 -0.027314119 0.028030708 -0.33987698 0.28796455 0.23309872
0.031929143 0.27594134 -0.27857324 -0.08800595 0.12678736 -0.14274058 0.039969854 0.2751451
-0.30396152 0.17325474 -0.05015705 -0.30056718 -0.25897837 0.14436175 -0.013278041 -0.24789798
-0.22541776 -0.13965666 -0.12427435 0.031676874 0.20755589 0.04689893 -0.039223034 -0.018220022
0.09608037 -0.15203983 0.05944628 0.26697063 -0.23937194 0.074576795 -0.031703595 0.12855254
0.0875638 -0.09566787 -0.0984413 0.24219184 -0.17898923 0.23806578 -0.057146836 0.07849238
0.26069596 0.10323078 0.21468075 -0.21557784 -0.2381614 -0.30028427 0.22068001 0.11261615
-0.2531911 0.23761989 0.28558847 0.22139136 -0.16902992 -0.23349436 -0.24799463 -0.30263337
0.04863943 -0.11176829 0.049016614 -0.14265528 0.23620857 -0.036840536 -0.001367613 -0.26132837
0.06604066 0.11960904 -0.057987522 -0.107418165 -0.074567884 0.25448605 0.08048984 0.24974437
0.18042345 -0.20219697 0.33351645 -0.065848276 -0.22391784 -0.21653743 -0.012868803 -0.29357105
-0.032158807 -0.20155604 0.21069363 0.21528515 0.051009614 -0.011761039 0.26687968 -0.2715225
0.1055382 -0.06102345 0.054335862 -0.001718647 0.24814756 -0.0072486717 0.11860485 -0.026287746
0.18566827 0.18603373 0.13007951 0.07041149 -0.26223254 -0.15178122 -0.025517326 0.15190838
-0.24148716 -0.18020405 0.2265283 0.14683561 -0.10229745 -0.3649332 0.15410085 -0.12208805
0.18097594 0.27200633 0.080250725 0.028386882 0.20266001 -0.08464549 0.09346067 -0.014183214
0.18712187 0.065422274 -0.07157095 0.10526162 0.032490365 -0.24985906 0.11808641 -0.26794884

gnn.conv_params.1.bias f4 [32]
00000000: 8538 9e3c 1201 003e a8a8 063c dbfa eabb
00000010: 1c5f ae3c e84b d13b e483 173c 0001 3dbc
00000020: aaaa 58bd 1433 a3bc d301 663d e72e 47bd
00000030: f3e3 e93c 0408 193d 7c35 343c 9842 d23b
00000040: abcd 433c f927 013c fa65 3cbc 7da1 c83c
00000050: 2823 febb 24cd 5f3c 1d0a 043d 819d ec3b
00000060: f96a 7a3c e5d6 dbbc e2ba 5a3c 4672 2e3c
00000070: addb 873b 79db c83b f58b c13c 97c1 6abb
0.01931406 0.12500408 0.008218922 -0.0071710176 0.021285586 0.0063872226 0.009247754 -0.011535883
-0.052897133 -0.019921817 0.056154083 -0.048628714 0.028551077 0.03736116 0.01099908 0.00641663
0.0119508905 0.007883065 -0.0114989225 0.024491066 -0.007755656 0.013659749 0.032236207 0.0072209244
0.015284293 -0.026835868 0.01335022 0.010647362 0.0041460604 0.006129679 0.023626307 -0.0035820955

gnn.conv_params.2.weight f4 [32, 32]
00000000: e559 fb3d 2133 543d b794 80be 4183 cabd
00000010: f07f 38bd 7a78 d8bd d093 7bbe 261d 13bb
00000020: e8c0 143e 8989 84be 09bd a6bd 8fbd edbd
00000030: e1ce babd 52a3 333e 14de 663e 3503 8cbd
00000040: c72c 4ebd c9ba 273e c13b 123e bfc6 593c
00000050: 54ad 59be ca42 7bbe 54d8 6fbe b1b7 fdba
00000060: 54f7 ffbd 2fd2 3b3e 9d49 f5bc 66e8 d43d
00000070: 99ba 5dbe 541e b63d 9687 283e 029b f6bd
00000080: 17b2 8b3e 5418 233e 12f5 d5be 7265 053e
00000090: d6c8 933e f350 03bc 4abc 24be 9ece 0f3b
000000a0: fd1e 61be 49e8 5bbd d3f8 89be 5e23 3abe
000000b0: a6c2 b03e d472 89bd 8b52 3f3e b375 6abe
000000c0: e910 60be 1c60 653e af51 3fbe 2e36 2f3e
000000d0: e70c 82be 08e5 b0be 7560 5cbe 7592 dbbd
000000e0: b889 853e 445a 83be 1e9f 95be 6c46 a83d
000000f0: 0f17 253e cb56 0a3e 87bf 8ebd cdb4 c2bc
00000100: 1010 4e3e d327 2cbd cfcb 75be a7ba 3a3c
00000110: dad7 70bc 6b9c a3be c3f2 a0bd 3d84 87be
00000120: a4a4 123e 5219 c53d de14 5d3e e0ee d03d
00000130: 72c2 8d3e 2a35 3a3e 3f90 fa3c 9c78 1e3e
00000140: 6e78 93be d4f7 253e 2615 033e 8645 a63e
00000150: 3ca2 433c 3fb9 acbd 80f6 53be 4d99 203e
00000160: 14ac 11be 7a1d 5b3e a5f8 d13d 6c7b 813d
00000170: 785e 913e fbe0 2dbd 436c 95bd 1501 533e
00000180: a81c 863d d2c6 f8bd 71fe 13bb 60ca 8bbe
00000190: 8fb8 8e3e 753b 193e e330 8fbe 7a2f 0b3e
000001a0: d608 9eb9 f6c4 d2bd dcbf 1ebe fd66 a7be
000001b0: f119 de3d 575a 863e 872b c4bd 7682 64be
000001c0: 90e8 3bbe 44c3 5d3e 3002 dc3c 7fb8 913e
000001d0: 8719 843e ef62 45be 8362 043e 81a6 1f3e
000001e0: 39e8 293e f034 263e bc73 293e bbcc 0e3e
000001f0: 0c64 d13d b047 0fbe eb86 fcbc c137 943e
00000200: d61b 3a3e ce2f 52bd a77e 2ebc 4ec9 83be
00000210: f3db 4e3e 276d 19be dd69 903c 5c08 e7bd
00000220: d32d 563e 6532 2ebe 449b 7c3e 2416 873e
00000230: c550 fd3d a4b3 94be 4f96 303e 0242 f2bd
00000240: f484 82bd 1da1 f3bd 0c2b 663e b484 cd3d
00000250: 4981 d73d 086a aa3e 0c27 3fbe 159b 9a3c
00000260: cf3e c83d 7469 3c3e cf78 fc3d d958 8abe
00000270: eca7 883d 412b aebb a958 623e e1d2 ee3d
00000280: 72c0 7d3e fafa f63c d3dd 05be 36b3 413b
00000290: 887d 843e b792 20be 7782 493e f9ab 833d
000002a0: d4ad 703e 04ea 70be 63b7 6c3e de46 d1bd
000002b0: 065e bb3d 976c 01be b94c b13e deef 8b3e
000002c0: 36b0 a2be a9bc aebe c745 51be 2b44 3ebe
000002d0: 9680 7fbe 1006 27bd 37db e43c 9742 96bd
000002e0: d8e6 d9bd 7c6c 193d d312 7d3e 8c66 983e
000002f0: 0f91 863e ae5e da3d 577c 20be 1910 843e
00000300: eda3 143e da34 90be d99e 4d3d fb0b b2bd
00000310: 012e 8bbe 914a 45be 662a 9f3d b0b0 8e3d
00000320: 262a 3cbe ddba 95bd b5db 333e 626d 4abd
00000330: 16e2 a83e 4d2b e83d 08ae ce3d 8f40 183e
00000340: 752c 463e 8d7a 273c 76e0 2abe 1f65 613e
00000350: 1fb9 3d3d 0107 62bd 6e14 cfbd cb0f 8cbe
00000360: c79b 42be 6d6e 853e b731 a3be 02ca e5bd
00000370: 8ed3 af3e 4b1d 913e 6546 a1bd ffc8 a6bd
00000380: b66e 603e c4df 82be 8afa 8b3e 91d9 37be
00000390: f388 103e 36bd 7fbe 4d76 ed3d 57ff c3bd
000003a0: 1c12 d0bd 0dfa 5bbe e8e8 2d3e 824d 2bbe
000003b0: 7615 0dbe c902 f6bd 2d86 853d 0307 233e
000003c0: 8819 833e 69d9 3ebe f11c 253e eedb b13c
000003d0: 632c 21be 7bb9 56be ad76 b9be faf7 1e3e
000003e0: ca37 87be 928d 243e 2e99 eebd 85de 843e
000003f0: 6800 c0be dea1 4f3d 5562 5fbe 493e 9cbe
0.122730054 0.051806573 -0.2511346 -0.09888316 -0.045043886 -0.10569854 -0.24568105 -0.0022447794
0.14526713 -0.2588618 -0.08141524 -0.11608421 -0.0912149 0.1754277 0.22545654 -0.06836549
-0.05033567 0.16379847 0.14280607 0.013292014 -0.21257526 -0.24537197 -0.23422366 -0.0019357112
-0.12498346 0.18341897 -0.029942328 0.10395889 -0.21653213 0.088925034 0.16457972 -0.12041284
0.2728431 0.15927249 -0.41788536 0.1302698 0.28864163 -0.008014905 -0.16087452 0.0021943222
-0.21984477 -0.05368832 -0.2694765 -0.18177554 0.34523505 -0.06711355 0.18683831 -0.22896461
-0.2188145 0.22399944 -0.18683504 0.17110512 -0.2540047 -0.34549737 -0.2152117 -0.10721294
0.26081634 -0.25654805 -0.2922296 0.08216557 0.16122077 0.13509671 -0.06970125 -0.023767853
0.20123315 -0.042030167 -0.24003528 0.01139704 -0.0146999005 -0.31955275 -0.07858803 -0.26468077
0.14320618 0.0962397 0.21589991 0.10201812 0.27687413 0.18184343 0.03058636 0.15475696
-0.28802818 0.1620782 0.12801036 0.32474917 0.011940535 -0.084337704 -0.20699501 0.1568348
-0.14225799 0.21397963 0.10252503 0.06322369 0.28392386 -0.042450886 -0.0729604 0.20605882
0.065484345 -0.12147297 -0.0022582079 -0.27302837 0.27875182 0.14964087 -0.27966985 0.1359233
-0.00030142692 -0.102914736 -0.15502876 -0.3269576 0.10844792 0.262408 -0.09578615 -0.22315392
-0.18350434 0.21656519 0.026856512 0.28461072 0.25800726 -0.19276021 0.12928204 0.1559086
0.16592492 0.16231132 0.16548055 0.13945286 0.102241606 -0.1399219 -0.030826053 0.28948787
0.18174681 -0.05131512 -0.010650313 -0.2573952 0.20201091 -0.14983045 0.017628605 -0.11280891
0.20915918 -0.17011411 0.24668604 0.2638408 0.12368921 -0.29043305 0.17244838 -0.11828996
-0.06373015 -0.11895964 0.22477359 0.10035077 0.10522706 0.3328402 -0.18667239 0.018872777
0.09777605 0.18399602 0.1232773 -0.2702091 0.066726536 -0.005315215 0.22104134 0.11661316
0.24780443 0.030148972 -0.130729 0.002955628 0.25877023 -0.15680967 0.19678675 0.064292856
0.2350381 -0.2352677 0.23116831 -0.10218595 0.09148793 -0.1263908 0.34628847 0.27331442
-0.31775063 -0.3412831 -0.20436774 -0.18580692 -0.24951395 -0.040777266 0.027936561 -0.0733692
-0.10639733 0.037456974 0.24714212 0.29765737 0.26282546 0.1066259 -0.15672432 0.25793532
0.14515658 -0.28165323 0.050200317 -0.08693691 -0.27183536 -0.19266726 0.07771759 0.06967294
-0.18375453 -0.07311032 0.1756428 -0.04942072 0.3298499 0.11336384 0.100917876 0.14868377
0.19352897 0.0102220895 -0.16687188 0.22011231 0.046319123 -0.05518246 -0.101113185 -0.273558
-0.19004737 0.2606081 -0.31873867 -0.112201706 0.3434109 0.2834266 -0.07874755 -0.08143806
0.21917233 -0.25561345 0.27339584 -0.17954089 0.14114742 -0.24974522 0.1159483 -0.095701866
-0.10159704 -0.21482106 0.16983378 -0.16728786 -0.13777718 -0.1201225 0.065197326 0.15920644
0.25605416 -0.18637623 0.16124322 0.021711316 -0.15739588 -0.20969193 -0.36223355 0.15524283
-0.2640975 0.1606963 -0.116503105 0.2595102 -0.3750031 0.050691478 -0.21814854 -0.3051627

gnn.conv_params.2.bias f4 [32]
00000000: 8161 023d a33b c53c a860 763d 1253 bd3c
00000010: 9be2 eb3c 437e 2dbc bef0 6c3d 3b37 043d
00000020: f163 113c 0bf8 b83c 7a03 c0bd 9bb6 5abb
00000030: b928 4d3c a072 033c a56e ca3c 4951 e43c
00000040: dbea 10bd 672f a6bb 5ef4 cbbc c85b a13c
00000050: 1b1e b63b 60d9 403c bb73 353d 70ad a83b
00000060: 8839 ba3d 33cb 34bb 3b8b 30bc 8f8d 18bd
00000070: 1ec8 08bd ad6a ca3a ce6c 983d ad17 96bc
0.03183127 0.024076289 0.060150772 0.0231109 0.028794577 -0.010589185 0.057846777 0.032279234
0.008873926 0.022579214 -0.09375663 -0.0033373001 0.012521916 0.008022934 0.024710963 0.027870791
-0.035380226 -0.005071569 -0.024896797 0.019697085 0.005557788 0.011770576 0.044299822 0.0051476285
0.090930045 -0.0027586936 -0.010775383 -0.037244376 -0.03339397 0.0015443169 0.07442628 -0.018321836

gnn.conv_params.3.weight f4 [1, 32]
00000000: 0d16 1c3d 2819 0f3e 981d 4d3e 406a 13be
00000010: fb79 673e cc93 2d3e 9483 cd3e d378 32bd
00000020: 3a4c b43d b7fb 6d3d 2f0b 47bc a6f0 cabe
00000030: 43a8 a5be e724 0abe 2ad7 a0be d3df b1bd
00000040: 8ec9 5e3e 5f22 5ebd 2922 91bc 8976 babe
00000050: 14aa b23c d82f a7be 85bb ce3d 158b 9abe
00000060: f246 8d3d 17dd 61be 7e61 da3d 3053 c53d
00000070: 4067 95bd a4d3 073f e163 543e adb0 123f
0.038106967 0.1397444 0.2003082 -0.14396 0.22605126 0.16950911 0.4013945 -0.04357226
0.088036016 0.058101382 -0.0121486625 -0.39636725 -0.32354936 -0.1349064 -0.31414157 -0.08685269
0.21756575 -0.054231998 -0.017716484 -0.3641856 0.021809615 -0.3265369 0.1009436 -0.30184236
0.06898297 -0.22056995 0.106631264 0.096350074 -0.07295084 0.5305731 0.20741226 0.57300836

gnn.conv1d_params1.weight f4 [16, 1, 97]
00000000: a2b6 d4bd 227d 6ebd 1223 543d 2849 683d
00000010: cdc1 f7bb e710 37bd 3dcc 5fbc b5db a4bd
00000020: 79b0 5bbd c8b2 75bd 1d39 9e3d 9478 a6bd
00000030: 4626 4ebc 2a8e 903d d03d 27bd 9a5c 903d
00000040: 4916 91bd f8ce 8ebc da41 973c 765d bebd
00000050: a303 8a3d 5a64 4b3c 0a1f 01be 3ec9 6b3d
00000060: 40bb 82bd 5749 83bd aca9 0a3d aa83 21bc
00000070: 028d b1bd c54b e33c 9d14 7c3c d8fb efbc
00000080: 8f23 883d a1d2 213c 3630 403d 5852 8abd
00000090: 2572 2e3d 6573 45ba 4444 903d 4283 16be
000000a0: 018c 19bd 5566 593d 11e8 1cbd 6f51 31be
000000b0: ab01 b63d 7d05 403c 5564 b73d 9943 533d
000000c0: a3ca 13bd bd66 bebd 075e b4bd 93a6 eb3c
000000d0: 664e a0bd c6de 513d bc47 1f3d 155e ef3c
000000e0: 4c6c e63d 65da 2cbd 240f 5c3d e3c8 9b3d
000000f0: 4bf8 603b 9e9b 1a3d 2b6b 04bd de10 d73d
00000100: f776 a03c 2812 50bb 183e fabd a903 2dbc
00000110: 01ea 5abd f15d 683d c781 ff3c a284 0fbe
00000120: a032 9abd 8b92 b8bc 7164 e2bd 671f 8c3c
00000130: c1b4 be3c aacd ec3d f5ed 03bd 77dd b6bd
00000140: 06ff d13d 3cb0 90bd 4e5f 673d 3363 f5bc
00000150: 03e4 46bd d7b1 a53d 796d a53c 7f1d 1fbd
00000160: 999e cc3d 7ce0 83bd e336 03bc 1cd5 59bd
00000170: 674a 87bd 3343 80bc 8824 a0bd 6d6a d53d
00000180: 0166 ce3c deb3 a43d d2d3 243c 7b30 4b3d
00000190: 3617 663d 182f 963d 55e0 a6bd aeba 31bd
000001a0: be51 b23b 6ea2 3ebd a0d1 e8bb 6941 9abd
000001b0: 08ec 2f3c 60bd c9bd 9033 523d 0eed c0bc
000001c0: 1165 bdbd fd17 e8bd 045f eabd 6584 353d
000001d0: 3f15 943c 4c14 3bbd 35be 18bd e17c a0bd
000001e0: 45b7 04bd 28c2 80bd a28b a2bd c843 173d
000001f0: f66e c0bb a4f5 9abd 04f0 54bc c93f 32bc
00000200: 7168 e0bc 81ab 1fbc f175 08bd c54f 983d
00000210: 03a2 37bd d18b 843d 7a5f 9c3d 49ca 783c
00000220: 0b92 e5bb eee0 043d 0538 d43d ac8c 8cbd
00000230: 1bad 48bd 2647 983d c541 303d 4855 fc3c
00000240: b5fa b03d ad8f 7a3d 7567 d4bd dcff c8bd
00000250: 9b74 673d 5db1 2ebc a461 0f3d 3fef 943d
00000260: 14a0 b93d a914 873d 78b5 33bd 13e0 c33d
00000270: 6262 f7b9 c56d 5d3c 05ea 9ebd 4b53 4c3d
00000280: 8912 30bd 8be9 47bd d2f2 063e 09a3 dbbd
00000290: 2e0f 623d e63e 2ebd 5e8f 623d 9fd3 813d
000002a0: 9e0a c73b a580 8d3d 7ecf f43b 0145 68bd
000002b0: e3ed b53d 65ce 213c d0c3 003c 90d1 ffbc
000002c0: be76 033d f7a1 04bd 3d33 c6bd 5440 97bd
000002d0: 68ea 963c c44c 91bd c237 0a3d b8a7 e1bd
000002e0: d867 293d 0bff d33d 9237 05bd 6c04 d43c
000002f0: d3ce c13c 2db2 b5bb 2e9f 1d3e 918a 7d3d
00000300: d1a0 0a3e 4854 8fbc 6410 b13d 3aae 2b3d
00000310: cf07 ebbd 8020 dd3d 88b4 6bbd 2a0d 2bbd
00000320: dc69 5b3c 9075 18bd 4794 1d3b 342e 183c
00000330: b94e 37bd 62e8 bb3c 708b 5a3d f6f0 c53d
00000340: f26b c8bd 2b38 34bc d1d7 0b3e c290 64bd
00000350: 42c3 abbd e259 f7bb 5111 16bd 2c11 f73d
00000360: b919 a53d c757 3d3d b12f 7b3d 8d03 e7bd
00000370: feca 87bc 95a5 4e3d 6a5c 783d 6a13 ebbc
00000380: e0cb 973d 2132 ce3d 23d7 783d 6386 1c3e
00000390: 8491 7d3d 87b4 89bd 244d a73d f10e b53d
000003a0: 3c1d b73d a806 bebd e50a efbd 7def d4bb
000003b0: 1175 c93d cf37 663d 7c94 91bd 5d79 d6bd
000003c0: 3eb2 15bc 6b0a 9d3d b7f8 fabc 138d aa3d
000003d0: f45f 893d 854d c83d 210e a53d 204c acbc
000003e0: d162 4b3d 9c77 99bd 603f 873d dd5b 773d
000003f0: 2a43 873d 5aab a9bd 164f f8bd 4866 763c
-0.10386397 -0.058224805 0.05179126 0.056710392 -0.0075609447 -0.044693854 -0.013659534 -0.08049718
-0.053635094 -0.059984952 0.07725737 -0.08128467 -0.012582367 0.07058366 -0.040830433 0.07048912
-0.07084329 -0.017432675 0.018464018 -0.0929517 0.06738975 0.012414062 -0.12609497 0.057564966
-0.06383371 -0.06410473 0.033853218 -0.009858051 -0.08669473 0.02774609 0.015385774 -0.029294893
0.06647407 0.009876878 0.046920978 -0.06753987 0.042589325 -0.0007532149 0.07044271 -0.14698508
-0.037487034 0.053076107 -0.038307253 -0.1731622 0.08887037 0.0117200585 0.08954684 0.051578138
-0.03608192 -0.092969395 -0.08806997 0.028765952 -0.07827453 0.051237844 0.03888677 0.029219666
0.11251125 -0.042200465 0.053725377 0.076066755 0.0034327682 0.037746064 -0.032328766 0.10501264
0.019587977 -0.0031749103 -0.12218875 -0.010559955 -0.05344582 0.056730215 0.031189812 -0.14015439
-0.07529187 -0.022530815 -0.11054314 0.017104818 0.02327955 0.11562665 -0.032209355 -0.0892896
0.1025372 -0.07064864 0.056487374 -0.029954528 -0.048557293 0.08090561 0.020193802 -0.03884649
0.099911876 -0.06439301 -0.0080086915 -0.053181753 -0.06605988 -0.015657043 -0.07819468 0.1042069
0.025195124 0.080421194 0.0100602675 0.04960678 0.05617448 0.07333201 -0.08148257 -0.043390922
0.0054418733 -0.046541624 -0.0071050674 -0.07532007 0.010737427 -0.098505735 0.051318705 -0.023550536
-0.092477925 -0.113327004 -0.11443904 0.044315714 0.018076537 -0.045673653 -0.03729077 -0.07836319
-0.032401342 -0.06287032 -0.07936789 0.036929876 -0.0058726026 -0.075663835 -0.012996677 -0.010879465
-0.027393552 -0.00974548 -0.033315603 0.0743709 -0.04483224 0.0647198 0.07635398 0.015184947
-0.007005935 0.032441072 0.103622474 -0.068627685 -0.04899321 0.074354455 0.043031473 0.030802384
0.086415686 0.061172176 -0.10371295 -0.09814426 0.056507688 -0.010662404 0.035005227 0.07272195
0.090637356 0.065957375 -0.043874234 0.09564223 -0.00047184812 0.013514941 -0.077594794 0.049884122
-0.042986427 -0.04880671 0.13178566 -0.10724456 0.055190258 -0.042540453 0.055312507 0.06339192
0.0060742637 0.069093026 0.007471024 -0.056706432 0.08883264 0.009875868 0.007859185 -0.031227857
0.032095663 -0.032381024 -0.09677742 -0.073853165 0.01842232 -0.0709472 0.03374458 -0.11018318
0.0413588 0.1035138 -0.0325237 0.025881015 0.023658192 -0.005544922 0.15392753 0.061899725
0.13537909 -0.017496243 0.086457044 0.041914202 -0.11476099 0.107972145 -0.057545215 -0.0417606
0.013391938 -0.03722149 0.002404468 0.009288359 -0.04475281 0.022937957 0.053355634 0.096651
-0.09786214 -0.01099972 0.13656546 -0.055802114 -0.08386852 -0.0075485567 -0.036637608 0.12063822
0.08061547 0.04622629 0.06132478 -0.11279974 -0.016576286 0.05045088 0.060635008 -0.02869578
0.07411933 0.10068155 0.060752045 0.1528564 0.061906353 -0.06723886 0.0816901 0.088407405
0.08941123 -0.09278613 -0.11672 -0.006498276 0.09836782 0.056205567 -0.07108399 -0.10472367
-0.0091367345 0.07668003 -0.030636175 0.08327689 0.06707755 0.09780411 0.080593355 -0.021032393
0.049654786 -0.07493517 0.06603885 0.060390342 0.066046074 -0.08284636 -0.121244594 0.015039034

gnn.conv1d_params1.bias f4 [16]
00000000: 414e a43d 4a18 8c3d 97c4 e13d 757e cbbd
00000010: b1e5 b33d a37e 4bbd dc46 11bd 2904 6dbd
00000020: 67bf dcbd 7165 4dbb b17f a93d 4a3f 7d3b
00000030: b40d 85bc 9ac2 1fbb 39ef 22bd daaf 8cbc
0.08022738 0.0684057 0.11023825 -0.09936229 0.087840445 -0.049681317 -0.035467967 -0.057865296
-0.107786946 -0.0031340981 0.08276308 0.003864246 -0.016241886 -0.0024377466 -0.03977892 -0.017173696

gnn.conv1d_params2.weight f4 [32, 16, 5]
00000000: df80 e63d 2cb9 91bd 4fe2 4d3d 744c d1bd
00000010: 8e61 cdbb ea79 593d 61e9 c03b 482a bb3d
00000020: 9bb7 343c dbba 1dbd d382 8ebd 10e5 c6bc
00000030: 0c84 d03d 31b8 e53d 72db ee3d b825 e1bc
00000040: 1c56 a0bd a84b cc3d 6615 c1bd 1831 2c3d
00000050: 6800 a63d 2a34 b73d d181 113e 6111 663d
00000060: b033 4fbd ae55 aeba 471d 433c 76fc 08bd
00000070: 8177 01bc ff0b dcbc 55df a1bd 5538 68bd
00000080: 2c0d 94bd a14f b9bd 1976 13be 5e88 503b
00000090: af49 953d ffe8 0ebc 770e eabc f767 163e
000000a0: ad0b 903d e6b9 bcbd 5c38 95bd 45af 293d
000000b0: 0cc0 fb3c fc95 a2bd 1c0b 883b 3365 88bd
000000c0: c643 793b 982c 4cbd 2284 6fbc 6fa3 9f3b
000000d0: 3f29 61bd 08d3 da3d 552a 28bd 8c38 a13d
000000e0: 15c3 283d 6529 f2bc 9f09 9d3d c06b b73c
000000f0: 77bb 4dbd 127b e33b e371 9bbd 6cfc 8bbc
00000100: 7027 1d3d c69d b43d c93b 20bd c37a dabd
00000110: 5bdf 58bd aeb7 1abd f957 893c fa7a eabc
00000120: 6711 bd3d c477 41bd 7d18 03bd 04fc e0bd
00000130: dc0e f23d 746b ea3d 080e 8dbd 0181 233d
00000140: cbfd a53d ffa3 9b3d 2baf 30bd c738 cf3c
00000150: a8b6 343d 3fed 51bd 74a7 a3bd e5bb 713d
00000160: 5191 7cbd 4a39 843d be8a 6c3c 7720 d63c
00000170: 6cc4 f43c a74a a9bb bbbf 18bc e86a 85bc
00000180: 242d d9bc b84a 423c ea5e d43d e267 aa3d
00000190: bd80 47ba da0f 983d 0a90 4e3d aeaf 453d
000001a0: 73d0 22bd aa91 e0bc 17f3 923d d673 303d
000001b0: 873a ddbd aff8 033d 3cdf 4cbe e07b 06be
000001c0: 4df6 a1bd bbcd 33bd da46 d6bc 08c6 973d
000001d0: e5cb c83c 7ca0 153d 0c63 e23d aed0 b93d
000001e0: 6403 d73d a418 9c3d c0a3 12bd 2a61 05bd
000001f0: 150b 03bd c0d7 1a3e 3373 e13c 0caf 003e
00000200: 9987 b83d d941 173e 53c0 a23d d355 1bbd
00000210: f96c 1a3d 407b a3bd 487a 24be 36f2 c23d
00000220: 6754 c5bd 7b8c 5c3d b07e 993d be4c 5d3d
00000230: de5b 393d 32cf 373d 9be1 39bc 9999 b2bd
00000240: 0edb 0e3e 616c 403d 8d33 663d 42c0 983d
00000250: af49 d73d 5815 9f3d 4808 02be c020 933d
00000260: 9672 05be b1ed e3bc 2bcb 42bc 1e9c db3d
00000270: f180 543d 4cb0 a0bd 7341 a53d 8083 1f3e
00000280: 6c98 98bd 364b be3d 2330 60bb cb51 6fbd
00000290: 23b4 ef3d 7464 0b3e 5105 ed3c 8944 b1bd
000002a0: 4549 373c 82d9 763d 4007 6c3c 8174 01be
000002b0: 600e c83d 9652 023d beb3 5dbd eb90 c3bd
000002c0: bc0e 733d ac98 473d caa5 8a3d 0a15 983d
000002d0: 8609 213d c05d 04be 3f48 94bd 6b69 223e
000002e0: e4bd 2c3d a7f1 20be c106 08be 57e4 493c
000002f0: ae41 f2bd d868 cabd 7dd6 c5bd 9607 f5bc
00000300: 4936 fbbd 7e09 5fbd 16d8 38be 1afd bd3d
00000310: 457b eebd 7f89 0fbe fd11 ab3d d748 29bd
00000320: beed 73bd 9ee9 0cbd 3f1c be3d afb1 91bc
00000330: 7065 833d 445a 023e c4d9 803d 49e0 c03d
00000340: 69b2 a9bc 1dbf 6cbd 6902 f6bd 8489 bebd
00000350: dd33 9bbd c01a 29bc a786 35be aa39 a73d
00000360: 86fd d23d ce5a a33d e107 d53d 4ec2 cf3d
00000370: f6cf 26bc c944 2cbd 30f1 9ebd 3181 023e
00000380: 0018 263c 8eed 573d 7bca 82bc 3644 3f3d
00000390: c593 07bd 9d43 90bd 9212 4dbd 4637 0d3d
000003a0: 58c4 f4bd d673 9d3d 12af a3bb 2453 b7bd
000003b0: ae50 c1bd 79cb c1bd d067 b43d 35d2 0abe
000003c0: 41cb 563d f904 b7bd 0453 a13d e627 a4bd
000003d0: 5c6c b6bd 5eaf adbd 9d55 10bd 9d7a 6abd
000003e0: 67d0 d5bd 3f9f b3bd fbb0 fb3d e732 b5bd
000003f0: f993 ee3c f4c0 afbd 28c9 f63d ce0b 93bd
0.11255049 -0.07115397 0.050264653 -0.102196604 -0.006267733 0.053094782 0.005887196 0.09138924
0.011030103 -0.038508277 -0.069585465 -0.024279147 0.10181436 0.11216772 0.116629496 -0.027483806
-0.07828924 0.09975368 -0.094279096 0.042039007 0.08105546 0.089454964 0.14209677 0.056168918
-0.050586402 -0.0013300681 0.011908836 -0.03344389 -0.007902027 -0.026861189 -0.07903925 -0.056694347
-0.07229075 -0.09048391 -0.1440052 0.0031819562 0.07289445 -0.008722543 -0.02857135 0.14688097
0.07033477 -0.09215145 -0.0728614 0.041426916 0.030731224 -0.079387635 0.004151715 -0.06659927
0.003803478 -0.049847215 -0.014618905 0.0048717777 -0.054970976 0.10684782 -0.041055996 0.078721136
0.04120167 -0.029560754 0.07667851 0.022390246 -0.05022761 0.0069421614 -0.075900815 -0.017088138
0.03836769 0.088191554 -0.039119516 -0.10667946 -0.052947383 -0.037772827 0.016765581 -0.028623093
0.09231835 -0.047233358 -0.032005776 -0.10985568 0.118192405 0.11446276 -0.06887442 0.03991795
0.08105048 0.07599639 -0.043135803 0.025295628 0.044119507 -0.051251646 -0.079909235 0.05901708
-0.061662022 0.064562395 0.014437376 0.026138527 0.029878817 -0.00516637 -0.009323056 -0.016286328
-0.026510783 0.011858635 0.10369666 0.08320595 -0.0007610431 0.074248984 0.050430335 0.048263244
-0.039749574 -0.027413208 0.07175272 0.04307922 -0.10802179 0.032219585 -0.20007032 -0.13133192
-0.07908306 -0.04389737 -0.026156832 0.07410818 0.024511287 0.036530003 0.11054048 0.090730056
0.104986936 0.07621887 -0.035800695 -0.032563366 -0.03199299 0.15121365 0.027520752 0.12566775
0.09010238 0.14771213 0.07946839 -0.037923645 0.03770158 -0.079824924 -0.16062272 0.09518854
-0.09635239 0.05384491 0.07494867 0.054028265 0.045253627 0.04487533 -0.011345292 -0.08720703
0.1395075 0.04697836 0.056201506 0.07458545 0.10512101 0.07767743 -0.12698472 0.07183981
-0.13031992 -0.027823301 -0.011889259 0.10723136 0.05188078 -0.07846126 0.08069124 0.15577507
-0.07450947 0.09291689 -0.003420838 -0.058427613 0.1170428 0.13612539 0.0289332 -0.0865565
0.011186902 0.060266025 0.014406025 -0.12642099 0.09768367 0.03181704 -0.054126494 -0.09549125
0.059340224 0.048729584 0.06769903 0.07425888 0.039315723 -0.12926388 -0.07240342 0.15860526
0.04217328 -0.15717183 -0.13283826 0.012322507 -0.11828934 -0.098832786 -0.09660051 -0.029910844
-0.122662134 -0.05445241 -0.1805118 0.09276791 -0.116446055 -0.14017294 0.0835304 -0.04132923
-0.0595529 -0.034402482 0.09282731 -0.017784921 0.06415832 0.12729746 0.062915355 0.09417779
-0.020714955 -0.057799447 -0.120121785 -0.09303573 -0.075782515 -0.010321319 -0.17727147 0.081652954
0.10302262 0.07976304 0.104018934 0.101444826 -0.010181418 -0.042057786 -0.077608466 0.12744595
0.010137558 0.052716784 -0.01596569 0.04669591 -0.03309991 -0.07044146 -0.05006654 0.03447654
-0.11951512 0.076881096 -0.0049952352 -0.08951405 -0.094392166 -0.094626375 0.08808863 -0.1355675
0.05243993 -0.08936495 0.07877162 -0.080154225 -0.08907387 -0.08480714 -0.035237897 -0.05724584
-0.1044014 -0.08770608 0.12289616 -0.088475995 0.029123293 -0.08581725 0.12050086 -0.07179986

gnn.conv1d_params2.bias f4 [32]
00000000: bd3a 54bd c894 92bd 3860 90bd bae6 ba3d
00000010: 7bb5 7d3d 0a56 1bbd 2aeb 143d 0459 a33d
00000020: 92a1 89bd f202 883d 23ca 27bc a881 2c3c
00000030: a2fc 8dbd d549 1abd 6b3d 4d3d 5cec 5dbd
00000040: 17cf 3abd 035b 803d 2338 4dbd 7e6e c33d
00000050: 13a7 263d a528 823d 6e11 7e3d a3ff 03bd
00000060: 0c81 9fbd e947 88bd a282 9bbd 114a 06bd
00000070: 8842 333d c0a6 85bd 6a03 9bbd a750 423d
-0.05181383 -0.07157284 -0.07049602 0.09126039 0.06194065 -0.03792385 0.036357082 0.07975963
-0.0672027 0.06641187 -0.010241064 0.010528959 -0.069329515 -0.037668068 0.0501074 -0.054180488
-0.045607653 0.06267359 -0.050102364 0.09542559 0.04068668 0.063554086 0.06202834 -0.032226216
-0.077882856 -0.06654341 -0.075932756 -0.03278548 0.04376462 -0.06525946 -0.075690106 0.047440197

mlp.h1_weights.weight f4 [128, 480]
00000000: fae2 643d ee26 13bd 20e5 0ebd 8909 553c
00000010: 6ab9 9d3d 410c a63c 3622 c7bc ca80 7dbd
00000020: 0168 043d b106 dabd d68f a73d fff8 f83c
00000030: bd49 83bd 2372 9e3d 4da1 f93c 80c1 9b3c
00000040: 8c85 93bd 5838 4b3c 7823 6f3d f511 c93d
00000050: f06b a8bd 8e79 6c3d b057 1bbd b2b7 6fbd
00000060: 00e1 893c 3ad2 9fbd 3e4e c63b 1baa 55bd
00000070: 5d4d bbbd b2bf ea3c 1c24 a13d e773 b63d
00000080: 1d7d 8c3c c731 2c3c 23ab e03d 403d 123e
00000090: b50e 863b da3b 863d d3c5 a93d 7b2d ad3d
000000a0: 3698 333d 0119 ab3d 25c0 84bb 5c7d 22bc
000000b0: fe75 bc3d 1011 f7bb e197 333d 7655 a5bc
000000c0: 53e9 dfbc d87c ae3d 8ff0 7d3d 6ab8 463d
000000d0: 9b4d ce3d 48fe 5ebb 1cb8 51bd 915b ec3c
000000e0: 2be2 ddbc 1ef7 0bbd cbcf 803d 298b f037
000000f0: 8fbb 213d 764f 723d 785a 943d 0980 a23c
00000100: 3f77 d93d 2639 1cbc 20ab c13c 86d4 2b3d
00000110: 691d 423b 2639 2e3d ef71 b33d b63d c93d
00000120: 7276 80bd fce8 483d 0265 d53a 15b3 18bd
00000130: 5e7a 8b3c 1f94 cb3b b112 a13d a166 123d
00000140: 6f8c 32bb 4cd0 62bd 228a e0bc 8e94 9abd
00000150: d3e3 afbd 144a 823d 02b0 d93d b4ca 32bd
00000160: 24a5 79bd c42c 8fbb 9982 673d 8ab3 9c3c
00000170: a05e a73d 92f0 983d cfab 42bd 57fb 6d3d
00000180: 0ce7 bf3c c28a 82bd 250e 2f3d 0f75 edbd
00000190: a0ef 823d faf3 2b3d cc6f 92bc 74aa a03d
000001a0: b51a a43c fbd2 0a3e f586 bfbd d9e9 09bd
000001b0: 6f31 c73a f5f8 dfba 16be aabc 4aa7 86bd
000001c0: 27bd 20bc 5000 4abc 8118 f03b 5f20 413d
000001d0: f273 ecbd 1535 fcbd df5b f6bd 5734 6239
000001e0: f1ca 293d f1b2 af3c 7a5c 9a3d 10cb d93d
000001f0: b1f4 873d dd05 ee3b 405b fa3d adff 92bd
00000200: 4d9b a73c beaa 2dbd f619 963d 37ec b5bd
00000210: 1f8d 1cbd 8efd 25bd a1f7 72bd 01a2 32bd
00000220: 144f 433c 8c09 1f3d a1db 303d 2e2d c53b
00000230: db95 2abc 87e3 fa3c 269c 8d3d 5422 d03d
00000240: f5b2 133d f660 ef3b 610a 173c 410b 55bc
00000250: 8276 2bbd cbf2 ddbd 5d94 80bc 68ec 65bb
00000260: 1a48 30bd dbf5 c23d 61af b2bd ab9c fb3c
00000270: 62f3 f63c e6ac bcbd 1750 9f3c 555a 86bd
00000280: 0ad1 a2bd e138 b5bd 05ed ee3c 111e aa3d
00000290: 6c07 323d 4a4d 61bc 7009 1e3d 823d 173a
000002a0: 30ed b63c d5aa 823d eeea 333d fcfa c33c
000002b0: 2537 ab3c a859 3a3d a4e0 0e3c e645 6fbd
000002c0: b63f e23d 9b65 993d 238a 043d 4572 893d
000002d0: 31ae 65bc c975 bcbc 20dd fd3b d383 743d
000002e0: bad7 083e c685 10bd 3daf b53d a696 bd3d
000002f0: 5ea3 143d dc00 693a 89e3 db3d 1b2a 7d3d
00000300: 9d67 383d 13ce 123e bac9 f03d 348b 09be
00000310: 4c01 c13c 39a8 b2bd f95d af3b c4ca 36bd
00000320: be86 60bd df83 8dbb 05bc 76bd fb05 d43a
00000330: 9ec1 dfbd 41e7 97bd dbbd a0bd 5230 06be
00000340: e35e 89bd bd39 76bd 372d 37be 8e5f 03bd
00000350: d7fd debc 33ef e1bd 124e 02be bbea 423d
00000360: a2f7 b73c a578 b6bd 3cd5 71bc 5d2a 833c
00000370: 91d5 46bd 8a18 153d a16b 7ebc a61d 2a3c
00000380: c9be 8cbc 4b8f 95bb 5397 823d b02c 013e
00000390: 8b83 223e 46c1 7d3d f6e8 33bd 9c42 723c
000003a0: f713 e3bc 39e3 cd3d 6bb3 d43d f353 4a3d
000003b0: 6ded c73d 6d5d 0b3e 97a5 e73c c401 5f3e
000003c0: f522 59bd 8558 2dbc 9572 723c 0e10 6dbd
000003d0: 936d e23d b6af 1e3d 0ed2 64bd 1b4d c4bc
000003e0: 77fa 94bc b001 173d c04c a63d 4763 073d
000003f0: 5bd5 983c afc1 feba 5ff4 6c3d 544d b1bb
0.055880524 -0.035925798 -0.03488648 0.013002762 0.077013806 0.020269515 -0.024308305 -0.0618904
0.03232575 -0.106458075 0.081817314 0.030392168 -0.06410549 0.077366136 0.030472422 0.019013166
-0.072032064 0.01240357 0.058383435 0.09817878 -0.082237124 0.05773311 -0.037925422 -0.058524795
0.016830921 -0.078037694 0.0060518077 -0.05216418 -0.09145615 0.02865586 0.078682154 0.08908825
0.017149502 0.010509915 0.10970142 0.14281178 0.0040911087 0.065543845 0.08289685 0.0845594
0.04384633 0.083543785 -0.0040512257 -0.009917583 0.09202193 -0.007539876 0.043846015 -0.020182353
-0.027332937 0.08519906 0.061996993 0.048515715 0.10073396 -0.0034026075 -0.05120097 0.028852256
-0.027085384 -0.034171216 0.06289633 2.8675031e-05 0.03948551 0.05915781 0.07243818 0.019836443
0.106184475 -0.00953511 0.02364117 0.041950725 0.002961958 0.04253497 0.087619655 0.098262236
-0.06272592 0.049050316 0.0016280713 -0.03728016 0.017026123 0.006212726 0.07864893 0.035742406
-0.002724435 -0.05537443 -0.027409617 -0.07547866 -0.08588376 0.063617855 0.10629274 -0.043650344
-0.060948506 -0.00436935 0.056521032 0.01912858 0.08172345 0.0746776 -0.04752713 0.058101024
0.023425601 -0.06374122 0.0427381 -0.11594593 0.06393361 0.04198072 -0.017875575 0.07845011
0.020032266 0.13557045 -0.09351913 -0.03367028 0.0015197227 -0.0017087745 -0.020842593 -0.065748766
-0.009810722 -0.012329176 0.00732714 0.047150012 -0.11545552 -0.12314812 -0.12029242 0.00021572538
0.041453306 0.02144763 0.0753717 0.10634434 0.06638468 0.0072638826 0.12224436 -0.071776725
0.020459795 -0.04239916 0.073291704 -0.08882945 -0.03822052 -0.04052501 -0.05931819 -0.04361153
0.011920709 0.038827464 0.043178204 0.0060173487 -0.010411705 0.030626072 0.069145486 0.101627976
0.03605934 0.00730526 0.009218783 -0.013003171 -0.041861065 -0.10837325 -0.015695745 -0.0035083536
-0.04303751 0.095195495 -0.08724857 0.030714354 0.03014535 -0.09212665 0.01944737 -0.06560198
-0.07950027 -0.088487394 0.029165754 0.08306516 0.04346411 -0.013751337 0.03858322 0.0005769358
0.022329897 0.0638024 0.04392522 0.02392339 0.020900318 0.04549566 0.008720551 -0.05841627
0.11047308 0.07490083 0.0323583 0.06711248 -0.014018581 -0.023005383 0.0077473074 0.05969603
0.13363543 -0.035283826 0.08871315 0.092572495 0.03628861 0.00088883727 0.10736758 0.061807733
0.04502069 0.14336424 0.11757226 -0.13432008 0.023560189 -0.08723492 0.0053517786 -0.044626966
-0.054816 -0.004318699 -0.060237903 0.0016176099 -0.109256014 -0.07417155 -0.07848712 -0.1310437
-0.06707551 -0.060113657 -0.17888342 -0.03207355 -0.02722065 -0.11031952 -0.12725094 0.047587138
0.022456948 -0.0890973 -0.014760312 0.016011411 -0.048543517 0.036400355 -0.01552859 0.010383045
-0.017180817 -0.004564201 0.06376519 0.12614703 0.15870492 0.061951898 -0.04392334 0.014786389
-0.02771948 0.10053105 0.10385784 0.049396466 0.09762082 0.13609858 0.028277202 0.21778017
-0.053011853 -0.010580187 0.014797826 -0.05787664 0.11056056 0.03874179 -0.055864386 -0.023962548
-0.018185837 0.036866844 0.08120108 0.033053663 0.018656423 -0.0019436384 0.057850238 -0.0054108296

mlp.h1_weights.bias f4 [128]
00000000: 8394 023c 70cd e437 6a3b 183b 9b7d 063d
00000010: 580c 6f3c 80e7 963c f354 30bc d0f3 d43b
00000020: 2d56 103c 18e6 c2bb c3fe 21bb 4672 7dbc
00000030: 0460 8dbc 553f 873a cf68 c73c 786c 7e3c
00000040: 065f e13c 9846 ce3b a29e ceb7 d05d 5b3c
00000050: b64b 39bc 76b8 a5bb b8be 623c ef4b a73c
00000060: 6474 903b d3ed d8b9 cf3d 1b3b 1fa3 d8bb
00000070: 3d1b 4d3c 4d4a 96bc 1596 40bb 0250 03bc
00000080: 80b4 063b 0a52 c93c a49e 223c f612 2a3a
00000090: 9ba4 733c 25bc d2ba b9bc 183d dcee a93c
000000a0: 3142 6b3c a5ac 3c3c 5144 9fbc 67d5 b63c
000000b0: e26c ec39 cee6 6d3b 2d6e a33c ba73 55bc
000000c0: 8baf 92bc a36c 20bc 877c ed3b 40bc d5bb
000000d0: bf33 79bc 29c1 ca3c 8977 e43b f3e5 eebb
000000e0: 4e88 183b 40e3 843c 89d1 853c df30 463c
000000f0: db4d 2d3c 2ff6 553c 88eb c93c cf19 003d
00000100: 511e 01bc e59b 7bbb a3fb 933c 390f 9d3c
00000110: 2c8e f83c e86b 8ebb faa9 163c 3073 92bb
00000120: 216c 6cbc 74d0 15bc 10be 0d3c ec62 ed3c
00000130: 36aa dd39 b5c3 56ba 7c5e 8a3b a1cf a13c
00000140: 311d 9e3c f767 353c 2b9d 3a3c 0110 053d
00000150: c2ed cc3b e343 36bc 0e6f 563c f11d b5bb
00000160: ae91 82bc 87ea ff3b f68d 61bd 53aa ec3b
00000170: b67b a73c e363 9d3c 6f81 ed38 a43f 973c
00000180: 4986 253c 4c04 4fbb 1ac8 813a c26a 963c
00000190: 4915 263c c9e7 103c 37c1 ff3b 9a66 17bc
000001a0: 860e e13b 0bdf ca3c 28ec cf3b f2ff cfbb
000001b0: 1f91 983c 9517 893c 7bf8 8d3c bd30 7a3c
000001c0: c029 0a3c 9e04 b43c ea1a a6b9 f633 953b
000001d0: 960d 5ebc 35ba a73c 79f8 a53a a99e 173b
000001e0: 3678 343c 2af8 783c 5aa3 3abc cf8f cb3a
000001f0: efd6 883b e531 a63b 94a0 7e3c 3452 873c
0.007969978 2.7275382e-05 0.0023228773 0.03283463 0.014590345 0.018420935 -0.010762441 0.0064987913
0.008809608 -0.0059478395 -0.00247185 -0.015469139 -0.017257698 0.0010318557 0.024341969 0.015528791
0.027511131 0.0062950365 -2.4630983e-05 0.013389066 -0.011309555 -0.00505739 0.013839416 0.02042195
0.004408406 -0.00041375923 0.0023687964 -0.0066112424 0.012518701 -0.018345976 -0.002938633 -0.008014681
0.0020554364 0.024575252 0.009925518 0.0006487811 0.014870788 -0.00160778 0.037289355 0.02074378
0.014359043 0.011515771 -0.019441755 0.022318555 0.00045094552 0.00363009 0.019949997 -0.01302808
-0.017905971 -0.009791526 0.007247511 -0.0065226853 -0.015210091 0.024750309 0.0069722575 -0.0072905957
0.0023274603 0.016221642 0.016335266 0.012096613 0.010577644 0.013059183 0.024648443 0.031274613
-0.007880763 -0.003839248 0.018064326 0.019172298 0.03034123 -0.0043463595 0.009195799 -0.004469298
-0.014430077 -0.009143937 0.008651271 0.028977834 0.00042279222 -0.0008192615 0.004222689 0.019752325
0.019301029 0.01107215 0.011390011 0.032485966 0.006253929 -0.011124584 0.013088001 -0.005527251
-0.015938606 0.0078099403 -0.055067025 0.0072224527 0.020444732 0.019212669 0.000113251495 0.018462963
0.010102817 -0.0031588254 0.0009901554 0.018361453 0.010136911 0.008844324 0.0078050154 -0.009240771
0.0068681864 0.024764558 0.0063452907 -0.0063476497 0.018623887 0.016734878 0.017330399 0.015270409
0.008432806 0.021974858 -0.0003168204 0.0045533134 -0.013553044 0.020474533 0.0012662552 0.002313534
0.011014989 0.015195886 -0.011391485 0.0015530529 0.0041760127 0.005071866 0.0155412145 0.01651869
