data/models/facebook_model.pth (torch, 514383 bytes, 15 tensors)

gnn.conv_params.0.weight f4 [32, 52]
000000 41 05 0f 3e d8 62 e6 bd 4c a2 92 be f9 68 84 be
       0.13966848 -0.11249322 -0.28639448 -0.25861338
000010 95 14 d0 bd 30 24 fd 3d bd 64 ba 3c 6c 82 d8 3d
       -0.10160176 0.12360418 0.022753114 0.10571751
000020 e8 c5 df 3d 0c 35 ef bd 8e a9 75 3e 59 19 5a be
       0.109264195 -0.1168004 0.23990461 -0.21298732
000030 dc d4 79 be f0 ed b6 3d 98 44 8f 3d dd 08 82 3e
       -0.24397606 0.08932102 0.06995505 0.25397387
000040 63 e0 84 be c0 19 67 bc bb ce 49 3e b4 05 26 3e
       -0.25952443 -0.01410526 0.19707768 0.16213113
000050 14 86 0e be c6 d7 1c be db 39 56 bd 61 96 0b be
       -0.13918334 -0.15316686 -0.05230127 -0.13631584
000060 6c cc e6 3d 60 a2 3d be 2d 9e 87 be 89 88 7a 3e
       0.11269459 -0.18518972 -0.26487866 0.24466147
000070 c8 4b 2b be d8 3e fa bc 7a 61 2d be 6f 55 16 be
       -0.16728127 -0.030547544 -0.16931716 -0.14681028
000080 49 51 8c 3d 8c 56 5b bd da ca ce bd 88 9c 6c be
       0.068514414 -0.053549334 -0.100972846 -0.23106587
000090 60 f8 a6 3d 16 0a 78 be 15 a8 54 bd e0 2b 24 be
       0.081528425 -0.24222597 -0.051918108 -0.16032362
0000a0 7a f7 ca bd 5f a4 86 3e 7c f8 47 bd b0 e0 52 3d
       -0.09910484 0.2629728 -0.048820958 0.05148381
0000b0 75 d6 4b be 50 6c ef 3c 40 ad 88 bb 67 ca 56 be
       -0.19906028 0.029226452 -0.0041710436 -0.20975648
0000c0 90 cc 83 be c8 89 e6 3d de 2d 34 be 26 ab c8 bd
       -0.25742006 0.112567484 -0.17595622 -0.09798269
0000d0 a8 44 f9 3d 34 b0 19 3e 3a a4 3c 3e 12 6f 0d be
       0.12171298 0.15008622 0.18422022 -0.13811901
0000e0 46 15 05 be 52 17 45 3e 4d 62 88 3e 98 e5 72 be
       -0.12996396 0.19247177 0.26637498 -0.23720396
0000f0 9e 2a 1d 3e 80 04 8b 3d 00 9d 5a 3c 1c ed 03 bd
       0.15348288 0.06787968 0.013343096 -0.032208547
000100 04 b8 49 bd a1 20 40 be 30 ae 51 be 91 21 1e be
       -0.049247757 -0.18762447 -0.20476604 -0.15442492
000110 d4 8b 6a be 7c 6b fa bd 4a 61 69 3e 00 b2 5b bc
       -0.22904903 -0.12227532 0.22791019 -0.013409138
000120 54 0f 22 bd 78 0e 58 3d ea 95 de 3d 00 fa ff ba
       -0.0395654 0.052748173 0.108684376 -0.0019529462
000130 68 d1 31 be 0c b1 ec bd 60 13 6a be eb b8 ed 3d
       -0.17365038 -0.115572065 -0.22858953 0.11607536
000140 78 35 b6 3d e2 87 ae bd c8 2e 2e be a0 44 af bc
       0.08896917 -0.08522011 -0.17010033 -0.021395028
000150 9d bf f4 bd 89 42 42 be 1c 96 21 3e 3c d9 84 be
       -0.1195061 -0.18970694 0.15779918 -0.25946987
000160 4a e3 a5 bd 32 04 88 be de 25 30 3e c1 ab 85 be
       -0.080999926 -0.265657 0.17201945 -0.261076
000170 ee 45 15 3e d0 35 3f 3e 9c 59 f9 bd 68 97 35 3d
       0.14577457 0.18672872 -0.12175295 0.044333845
000180 73 5a 35 bd f8 5c e1 bd f8 a3 6b bd 60 fa dc bc
       -0.044275712 -0.110040605 -0.05752942 -0.026974857
000190 d2 8d 4c be c5 f3 80 be 54 41 6d be 1e 60 79 3e
       -0.19975975 -0.2518598 -0.23169452 0.24353072
0001a0 d4 7b a0 3d b2 1e 2d be 71 9b 02 bd 76 81 3e be
       0.07836118 -0.1690624 -0.03188652 -0.18604073
0001b0 40 3c 47 be e0 7a 85 be d3 79 6b 3d 0c 78 c3 3d
       -0.19456577 -0.2607031 0.057489228 0.095443815
0001c0 fa 54 32 3e ee 09 5c 3e d8 ae e0 bd 47 36 a3 bc
       0.17415228 0.21488163 -0.10970849 -0.019923342
0001d0 90 ef fe 3d a2 21 1c 3e 64 a6 3f 3e 58 6b f2 bc
       0.12448037 0.15247205 0.18715817 -0.029592201
0001e0 c0 d3 07 3e 30 72 bb 3d 87 8c 71 be 60 0c d9 3d
       0.1326437 0.09152639 -0.23588763 0.105980635
0001f0 c4 45 1b 3e 7c e9 7f bd cc 10 45 3e d0 52 2d 3d
       0.15163332 -0.062478527 0.19244689 0.042315304
000200 52 96 72 3e bc e7 71 bd 6a 2b d8 bd 2c 8a 6d be
       0.23690155 -0.05905889 -0.105551556 -0.2319724
000210 a0 b4 66 be e0 22 a5 3c 04 c5 62 3e 84 52 50 bd
       -0.2252984 0.020158231 0.22145468 -0.050859943
000220 b6 e1 15 3c ac b4 f6 bd 4a 19 02 3e 3e bc b3 bd
       0.009148052 -0.12046179 0.1270496 -0.08776139
000230 90 dc 33 3e c4 86 f2 3d 85 21 e6 bd 04 13 5a be
       0.17564607 0.11842111 -0.11236862 -0.21296316
000240 78 16 1c 3d 4c 7e d9 3d 7c 75 26 be 2e 94 5b 3e
       0.038107365 0.10619792 -0.16255754 0.21443245
000250 f9 d4 ed 3d d2 4e a1 bd b0 99 ad 3d 0e a3 79 be
       0.11612887 -0.07876362 0.08476579 -0.24378607
000260 6a b8 7b 3e e4 10 c4 3d be 39 17 3e 98 39 ee bd
       0.24582067 0.09573534 0.1476812 -0.11632079
000270 24 4d ff bc 4f 29 24 3e f8 26 25 be 60 c9 56 be
       -0.031164713 0.16031383 -0.16128147 -0.20975256
000280 fd 87 38 be 80 ff 5b bd 14 7f 16 3d 9c 52 ac bd
       -0.18020625 -0.05371046 0.036742285 -0.08414194
000290 b3 a5 5a be 06 8c 6b 3e a4 e0 9a 3d f3 fb 28 be
       -0.21352272 0.23002633 0.07562378 -0.16502361
0002a0 4a 95 be bd f2 58 6f be 23 92 7a 3d 69 86 85 be
       -0.093058184 -0.23373774 0.061174523 -0.2607911
0002b0 76 4b bf bd 08 f4 4e be 63 b6 54 be 94 c9 9c bd
       -0.09340565 -0.20210278 -0.207727 -0.076556355
0002c0 38 c5 f9 3d aa 09 79 3e a1 67 24 3e 40 73 d4 3c
       0.121958196 0.24320093 0.16055156 0.025933862
0002d0 24 d1 57 bd dc 68 bb 3d 00 bc 0b 3b 98 df 4f be
       -0.052689686 0.0915086 0.0021321774 -0.20300138
0002e0 d4 b1 58 be 90 ee 6d 3d bb e7 0e be ce fc 61 be
       -0.21161586 0.05808884 -0.13955586 -0.22069094
0002f0 71 59 4e 3e de a5 80 bd 8e 50 52 be 5c f2 8d bd
       0.20151307 -0.06281637 -0.20538542 -0.06930992
000300 30 c0 6a 3e 7c 6a 55 be 48 8a 7a 3e a8 32 98 3d
       0.22924876 -0.20841402 0.24466813 0.07431537
000310 dc 2c 68 be 2e b6 ed bd 78 30 1d 3d 64 c5 1e 3e
       -0.22673362 -0.11607014 0.0383763 0.15504986
000320 12 31 4f bd e8 e0 39 3e ec ec f6 3d 34 a8 24 3e
       -0.050583906 0.18152201 0.12056908 0.1607979
000330 b0 9b cb bc 58 f4 73 bd 4a af 50 be f5 92 87 be
       -0.024854511 -0.059559196 -0.20379367 -0.26479307
000340 a4 79 26 be d9 1c bf bd 00 bf 1c 3e 21 c2 34 3e
       -0.1625734 -0.09331674 0.15307236 0.1765218
000350 7b 3e 85 bd 14 4b 6f bd e9 ed ea bd 26 a8 76 3e
       -0.06506058 -0.05842121 -0.11471159 0.24087581
000360 20 72 17 3e 97 8c 6d be 04 3c 1a 3e 63 47 8d bd
       0.14789629 -0.23198162 0.15061957 -0.068983816
000370 6a db 22 be 2c 67 d7 3d 19 58 05 3e 77 58 84 3e
       -0.15904012 0.10517725 0.13021888 0.25848743
000380 00 48 42 3b c8 24 dc 3d f5 9d 76 3d 9c 36 50 3e
       0.0029644966 0.10749203 0.060209233 0.20333332
000390 9c 78 3d be 81 77 86 be 6e e1 ef 3d 68 ff 22 3d
       -0.1850304 -0.2626305 0.11712919 0.039794356
0003a0 18 63 d6 3d a2 3b 1b 3e 50 95 6e bd 6f ae 45 be
       0.104681194 0.15159467 -0.058247864 -0.19304822
0003b0 40 95 b6 bd 40 f2 6e bc 1e fd 49 be 30 cd 41 3d
       -0.08915186 -0.014584124 -0.19725463 0.047314823
0003c0 81 58 49 3e 84 1f 36 bd 70 d6 d4 3d 82 b9 02 3e
       0.19662668 -0.04446365 0.10392463 0.12766078
0003d0 f5 e5 83 3e c0 a6 8d bb f4 27 30 bd 00 4d d5 3c
       0.2576138 -0.0043228567 -0.043006852 0.026037693
0003e0 e8 5e d7 bd fa 05 54 3e f0 ea 94 3c d6 4e 64 be
       -0.10516149 0.20705405 0.018178433 -0.22295699
0003f0 b7 94 44 be 1e 36 e4 bd 80 80 13 3d a8 aa fd bc
       -0.19197355 -0.111431345 0.03601122 -0.030965164

gnn.conv_params.0.bias f4 [32]
000000 69 5c 7d bc 88 df 40 3b b9 6a f4 bc aa ca c2 3c
       -0.015463927 0.002943011 -0.029836046 0.023778278
000010 c5 a3 e7 3c 89 c1 80 bc 13 c8 9e 3c cd c2 3e bb
       0.028276334 -0.015717285 0.019382512 -0.002910781
000020 40 ec 50 3d aa 13 d3 bb 7a 39 e4 3c a0 af 3e 3d
       0.051006556 -0.006441553 0.027859438 0.046554208
000030 98 8a 86 3b 11 43 75 bc b8 30 e8 3c 0b d2 b5 3b
       0.004105877 -0.014969603 0.028343543 0.0055487207
000040 fc 9d 82 bc 5f 88 26 ba 05 f4 da bc cc 3a 8c 3c
       -0.015944473 -0.00063527183 -0.026727686 0.01711788
000050 c2 d9 41 bc c8 7b 61 3a 75 53 fe 3b 49 47 1d 3c
       -0.011831703 0.00086015137 0.0077614137 0.009599515
000060 ca 4b 53 3d 83 27 60 bd 25 85 35 bd 5b 14 e3 bc
       0.05158595 -0.05472518 -0.04431643 -0.027719667
000070 26 b5 90 bc ac 2b 39 bb 0f 9a 8c bc 15 f3 c5 3c
       -0.017664503 -0.002825479 -0.017163305 0.024163762

gnn.conv_params.1.weight f4 [32, 32]
000000 84 8f 97 be 6d ce 6a 3d ee ed 3d be 4e 7d 4f be
       -0.2960168 0.05732577 -0.18547794 -0.20262644
000010 93 6c cf bd 82 d6 f9 3d c4 48 5a 3e fa 68 18 3d
       -0.10128131 0.12199117 0.2131682 0.03720949
000020 c0 40 96 3e ce 9c 42 be 1f fa d6 3d d3 f7 34 3e
       0.29346275 -0.19005129 0.104969256 0.17672662
000030 22 4f 91 3d 1f f8 93 3d 4a 0a 6c bc 06 7b 88 bc
       0.070951715 0.0722506 -0.01440675 -0.016660225
000040 9a cf 79 3d f8 ee 99 3e 07 e3 69 3d c8 98 fc bc
       0.060989 0.3006513 0.057101276 -0.03083457
000050 dc 76 98 bc 79 a1 4f be 3d 7f c3 bd 33 a8 95 be
       -0.018611364 -0.2027644 -0.09545753 -0.29229888
000060 6e c4 a8 bd a4 c9 0b 3e ba 19 9b 3e 1a 0e df 3c
       -0.08240591 0.13651139 0.30293065 0.027228404
000070 da 04 32 3d 76 f3 0f bb 1c b4 b3 be d7 d3 7c 3e
       0.043461658 -0.0021965182 -0.3509835 0.24690185
000080 fe e2 1b bc 01 8b 44 be db 91 e7 bd 48 ac 99 bd
       -0.009514568 -0.19193651 -0.113071166 -0.07503563
000090 9e 00 41 3c 6e d7 3e 3d 56 da d1 bc 28 82 91 3e
       0.011779932 0.04659217 -0.025616806 0.28419614
0000a0 b6 87 7e be 98 fa 8c be bd 9e 99 be bc 33 4a 3d
       -0.24856457 -0.27534938 -0.3000392 0.049365744
0000b0 3f fa 80 3e 5e e3 68 3e 6a e5 33 3c f9 0d ad 3b
       0.25190923 0.22742984 0.01097999 0.0052812067
0000c0 a5 0a 0e 3e 32 4b 29 3e a4 ec 69 be 80 3f 86 bd
       0.13871248 0.16532591 -0.22844177 -0.065550804
0000d0 30 5f 8c be bc 19 99 3e 64 8d 65 3e b8 3d dd bd
       -0.27416372 0.29902446 0.22417217 -0.108027875
0000e0 e4 12 54 bd da 40 09 3c be 25 74 3e 58 f9 3f 3e
       -0.051775828 0.008377278 0.23842523 0.18747461
0000f0 7a 72 86 be 95 b6 36 bd 1d 60 3e 3d 01 c8 89 3e
       -0.26259214 -0.044607718 0.04647838 0.26910403
000100 78 cc e5 bd 94 48 2e 3e e5 7e 0f 3d 85 e8 e8 bd
       -0.1122064 0.17019874 0.035033125 -0.113724746
000110 9e 09 d4 3d bc 20 37 3d f7 42 3e be 99 0e 94 3c
       0.10353397 0.044708952 -0.18580233 0.018073367
000120 d9 e7 db 3c 79 9e 84 bd ab c7 ad 3d 15 3e 03 be
       0.026843952 -0.06475539 0.08485349 -0.12816651
000130 04 8c 13 be 90 b6 02 be 0a 72 ad 3d 86 71 5e bc
       -0.1440888 -0.12764955 0.08469017 -0.013576871
000140 db 2f 9c be e8 fd 6f bd 39 08 0d bc 88 db 13 be
       -0.3050526 -0.058591753 -0.008607917 -0.14439213
000150 f4 42 92 bd f7 fb cb 3d f5 92 75 3e 79 67 43 3e
       -0.071416765 0.09960168 0.23981841 0.1908244
000160 26 d7 16 be 5d ff 6a be 15 bb 11 3e 21 dd cc 3c
       -0.1473051 -0.22948976 0.14231522 0.025007786
000170 27 45 24 be 9e fb 1d 3e 28 98 a0 be a7 a7 eb 3d
       -0.16042005 0.15428016 -0.31366086 0.115065865
000180 5e ed 9b 3d 79 3e 99 3e d4 b2 72 bd 88 27 4a be
       0.076136336 0.29930475 -0.059252575 -0.19741642
000190 28 97 98 3e 0c 8e 63 bd 5f 46 a2 be d4 aa d0 bd
       0.29802823 -0.05555539 -0.31694314 -0.10188833
0001a0 3b 81 74 3e d9 c4 56 be b8 25 6d 3d ef 15 9a be
       0.23877423 -0.20973529 0.0578973 -0.3009486
0001b0 2e 19 b8 bd e7 39 1a be 5c ed c6 bd 93 a0 24 be
       -0.08989178 -0.1506115 -0.097132415 -0.16076879
0001c0 58 d3 86 be e9 11 b8 3d 60 17 09 3e d6 42 98 3d
       -0.26333117 0.08987791 0.13387823 0.07434623
0001d0 b8 92 af 3d ee 64 3e be 6c 65 fa 3d c1 db a4 3d
       0.08572906 -0.18593189 0.12226376 0.08049727
0001e0 c7 0f 6c 3e 9a 51 1d 3e 3a c2 97 3e e5 ed 01 3e
       0.23052894 0.1536316 0.2964037 0.12688406
0001f0 ad 5f 8e be a1 e4 3e 3e cb 57 89 bd 2e eb 04 3c
       -0.2780737 0.18641903 -0.06706198 0.008112712
000200 a1 88 11 3e 76 d5 68 3d c7 f2 9a bd 4a 45 e0 3d
       0.14212276 0.056844197 -0.07565837 0.10950716
000210 95 18 ce 3d 1f b3 0d 3e e5 fc 1f be 41 6a 53 be
       0.100632824 0.1383786 -0.15623815 -0.20646001
000220 3b 14 7a be 02 5f 72 be 58 4b 98 bd 14 84 0e be
       -0.2442178 -0.23669055 -0.07436246 -0.13917571
000230 48 fb 67 3e 4b 8f 30 be e1 a6 16 be de 04 5c be
       0.2265445 -0.17242162 -0.14712097 -0.21486232
000240 6d 90 53 be fc 6e 24 3e a5 3a 75 3e 19 01 89 3e
       -0.20660563 0.16057962 0.23948152 0.2675865
000250 48 a1 6b be 92 82 9f bd 31 3a 8f be 59 8a 33 3e
       -0.23010743 -0.07788576 -0.27974084 0.17533244
000260 d5 ec 84 3e 41 a8 81 be ed 4a 4a 3e d7 f4 2e be
       0.25961939 -0.2532368 0.19755144 -0.17085586
000270 57 d7 a9 be 3f 08 af 3d 13 39 a4 be d3 7c 34 be
       -0.33172104 0.08546495 -0.32074794 -0.17625742
000280 dd 7d 8b 3e db 92 70 be 60 1c 4a be ea 5b cb bd
       0.27244464 -0.23493521 -0.19737387 -0.099296406
000290 24 60 81 3e 85 7b 4c 3e 7a f4 42 3e 4d 6a ef bd
       0.25268662 0.19968994 0.19038573 -0.11690197
0002a0 ae a4 3b be c1 a0 17 3e ed fc 7e 3e 10 66 55 3e
       -0.18324539 0.14807416 0.24901171 0.20839715
0002b0 8e 6b 11 3e d2 28 12 be 14 9b 9c 3d dc 6c 64 be
       0.14201185 -0.14273384 0.07646766 -0.22307152
0002c0 ea 86 c6 bd 2a a2 a5 3e 9e af 0c 3d 2d df 84 3e
       -0.096937016 0.32350284 0.03434717 0.2595152
0002d0 93 cb 60 3e 56 8f 99 3e c9 fc 44 3e ac 44 9c be
       0.21952657 0.2999217 0.19237055 -0.30521142
0002e0 4e 40 00 be 54 73 18 bc 10 49 88 3e a4 2f 52 3d
       -0.1252453 -0.00930484 0.26618242 0.051314965
0002f0 1f 80 8a 3d 30 00 8c 3d 71 a9 6c be ad 0c 97 be
       0.067627184 0.06835973 -0.23111512 -0.29501858
000300 07 10 d0 3c f3 ef c5 bd 5e 2e f2 3d 18 23 42 3e
       0.025398267 -0.09664907 0.1182525 0.189587
000310 78 26 79 be 32 de c3 3d 11 83 cd 3d e9 e9 bb 3d
       -0.24331081 0.09563865 0.100347646 0.09175474
000320 8e 80 3e 3e 4e 16 50 be 23 b4 fc bd ac bc 22 be
       0.18603727 -0.20321009 -0.12339046 -0.15892285
000330 bc 3f 85 3e ca 1f de 3d c0 e1 b3 bb 9a 1f e4 3d
       0.26025188 0.10845907 -0.005489558 0.1113884
000340 3b 46 8c be 5e 64 8b 3e a3 da 83 be 6c 09 35 bd
       -0.27397332 0.27225012 -0.25752744 -0.04419844
000350 cd ff 44 be 49 86 52 bc d9 07 2c be 70 00 f0 bd
       -0.19238205 -0.012849399 -0.16799869 -0.117188334
000360 98 08 84 bd 13 ee 57 3e 7e fa 94 3e 5c 66 e7 bd
       -0.06446952 0.21086912 0.2909736 -0.112988204
000370 50 75 1f 3e 63 e9 7f 3e 68 28 85 3e f7 4c 17 3e
       0.15572095 0.24991374 0.2600739 0.14775454
000380 6a 50 4f 3e 96 df 84 3e 81 50 8e 3d d7 58 80 be
       0.2024552 0.25951833 0.06948949 -0.2506778
000390 2f b2 5a 3e 96 55 88 3e c8 7f a1 3e 1b 13 7e be
       0.21357034 0.26627797 0.31542802 -0.24811976
0003a0 af 75 e0 3d 61 62 88 3e 29 09 49 3c 6f 0c 01 3e
       0.10959946 0.26637557 0.01227025 0.126024
0003b0 41 9f 09 be fa 3b a8 3e 54 be 96 be b8 20 b0 bb
       -0.13439657 0.32858258 -0.29442084 -0.005374994
0003c0 32 75 7b be 68 c7 e5 3d 56 12 94 bd d3 50 8e 3b
       -0.24556425 0.11219674 -0.0723006 0.004343131
0003d0 2e 4a 4c 3e eb 7d ef bd 84 3a 56 3e 93 c2 35 3e
       0.19950172 -0.11693939 0.2092076 0.17750005
0003e0 d5 f6 28 be 3b 22 8a bd 53 19 5b 3e c6 9b 8b be
       -0.16500409 -0.0674481 0.21396379 -0.27267283
0003f0 b1 60 c6 3d 03 0a 85 be 16 25 85 3d 35 71 88 3e
       0.09686411 -0.259842 0.06501214 0.2664887

gnn.conv_params.1.bias f4 [32]
000000 c1 a3 92 bc 40 f9 8c 3c 8f f8 16 bb 9e bc 93 3c
       -0.01790035 0.017208695 -0.0023036336 0.018034276
000010 2d 34 9e 3c d8 1f bb 3c b9 80 b9 bc af b3 d7 bb
       0.019311989 0.022842333 -0.022644388 -0.0065826993
000020 45 28 78 bb 19 eb ec 3c 3e 81 72 38 56 37 03 3c
       -0.00378658 0.028920697 5.7817662e-05 0.008008799
000030 9e 6f a5 3b 5d c3 ab bc 18 73 63 bc 9a e1 39 3c
       0.005048706 -0.02096718 -0.013882421 0.0113452915
000040 89 0b a1 bc 9f ce 65 bc 32 30 1c bc 72 5c 16 3d
       -0.01965882 -0.014026313 -0.009532975 0.036709256
000050 32 bb f2 3b 1d db 8f 3c 81 73 76 bd c0 5e c8 bc
       0.0074075693 0.017560536 -0.060168747 -0.024459243
000060 04 82 a0 bc 11 72 f0 3c 95 90 cf ba 89 0a 91 bc
       -0.019593246 0.029351266 -0.0015835935 -0.017705219
000070 28 dd 0b 3c 5f 29 23 3c 41 f8 07 bc ef d1 3d 3b
       0.0085366145 0.009958594 -0.008298934 0.0028964242

gnn.conv_params.2.weight f4 [32, 32]
000000 a1 44 6d be 2f a6 42 be 48 2e 3b bd 60 1b 04 3e
       -0.23170711 -0.19008707 -0.045698434 0.12901068
000010 1b 6a 5f 3e a4 63 53 3d b9 f0 81 3e db f8 1e 3e
       0.2181782 0.051608697 0.2537897 0.15524618
000020 49 d6 9c 3e e1 75 92 bd 63 fd be bd 27 2c e8 bd
       0.30632237 -0.0715139 -0.093256734 -0.113365464
000030 4a 1f 86 bd b0 39 91 be 4d 4f 03 3e f1 78 83 3e
       -0.06548937 -0.28364325 0.1282322 0.25678208
000040 41 3d 52 3e 01 e1 4b be c8 b3 94 3e da 29 20 3b
       0.20531179 -0.19910051 0.29043412 0.0024439008
000050 c9 c6 d9 bc ed 88 78 be c6 d1 1b be 87 c2 d5 3d
       -0.026584046 -0.24270983 -0.15216741 0.10437494
000060 61 b9 55 3d f1 b1 41 be dd 9b 98 3e 6b c4 1e 3e
       0.052178744 -0.18915536 0.29806414 0.15504615
000070 5d 32 1f 3e fc 79 22 be 90 fb 0f be 25 43 ae 3b
       0.15546556 -0.15866846 -0.14060807 0.005318063
000080 c5 1f 8b be e3 9f 29 3e 0b bf 23 bc 92 fe 3c 3e
       -0.27172676 0.16564898 -0.009994279 0.18456486
000090 5b a6 48 3e 8c 41 90 3d d6 8f 35 3e 96 78 8e 3b
       0.1959471 0.07043752 0.1773065 0.004347871
0000a0 6a d6 a3 3e 31 e0 6b bd 1d 4a 3c be dc 35 11 bd
       0.31999522 -0.057586852 -0.18387647 -0.035451755
0000b0 37 1f 83 be 22 c6 39 be ce e3 b9 3d 1e ca 60 3e
       -0.25609753 -0.18141988 0.090766534 0.21952102
0000c0 39 46 7e 3e c3 38 80 3e 4d 3d 7e 3e 63 a4 81 3e
       0.24831475 0.25043306 0.24828072 0.2532073
0000d0 cd 73 34 be 78 81 98 bd 93 da ed 3d d5 01 09 be
       -0.176223 -0.07446569 0.11613955 -0.13379605
0000e0 b0 a7 ac bc 62 77 7a 3e 0b 28 22 bd 33 29 52 bd
       -0.021076053 0.24459603 -0.03958897 -0.051308822
0000f0 e1 e7 c5 3d 5c 36 aa 3e 67 c7 ed bd 7c 5b cf bd
       0.09663368 0.33244598 -0.116102986 -0.10124871
000100 66 26 87 be 60 59 74 3d 16 72 3d 3d d1 7e 66 3e
       -0.26396483 0.059655547 0.04625138 0.22509314
000110 ef b0 83 be 9f 9d 38 be c3 a8 85 3e 74 90 1b be
       -0.25720927 -0.18028878 0.26105317 -0.15191823
000120 81 f5 e3 3c 63 5b 7a 3e d4 0d 87 3e 65 b9 6b bc
       0.027827026 0.24448924 0.26377738 -0.014387463
000130 32 5d 94 be 76 23 75 be 9b 92 91 be 5c 23 64 bd
       -0.28977352 -0.23939309 -0.28432164 -0.055697784
000140 7a 26 87 be 9b a2 85 3e c3 7e 88 be 33 e0 c7 bd
       -0.26396543 0.2610062 -0.26659212 -0.097595595
000150 4c 5f 10 3e f5 5c e5 bd 2c da 48 3e 70 c6 8e 3d
       0.14098853 -0.11199371 0.19614476 0.06971443
000160 c9 c3 a2 3e f6 88 fa 3c 83 79 39 3e bc 65 89 be
       0.31789997 0.030582886 0.1811276 -0.2683543
000170 eb 76 0e be 43 7b 1b 3e 4d a2 ae bd 2b 8f 99 3d
       -0.13912551 0.1518374 -0.0852705 0.0749801
000180 3e 78 3f be b7 4f 91 3d a9 16 53 3c 27 be 3d be
       -0.18698213 0.070952825 0.012883821 -0.18529569
000190 48 8e 1c bd 39 c1 70 3e 93 97 63 be 60 68 7b 3d
       -0.038221627 0.23511209 -0.2222579 0.061378837
0001a0 ca 37 37 3e 40 7a 8e 3e 1d 15 90 be 01 22 11 3e
       0.17892376 0.27827644 -0.28141108 0.14173128
0001b0 42 d8 8a 3e 2c 39 46 3e 3e 71 62 be e3 23 8b bd
       0.27118117 0.19357747 -0.22113511 -0.06793954
0001c0 c8 9c 09 bd e0 06 f6 bc ce 94 c0 3c 28 b4 a0 3c
       -0.033596784 -0.030032575 0.023508456 0.019617155
0001d0 b2 d7 27 3e c5 50 63 be a2 3e 7e be 25 48 68 bb
       0.16390875 -0.2219878 -0.2482858 -0.0035443392
0001e0 92 40 8c be 9f 0e 97 3e 15 83 56 3e 53 5e fc bd
       -0.27393013 0.29503343 0.20948441 -0.123226784
0001f0 d3 cc 45 3e 25 fc fa bd 51 e1 25 3b c6 0d a2 be
       0.19316415 -0.12255124 0.00253113 -0.31651133
000200 fd c0 33 3d 61 99 0e 3e 27 27 d9 bd 4d 74 57 3e
       0.04388522 0.13925697 -0.10603171 0.21040459
000210 ec 97 37 bd 40 84 66 3e 30 01 9b 3e 93 c6 7d be
       -0.04482262 0.22511387 0.30274343 -0.24782781
000220 71 58 42 be 1a d8 34 3e 72 f1 0d bd cf e4 53 be
       -0.1897905 0.17660561 -0.03465409 -0.20692752
000230 c9 67 68 3c 6b 4d 19 be 45 48 8a 3e a6 c9 56 3d
       0.014184901 -0.14970939 0.27008262 0.0524384
000240 a6 c3 f8 3d fd 9e 8f 3d e7 88 79 be 60 c6 90 be
       0.12146692 0.070127465 -0.2436863 -0.28276348
000250 23 74 21 bd 43 fa 1b 3e 4d 36 85 3e 14 84 9b be
       -0.039417397 0.15232186 0.2601799 -0.30374205
000260 64 ff 96 3e 4a bd a6 bd af 5b 41 3b 1c ea fa 3d
       0.29491723 -0.08141573 0.002950411 0.12251684
000270 05 3c 9c 3b 2b 05 c2 3c 39 06 a2 3e ca d9 5b be
       0.004767897 0.023684105 0.31645373 -0.21469799
000280 9a 03 73 3e 7f 0c fe bd b8 ad f0 bd 59 c8 d3 bd
       0.23731843 -0.12404727 -0.11751884 -0.10340948
000290 e9 2e 8e be 80 3a 95 be fd ba 83 be ce 4b 65 3c
       -0.27770165 -0.29146194 -0.25728598 0.013995124
0002a0 7c ae ec bc 91 8c 98 3e 6f bc 3f be 6f e6 24 be
       -0.028891794 0.29794744 -0.18724225 -0.16103528
0002b0 35 ff 2d bd 4c a7 b5 3d fc ae 7b be c8 22 2f be
       -0.042479713 0.088698 -0.2457847 -0.17103112
0002c0 2f 10 55 3d dc 3c 2c be 5a 48 93 be 21 51 82 3e
       0.052017387 -0.16820091 -0.28766137 0.2545252
0002d0 da 2a 5f be ca 31 5d 3e b5 08 cc bd a6 ab 5b 3e
       -0.2179369 0.21601024 -0.09962598 0.21452197
0002e0 47 80 69 bd d8 ff 16 be 54 c0 ba 3d 2f e2 17 be
       -0.0570071 -0.14746034 0.09118715 -0.14832376
0002f0 e5 cd 19 be 5e ca 04 3e 97 f3 47 3c a9 ba a6 bd
       -0.15019949 0.12967822 0.012204072 -0.08141071
000300 d6 6a 91 be 6d a2 5d 3e 7d 00 17 be 25 0f 38 3e
       -0.28401822 0.21643992 -0.1474628 0.17974527
000310 9c 16 eb 3d 62 a3 16 be 31 87 96 be 52 f0 62 bd
       0.11478922 -0.14710763 -0.29400018 -0.05540497
000320 65 d2 45 be 5e d4 dc 3d e8 c7 12 be f5 94 99 be
       -0.1931854 0.10782693 -0.1433407 -0.29996458
000330 9b 0e a5 3e e5 3b 6e be a4 07 97 3d 29 91 93 bd
       0.32237706 -0.23265035 0.07374504 -0.072054215
000340 cb d8 22 3e f2 90 32 be f4 7b 61 be ef 09 92 3e
       0.15903012 -0.17438105 -0.2201994 0.28523204
000350 b0 ef d8 3d 3a f6 b7 3b ac 61 88 be 86 e1 32 3d
       0.10592592 0.0056140693 -0.26637018 0.043672107
000360 80 2c 22 be 4c e5 a9 3d fb 75 50 bd 65 72 21 be
       -0.15837288 0.08295688 -0.050893765 -0.15766294
000370 78 44 a0 3e 82 f3 55 3e 6f b5 a7 bd 45 82 c6 bd
       0.31302238 0.20893672 -0.081889026 -0.09692816
000380 90 56 9e be b6 f3 53 be f6 82 1c be 95 dd 16 3e
       -0.30925417 -0.20698437 -0.15284333 0.14732964
000390 4f 84 ec bd 85 5e 93 3e 1b 0e 97 3e 26 d6 d8 3c
       -0.11548673 0.2878305 0.2950295 0.026469301
0003a0 31 d4 4e 3d e2 25 9a 3e 31 63 e7 3d 9a 8c 06 3e
       0.05049533 0.30107027 0.11298216 0.13139573
0003b0 38 b2 9c 39 85 f4 2c 3d 6a fb 92 3e a8 3b a6 3e
       0.00029887422 0.04222538 0.2870744 0.3246739
0003c0 ca 17 83 3e f2 78 8d be 9f 73 77 3e 44 bc 42 be
       0.25604087 -0.27631336 0.241652 -0.1901713
0003d0 e8 00 86 be 4d a4 dc 3d 3a 96 ab 3d 66 18 58 3e
       -0.26172566 0.107735254 0.08378263 0.21103057
0003e0 75 a7 48 3e 88 5d 5b 3e 25 bc 02 3e a1 15 73 3e
       0.1959513 0.21422398 0.12767084 0.2373872
0003f0 07 31 3e be 61 02 70 be 2f a4 14 3d 15 23 46 be
       -0.1857339 -0.23438407 0.03628939 -0.1934932

gnn.conv_params.2.bias f4 [32]
000000 8b 2b a4 bd 61 ac ef bb 1b f9 ee 3c 6a 2f 85 bc
       -0.08016118 -0.0073142503 0.029171517 -0.01625796
000010 3d ca c9 bc 0e db 92 bd 04 7f 96 bc e3 42 89 bd
       -0.024632568 -0.071706876 -0.018371113 -0.06702211
000020 ff 02 7e 3c d9 04 1f 3c ec 72 c3 bd 3e 17 4a bd
       0.015503644 0.009705746 -0.09543404 -0.04933857
000030 fb b9 18 bd 77 b0 71 3c 7a 03 6e 3d 18 b6 a1 bd
       -0.03728674 0.014751545 0.058108784 -0.0789606
000040 7c 79 2c 3d 85 d5 00 bd 76 8b e5 3b 54 05 1d 3d
       0.042108044 -0.031453628 0.0070051504 0.03833516
000050 1c ea ba bb 67 23 1a 3c 59 b7 92 3c 1f 45 c1 3c
       -0.0057041775 0.009407855 0.017909693 0.02359253
000060 b1 a6 74 3c 42 c0 be bc 9a 7f 13 3c b4 71 22 3d
       0.01493232 -0.023285035 0.009002591 0.039659217
000070 b0 90 99 3c f4 4c a9 3c e3 c5 29 bd 1b e0 47 bc
       0.01874575 0.020666577 -0.041448485 -0.012199427

gnn.conv_params.3.weight f4 [1, 32]
000000 aa d8 9e 3d 71 ff 9c 3e c4 3f b4 3e f4 f6 18 bd
       0.07756169 0.30663636 0.352049 -0.037344888
000010 cc 14 80 3d a4 88 98 be f0 fc b8 be fb ae 74 bd
       0.06253967 -0.2979175 -0.36130476 -0.059737187
000020 e0 d4 93 bd 01 b9 59 3e e3 e1 a0 3d 88 9f 7d be
       -0.07218337 0.2126198 0.078555845 -0.24767888
000030 e6 1d 1f 3b 30 f0 9d be 19 b6 26 3c 8f d0 da 3e
       0.0024279295 -0.3084731 0.010175251 0.42737243
000040 7e b7 fc bd fa 69 d2 be 88 87 a7 bd e2 a2 8c be
       -0.12339686 -0.4109648 -0.081801474 -0.2746802
000050 50 9d b1 3e 86 c9 63 3e d8 a4 d0 be 2d fd ba 3b
       0.34690332 0.22244844 -0.40750766 0.0057064504
000060 08 57 8b bd b2 35 73 3e 01 96 31 3e b2 d7 7e 3e
       -0.06803709 0.23750952 0.17342378 0.24886969
000070 4f f9 63 3e 7c 20 7a be ad f8 85 3d fb 18 a1 bd
       0.22263072 -0.24426454 0.06541572 -0.07866093

gnn.conv1d_params1.weight f4 [16, 1, 97]
000000 29 51 8f bc d3 57 3a 3d e8 d1 d5 bd 8a c2 4e bd
       -0.017494755 0.045493912 -0.10440427 -0.050478496
000010 89 5f a5 bd 51 90 82 bc d1 76 42 bd de 90 4f 3d
       -0.080748625 -0.015937956 -0.047476593 0.050675265
000020 ef 24 9e 3b 03 2b 00 bc ed 06 ad bd 7f dc ea 3b
       0.00482618 -0.007822755 -0.084485866 0.0071673985
000030 da c8 c3 bd 72 ac c2 bd c4 08 3b 3d a5 a4 d7 bd
       -0.09559794 -0.095055476 0.045662656 -0.1052945
000040 0e db 2a 3c 3b 1e eb 3c b9 f6 fc ba 16 df 82 3d
       0.010428203 0.028700938 -0.0019299603 0.063902065
000050 0f 40 92 bc dc 2c 90 3d fc 05 55 bd 04 e5 9b bd
       -0.017852811 0.07039806 -0.05200766 -0.07612041
000060 6d ba 7a bd 45 98 78 3d 0e 14 9e 3b 02 d5 db bb
       -0.061212946 0.06069209 0.004824168 -0.006708742
000070 a2 d7 87 bc 63 37 17 bd 0d 55 86 3c b3 fd 31 bc
       -0.016582314 -0.036918055 0.016397977 -0.010863709
000080 23 5a 84 bc c6 15 49 bd 68 7f 7a bd b1 94 99 3c
       -0.016156262 -0.04909303 -0.06115666 0.01874766
000090 b3 93 38 3c 4e c5 ab bd 6f ff a8 3d 93 7b 26 3d
       0.011265683 -0.08387242 0.08251845 0.040645193
0000a0 1e 2c 8b 3d c3 06 c7 3c ee c1 ce bc 79 ad 04 3d
       0.06795524 0.024295216 -0.025238957 0.032392
0000b0 b1 f4 57 3d b7 92 3a 3d 24 a5 df bc 12 93 70 bd
       0.05272359 0.045550074 -0.027300425 -0.058734007
0000c0 d7 1e 09 bc d5 b4 ac 3d d3 c3 4b bd e6 93 3e bd
       -0.008369169 0.084329285 -0.0497473 -0.046527766
0000d0 b9 84 48 bd 0f 1d b6 bd 79 bf 0f 3d 14 04 26 bc
       -0.0489547 -0.08892261 0.035094712 -0.010132808
0000e0 1b ee 6a 3c ff 67 ca 3d 7f 51 b2 3c 78 33 a6 3d
       0.014338995 0.09883117 0.021767376 0.08115286
0000f0 9e 49 b2 3c 58 31 aa bb b3 24 7d 3d 03 91 cf 3c
       0.021763619 -0.0051938705 0.061802577 0.025337702
000100 02 31 d1 bb 18 9b 97 3b ed 2e 61 bd ac 95 23 bb
       -0.006384016 0.004626643 -0.054976393 -0.0024961038
000110 fd 78 8a 3d 62 b6 a4 3d 43 66 c9 3d 72 49 8c bd
       0.06761358 0.08042599 0.09833958 -0.06849946
000120 6c 8d 96 bb e4 a1 20 3d 23 a3 84 3d b6 e7 7b bd
       -0.0045944955 0.03921689 0.06476428 -0.061500274
000130 9f 43 b1 bd 9c 80 0b 3d 14 90 76 bd c1 5e c4 3d
       -0.08655476 0.0340582 -0.060195997 0.095883854
000140 38 29 6d bd 7f 53 36 3d 80 d1 d2 bc 46 86 9f bd
       -0.057900637 0.04451322 -0.025734663 -0.077892825
000150 ea df ce bd b3 d7 4b 3d 96 99 0f bd 0e 3c 91 bd
       -0.10101302 0.049766254 -0.03505858 -0.07091533
000160 bb 86 c4 3d bd 52 82 3d 96 6d 8f 3d 04 f9 27 bd
       0.0959601 0.06363437 0.07003324 -0.041008964
000170 3f 85 2f bc f0 08 97 3c f4 2c 36 bc 13 78 30 3d
       -0.010712921 0.018436879 -0.011119116 0.04308326
000180 f2 4c c7 bc 9c ca 05 bc 88 f8 ec 3c 4a f9 a4 bc
       -0.024328683 -0.008165982 0.028927103 -0.020138402
000190 78 21 9e bd e5 f2 f5 bc 9a 2c ac bc bf e3 67 bd
       -0.077212274 -0.030023048 -0.021017361 -0.05661368
0001a0 0f 7f a8 bd 81 a2 52 3d 67 57 01 3d 00 fe d4 3d
       -0.082273595 0.051424507 0.031577494 0.10400009
0001b0 b8 96 9f 3d 6f b9 8c bc 22 7a 9d 3d aa 35 15 bd
       0.07792419 -0.017178265 0.076893106 -0.03642813
0001c0 35 c4 07 be 9d 0e 56 3d 8e 9b ff bd d2 f5 85 3d
       -0.13258441 0.05226003 -0.124808416 0.06541027
0001d0 a7 99 ef 3d 0f f1 a0 bc b6 13 09 3d 3a 84 8e bc
       0.11699229 -0.019646196 0.033466063 -0.017397035
0001e0 07 d5 55 3d 99 a8 aa 3d 03 20 0c bd 2e f1 19 bc
       0.05220511 0.08332939 -0.034210216 -0.009395881
0001f0 89 04 e1 3c b6 72 a7 bb e4 39 ed bd f6 63 d6 bc
       0.027467983 -0.00511011 -0.115833074 -0.026170712
000200 39 7f df bc bb 2d 3e 3d 01 28 a1 bd f6 90 d0 bd
       -0.027282344 0.04643033 -0.07868958 -0.10183899
000210 3a f4 e5 bc 20 51 15 3c c8 f8 95 3d 25 d9 87 bd
       -0.028070558 0.00911358 0.07322842 -0.06633214
000220 57 fb 9b 3c dc 18 68 3c 60 14 8e 3d 0c e5 3e bd
       0.019040747 0.014166083 0.0693748 -0.046605155
000230 69 16 0f bd cc da de 3c 99 dd ba bd 7a 21 67 3d
       -0.03493348 0.02720394 -0.09124298 0.05642841
000240 58 e9 0b bd fd 50 8f bc 74 5b 71 bd c0 df 9f 3d
       -0.03415808 -0.017494673 -0.058925107 0.07806349
000250 40 6f c0 3c 9c 7b e1 3c 4a a9 4a bd 7b 44 87 bd
       0.023490548 0.027524762 -0.049477853 -0.066048585
000260 5c 5f 0c 3c 43 5c 63 bd b5 b7 a6 bc 00 5c a5 3d
       0.008567657 -0.05550791 -0.02035127 0.08074188
000270 84 b5 01 3d 60 b3 fb bc 62 71 17 bd cf ae 73 3d
       0.031667247 -0.030725181 -0.036973365 0.059492882
000280 55 2a a6 bd 38 09 b4 bd a6 e7 32 bc 21 ba 93 3d
       -0.08113543 -0.08790821 -0.010919487 0.07213236
000290 db 1e 9a bd 15 01 5f bc 0b 84 6a bd 20 85 85 3d
       -0.075254165 -0.013611098 -0.057254832 0.06519532
0002a0 b3 28 72 bd c4 60 b9 ba d6 ac 48 3d 9b 7e 67 bd
       -0.059120845 -0.0014143218 0.048992954 -0.056517225
0002b0 b7 6f ec 3d 62 8c c5 bd 61 9d 17 bd 93 bd ce 3c
       0.115447454 -0.096459165 -0.037015323 0.02523688
0002c0 33 4c 54 bd cb 35 c3 bd 34 29 c9 bd 0f ea cf bd
       -0.05183048 -0.095317446 -0.09822312 -0.10152065
0002d0 e6 7c b1 3d 40 84 6e 3c e5 7f f6 bc fa 48 cb 3c
       0.086664006 0.014557898 -0.030090282 0.024815071
0002e0 99 ef 81 3c 1b 2d 76 bd 4d 10 90 3d ba c6 7b bd
       0.01586132 -0.06010161 0.07034359 -0.061468817
0002f0 65 ee 37 bd d6 9e c5 3d 93 46 20 3d 5a 62 69 3d
       -0.044905085 0.09649436 0.039129805 0.05697856
000300 13 ff ee 3c 7d f4 5d bc 8f e8 b0 bd 01 45 a9 3c
       0.029174363 -0.01354706 -0.08638107 0.020662786
000310 4f fa 92 3d 18 d6 92 3d 59 76 c1 bc 65 44 24 bd
       0.07176649 0.071697414 -0.023616003 -0.04010429
000320 8f 7a a6 bc e1 c6 55 3d 7c ae fc 3b f6 3e e4 3d
       -0.020322112 0.05219162 0.00771123 0.11144821
000330 2d 80 58 bc 26 81 5f 3d 94 1e 8c bd 8c e6 31 bb
       -0.013214153 0.054566525 -0.0684177 -0.0027145473
000340 78 36 92 3d 72 cf ea bd a2 a2 ae 3d 92 b7 22 3d
       0.07139295 -0.11465348 0.085271135 0.039725848
000350 97 a7 90 3d 0d 44 c1 bc 5b c3 aa 3d 58 58 65 3d
       0.07063215 -0.02359202 0.08338042 0.055992454
000360 a7 5e bb bd 61 fd dc 3d 6c 47 d7 bd ae 89 5a 3d
       -0.09148913 0.10790516 -0.105116695 0.053353958
000370 0f 76 e9 3c 4a a8 36 3d b8 b6 06 3d 7c 9a d5 bd
       0.028498678 0.044594087 0.032889098 -0.10429856
000380 73 57 8a 3d 87 73 c7 bd ad 84 2a bd aa 35 e2 bc
       0.06754961 -0.09738832 -0.041630436 -0.02761348
000390 60 25 68 bd 2b 2b 42 bc d1 96 7e 3d 89 1f 76 3d
       -0.05667627 -0.011851112 0.06215555 0.060088668
0003a0 80 30 93 bd 5f 9f 85 3d 15 f1 9c 3c f0 02 9f 3b
       -0.07186985 0.06524538 0.019157926 0.004852645
0003b0 6b fd 0d 3c 5d 43 51 bd 4b 51 b0 bd 20 ae f1 3c
       0.008666377 -0.051089633 -0.086092554 0.029501975
0003c0 c0 8c b1 3d a4 ae c6 bd 7c b5 ae 3d c6 8a 5c 3d
       0.08669424 -0.09701279 0.08530709 0.053843282
0003d0 4f 81 8e 3d 5d 3b 64 3d 1f f7 97 3d f2 9f 94 3c
       0.069582574 0.055720676 0.074201815 0.018142674
0003e0 06 d7 5e bd 5b 6c 70 bd 26 bb a4 bd 8b 15 09 3c
       -0.05440428 -0.058697086 -0.08043508 0.008366953
0003f0 d3 13 8e 3c 1d 73 d5 3c 4a 0d 86 bd 16 91 9a 3d
       0.017343437 0.026055867 -0.065455034 0.07547204

gnn.conv1d_params1.bias f4 [16]
000000 75 62 b6 bd 69 a3 c7 3d c7 63 5d 3d 38 b6 38 3d
       -0.08905498 0.09747965 0.054050233 0.045095652
000010 9a 14 11 bc ab e1 61 b9 70 7e 80 3d 89 1b 5b 3c
       -0.008855009 -0.0002154174 0.06274116 0.013373264
000020 6b 99 a5 3d d4 cb 2b bd 78 c4 06 bd 96 5c de bb
       0.08085903 -0.041942433 -0.03290221 -0.0067859394
000030 db 79 db 3c 82 2b 21 3d 03 e8 72 3d 2f 88 39 bd
       0.026791504 0.039348133 0.059303295 -0.04529589

gnn.conv1d_params2.weight f4 [32, 16, 5]
000000 10 d7 af bc 46 96 28 3d d8 b2 54 bd e8 fb a3 3d
       -0.021464854 0.041158937 -0.05192837 0.08007032
000010 11 07 9c 3d 5f 57 d8 3d e9 9d 8d 3d d7 d8 89 3d
       0.07618535 0.1056354 0.069148846 0.06730812
000020 b6 48 c8 bd d9 9f 21 bd 04 8d da 3d 87 2d 51 bd
       -0.097794935 -0.039459083 0.10671428 -0.05106881
000030 92 77 03 bc 19 75 7d bd b2 f2 d2 bc 6c 6a c8 3c
       -0.008024113 -0.06187925 -0.025750492 0.024464808
000040 61 8d ce bc 4a fc 2a 3c e6 1b ba 3d 9b 89 f2 bb
       -0.0252139 0.010436127 0.090873525 -0.0074016578
000050 66 85 fa 3c 6b 68 08 3e c8 b0 0d bd 56 8a 38 3d
       0.030581187 0.13321082 -0.03459242 0.045053802
000060 72 4e 96 3c a2 f6 f2 3c 21 f9 08 3d fa 84 f7 bb
       0.018347953 0.02965862 0.033440713 -0.007553694
000070 6c 8e 33 bd 20 c0 6b 3c cb 56 c2 bc 6e 2d b9 bc
       -0.043836996 0.014389068 -0.023723027 -0.02260467
000080 fd 24 01 3d 44 34 05 bd 7a 18 2a 3d 87 3c 02 be
       0.031529415 -0.032520548 0.04152725 -0.12718402
000090 0d 34 f2 3c 72 f8 cc 3d 1e ce b9 bc 74 cf 95 bd
       0.029565835 0.10008325 -0.022681292 -0.07314959
0000a0 8e 59 e9 3d f0 ef 59 bd 56 46 9f 3d 6c ec 9f 3d
       0.11394034 -0.053207338 0.077770874 0.07808766
0000b0 0e 4c 26 bd 45 5d a3 bd d6 4b 94 bd 8b a7 7d 3d
       -0.040599875 -0.07976774 -0.07241027 0.06192736
0000c0 8a 8e ae bd ab 0c ed 3c 7b 03 46 bd 32 f1 cd 3d
       -0.08523281 0.028936705 -0.048343163 0.1005577
0000d0 dc 4e 1f 3d 59 79 da 3d e2 35 77 bc 63 99 36 3a
       0.038893566 0.106676765 -0.01508853 0.00069656054
0000e0 1b 49 a5 bd f4 16 94 3d 60 31 52 bc e8 71 a2 3d
       -0.080705844 0.072309405 -0.012829155 0.07931882
0000f0 8e 31 b9 3d c2 ab 50 bd 9b 81 a9 3d 2c 91 e6 bc
       0.09042655 -0.05094505 0.082766734 -0.028145395
000100 cb 72 77 3d f2 bc b3 bd d9 89 3d bc 08 73 80 3b
       0.06041221 -0.08776273 -0.01156851 0.003919963
000110 f6 9f dc 3d c2 5b 6d 3d 41 c8 55 3d c1 e0 08 3a
       0.10772698 0.057948835 0.05219293 0.0005221479
000120 ec 7a be bd 78 96 09 bd a2 21 cf bc 45 c0 be 3d
       -0.09300789 -0.033590764 -0.025284592 0.09314016
000130 58 b6 84 bc 27 5d 36 3c dd 72 b3 bd 6a cf 0d be
       -0.01620023 0.011130608 -0.08762143 -0.13848653
000140 14 c8 27 3d a4 34 77 3d 08 fe 71 3d 0a d9 bd 3d
       0.040962294 0.060352936 0.059080154 0.092699125
000150 28 52 df bd a2 9a 77 3d 00 96 e0 3d a8 81 20 bd
       -0.10904342 0.060450204 0.1096611 -0.03918615
000160 2e 79 97 3d 16 44 88 3d b9 15 18 3d fa a1 c0 bd
       0.0739616 0.06653611 0.03713009 -0.094058946
000170 84 c0 89 3d a2 d5 ec 3d 5e 1b 35 38 72 cc a3 3d
       0.067261726 0.11564185 4.317925e-05 0.07997979
000180 7e 6c e7 3d d1 ce 83 bd 0b c0 c1 bd dd 36 47 3d
       0.1129999 -0.064359315 -0.094604574 0.048636306
000190 5c 43 3d 3b 1f 7f 60 bd ea 4f f2 bd 43 c6 a7 bd
       0.002887926 -0.054808732 -0.11831649 -0.08192112
0001a0 0b f6 a2 3c a7 07 c4 3c 10 28 7b bd 4d 9c 6e 3c
       0.019892713 0.02392943 -0.061317503 0.014563632
0001b0 93 db 21 3c 7a 66 c4 bd ac 94 9e 3d cf 92 d8 3d
       0.009879011 -0.09589858 0.07743201 0.105748765
0001c0 04 af 8b 3d 7d 01 fb bd c7 f5 c0 bd 8c 6c d7 bd
       0.06820491 -0.12256143 -0.09421878 -0.105187505
0001d0 4c 3f 36 3d e6 4b db bd 96 d5 50 3c 05 48 d4 bd
       0.04449396 -0.10707836 0.012746235 -0.10365299
0001e0 c3 8d ad 3d a0 e2 e5 3d bd 75 de bc 5f 2d 87 3d
       0.084743045 0.11224866 -0.027155751 0.06600451
0001f0 f2 cf 85 3d 43 7f 92 3d 6d e5 0c bd 27 03 ad bd
       0.06533803 0.071531795 -0.034398485 -0.08447867
000200 e7 70 c4 bb 8e 52 fe bd 96 f5 be bd 83 e3 de bd
       -0.0059949043 -0.1241809 -0.093241856 -0.10883238
000210 67 b3 1a bd f2 c6 1c bd eb 2e 3c be 46 31 7c bd
       -0.037768748 -0.038275667 -0.18377273 -0.06157043
000220 a3 e2 6d bd 60 60 a0 bd 29 6a 13 be d3 f6 30 be
       -0.058077466 -0.07830882 -0.14395966 -0.17281656
000230 50 5e c8 3c 27 f1 88 3c f9 6f 17 bd 94 69 55 3d
       0.024459034 0.016716553 -0.03697202 0.05210264
000240 fa f7 92 bd 7d 61 8f bd 89 a9 d1 3c ce c4 82 bd
       -0.07176204 -0.07001016 0.025593536 -0.06385194
000250 ff d9 8d 3d c8 77 d9 bd 92 a4 1b bd a6 2b 10 3e
       0.06926345 -0.106185496 -0.037998743 0.1407915
000260 73 fb 67 3d f2 3c 0c 3e bb 28 03 3e 29 a7 29 3e
       0.056636285 0.13695124 0.12808506 0.16567673
000270 39 a3 02 3e ab 49 b7 3d f5 ab 44 bd f0 42 e2 bc
       0.12757577 0.08949598 -0.048015554 -0.027619809
000280 cf b2 52 bc 9b 57 f7 ba 70 c6 b2 3d 30 d6 07 3d
       -0.012860014 -0.0018870713 0.08729255 0.03316325
000290 78 91 d5 bd 94 a2 15 3d ee 38 fc 3a 76 81 1d 3d
       -0.104281366 0.036532 0.0019243041 0.03845354
0002a0 93 ff 84 bd 89 2b 9b 3d f2 b4 67 bd 79 05 c7 3d
       -0.064940594 0.07576663 -0.056569047 0.09717841
0002b0 ed 21 d5 3d 05 93 ba bd c1 26 9d bd 92 ef aa 3d
       0.104068615 -0.09110073 -0.07673407 0.08346476
0002c0 24 8b bf bd d7 17 c8 bc 93 36 b5 bd 44 df 0d 3d
       -0.09352711 -0.02442543 -0.088483 0.03463675
0002d0 8a 65 20 3e 6b f3 ff 3d 9a e1 ea 3d 40 c5 9d 3d
       0.15663734 0.124976 0.11468811 0.07703638
0002e0 b4 e3 9d bd e3 dd c9 3c f8 64 aa 3d 79 6e 1c 3d
       -0.077094465 0.024641937 0.083200395 0.038191292
0002f0 8d 06 ca bd 56 79 8b 3c 43 2f d0 3c 68 55 50 bd
       -0.09864531 0.01702563 0.025413161 -0.0508627
000300 55 43 98 bd 31 4a 07 bd 89 c1 5a bd d2 1a 51 bd
       -0.074347176 -0.03302974 -0.053407226 -0.05105097
000310 43 8a 93 3c d8 48 28 bd f2 01 9e bb a7 ee 31 bb
       0.018010264 -0.041085094 -0.0048220092 -0.0027150305
000320 45 d8 5c 3d 6c 02 bb bd bf 73 ca 3d 31 6a c5 3d
       0.05391719 -0.09131321 0.09885358 0.09639395
000330 af 6f a0 3d fa 5e 81 bd 92 eb c9 bd a4 ea 04 be
       0.07833802 -0.063169435 -0.098593846 -0.12980133
000340 1b 2f af 3c 41 12 37 be 3d 8d 60 be 13 a4 11 bc
       0.021384766 -0.17878057 -0.21928878 -0.008889216
000350 c2 e5 03 be 1b 52 cb bc 36 c0 11 be e6 e8 df bd
       -0.12880614 -0.024819424 -0.14233479 -0.10933094
000360 ce 4d 8e bd ec 40 08 3b 2d f6 a6 3b c7 8c 7c bc
       -0.06948434 0.002079065 0.0050952644 -0.015414423
000370 73 3b 29 3d f7 5a a1 3d 12 b3 2f bd 1e bc 88 3d
       0.04131646 0.07878678 -0.042895384 0.066765055
000380 89 8a 3a bd ac b9 55 bb 92 95 43 bd c6 e6 85 bd
       -0.045542274 -0.003261189 -0.047750063 -0.06538157
000390 95 22 db 3d 86 58 89 bd f0 b3 5c 3d a6 f9 a8 bd
       0.106999554 -0.06706338 0.05388254 -0.08250742
0003a0 08 b4 a4 3d d0 f3 bd 3d 61 fc b2 bd e4 e7 51 bd
       0.08042151 0.09275019 -0.08739544 -0.05124654
0003b0 fc 7a e8 bd ca b6 c4 3b 1c 35 06 be 91 d3 5e 3c
       -0.113515824 0.0060032355 -0.13106197 0.013600246
0003c0 db d7 d7 3d 81 90 5f bc e6 d4 6a 3d 83 2f b4 bd
       0.10539218 -0.013645292 0.057331942 -0.08798125
0003d0 5f 01 0f 3d d9 04 0f bc c2 a2 7f 3d 99 e1 d2 3d
       0.034913417 -0.008729183 0.062411077 0.102969356
0003e0 07 22 bf bd fa 9b f6 bc 3a ef 68 bd 76 04 3d 3d
       -0.09332662 -0.030103672 -0.05686877 0.046146832
0003f0 30 5e c6 3d 44 6a dc bc 94 60 b2 3d fc 64 af 3d
       0.096859336 -0.02690614 0.08709827 0.08564183

gnn.conv1d_params2.bias f4 [32]
000000 d9 31 58 3a 1f 80 a3 bd 09 71 e9 3d c4 6b c3 3d
       0.0008247174 -0.079834215 0.11398513 0.09542039
000010 53 69 e6 bc d3 ed 8d 3d c5 e5 53 bd 63 30 c1 bd
       -0.028126394 0.06930127 -0.051732797 -0.09433057
000020 f6 90 8c 3d b6 af 83 3d a3 94 35 bc ec 9f 76 bd
       0.068635866 0.064299986 -0.011082801 -0.060211107
000030 4c 7a 86 3d 70 a6 6f bd 81 1f c6 bd 9b c6 a5 bc
       0.06566295 -0.058508337 -0.09673978 -0.020236304
000040 ba 90 66 bd 5c 5a 2d bd c5 03 bd 3c a7 39 8f 3d
       -0.056290366 -0.0423225 0.023073087 0.06993418
000050 6c f4 cf bd aa 65 04 3d 13 00 6a 3d f3 2f f0 3a
       -0.10154042 0.032323517 0.057128977 0.0018324837
000060 8c b7 83 3d fc f3 8d 3d e2 07 7b bd 39 d6 0f bc
       0.06431493 0.06931302 -0.061286815 -0.008779102
000070 0a b2 84 3d f9 2a 86 3d 3d b8 0f 3d 44 10 b7 3d
       0.06479271 0.06551165 0.035087813 0.08938649

mlp.h1_weights.weight f4 [128, 928]
000000 16 f8 d3 3b 2f e4 76 bd 32 3a 82 bd 17 03 66 bc
       0.006468783 -0.060276207 -0.06358756 -0.014038823
000010 b0 5b 2b bd 31 17 01 3d 0f 47 ce 3c 04 96 8e 3d
       -0.041835487 0.031516258 0.025180368 0.06962207
000020 ba b1 13 3d 80 2b 39 3d a7 0c b3 3c ba 5b b5 3c
       0.036058165 0.0452075 0.021856619 0.022138465
000030 ca e3 30 3d 30 16 98 bc 2f c0 05 bd e5 66 0b bc
       0.043185987 -0.018565267 -0.032653984 -0.008508419
000040 b2 9e 5b bd 2f 48 42 bd e3 1a 61 bd 53 98 3c bd
       -0.05361814 -0.04743212 -0.05495728 -0.046043705
000050 0b ac 5a 3b e7 a9 8e bc ae 4a 64 3c bc 87 36 bd
       0.0033366706 -0.017415 0.013933821 -0.04456304
000060 39 23 3e bd a8 ad e1 3b 8e dc 86 3c b2 87 af bc
       -0.04642031 0.0068871565 0.01646259 -0.02142701
000070 e5 e1 89 3c 69 7a a1 bc 96 ad 25 3d 0e da 05 3d
       0.016831348 -0.01971169 0.040448748 0.032678656
000080 52 46 78 bd 21 29 92 3c 8e 91 71 3d b6 d9 08 3d
       -0.060613938 0.017841877 0.058976702 0.03341075
000090 f6 15 83 bd 36 01 63 bd f9 35 9b 3c 7d 5d df 3b
       -0.06400673 -0.055421077 0.018946635 0.0068165646
0000a0 b4 37 68 3c c8 77 01 3d e1 c7 b7 3b 6e 4a 97 3d
       0.014173437 0.031608373 0.005608544 0.07387243
0000b0 e6 de 90 bd 30 92 66 3d 8c ff 98 3d 89 51 4d 3d
       -0.070737645 0.05629176 0.07470617 0.050126586
0000c0 1d 09 81 bd 31 a4 92 bc 63 e2 18 bd 55 63 7e bd
       -0.06300566 -0.017900558 -0.037325274 -0.06210645
0000d0 b8 03 ed 3c f4 bd b2 b9 3e d5 9a bc 28 2c df 3c
       0.028932437 -0.00034092332 -0.01890051 0.027242735
0000e0 fe fe 71 3d cd ae 90 bd 5f 01 c1 bb 2b 82 38 bd
       0.05908107 -0.070645906 -0.005890056 -0.045046013
0000f0 3a 3f 53 bd 5a 7e 94 bd ca 35 a0 b9 d7 45 98 bd
       -0.05157397 -0.07250662 -0.00030557654 -0.07435196
000100 1b e8 2b 3d 76 c1 b0 bc 08 68 20 bc 72 e2 07 3d
       0.0419694 -0.021576624 -0.009790428 0.03317494
000110 44 e3 06 bd 07 36 02 bd a0 83 e6 3c bb f8 a3 bd
       -0.03293158 -0.031789806 0.028138936 -0.08006426
000120 ff e7 8c 3c 7b f4 74 3d 6d 02 b2 bb 23 ac 82 3d
       0.017200468 0.059803467 -0.005432418 0.06380489
000130 cc fa 40 3d d5 2f 8e 3d 63 75 32 3d f9 92 84 bd
       0.04711418 0.06942717 0.04356898 -0.06473345
000140 5c 4d 84 bd f8 c4 86 3c 9e 78 2f bd c3 cb 3d 3d
       -0.06460068 0.016451344 -0.04283964 0.0463369
000150 0f 44 58 3d 44 f6 89 3d 9d f9 c0 bc 29 0d 4d bd
       0.05279928 0.067364246 -0.023556525 -0.05006138
000160 5d 4d 55 bb f9 c6 1c 3d d3 0a 58 bd 43 b8 bb 3c
       -0.0032547333 0.038275693 -0.052744698 0.022915011
000170 5a 39 36 bd e3 dc 91 3d 34 72 81 bd e5 5d a2 bd
       -0.04448829 0.07122209 -0.06320611 -0.07928065
000180 f5 52 09 3c d1 a2 84 3c 4b be a0 bd 5b a3 40 ba
       0.008381595 0.016190918 -0.078487955 -0.00073485606
000190 b7 ad 76 bd 21 73 71 3d 43 8b 4a bd 71 03 47 bd
       -0.06022426 0.058947686 -0.049449217 -0.048587266
0001a0 7b 31 20 3d 69 9f 22 bc 27 a9 a7 3a 0d de 03 3d
       0.03910969 -0.009925702 0.00127915 0.032194186
0001b0 02 58 82 bd 6b f0 35 3d 34 1a 39 3d 50 67 6b 3d
       -0.063644424 0.044418734 0.045191005 0.057471573
0001c0 ad 6c 85 bc ec 78 c4 bc c0 06 55 bd bf 2f 23 3d
       -0.016287172 -0.023983441 -0.05200839 0.039840456
0001d0 6a 15 3b 3d 19 53 67 bd 3e c6 30 3d e2 09 31 3d
       0.04567472 -0.056475732 0.04315781 0.043222316
0001e0 f3 95 59 3d 98 3b fe 3c 55 a4 3b 3d 01 a9 21 bd
       0.05312152 0.031034276 0.045811016 -0.039467815
0001f0 a2 37 8a bc 79 49 11 bd 81 0e 85 bd 3d d1 85 3d
       -0.01687223 -0.03547046 -0.06496907 0.0653405
000200 db 29 1e 3d 03 e5 93 3b b2 32 d9 3c 40 a4 89 3d
       0.038614135 0.0045133843 0.026513431 0.06720781
000210 e8 ba 64 3d 53 28 41 3d 22 ed 86 3d 8c 03 38 bd
       0.05584231 0.047157597 0.06588198 -0.044925258
000220 27 04 88 3d 5f b2 48 3d 3b 27 e2 ba 1c 28 8e bd
       0.06641417 0.048998233 -0.0017254123 -0.06941244
000230 2a 23 37 3d 73 75 71 bc 75 58 29 3d 9f f8 1b bd
       0.04471127 -0.014737475 0.041344125 -0.0380789
000240 b8 e7 89 bc 39 95 1e bd 2a cf 42 3c fb f1 2d bc
       -0.016834125 -0.03871653 0.011890212 -0.010616775
000250 a7 a7 14 3d f7 be 8f bd 92 e2 13 bd 10 b4 43 bd
       0.0362927 -0.070188455 -0.036104746 -0.047779143
000260 00 c1 d9 bb 68 79 0e bb b3 ab 10 3d 31 5c 98 3c
       -0.006645322 -0.0021739844 0.035319995 0.018598648
000270 2d 16 9d bd cd f0 ed bc 1f 7e 89 3d 84 0b 14 3d
       -0.07670245 -0.029045487 0.06713509 0.036143795
000280 80 97 44 3d 5e 80 af bc f2 93 ef bb 2c 8c 2c 3d
       0.047996044 -0.021423515 -0.0073113376 0.042125866
000290 74 9e 6e 3d 6a a3 c0 39 38 3e 16 3d 2d dc 63 bc
       0.05825658 0.00036742847 0.03668043 -0.0139074745
0002a0 25 4e 4c 3b e6 15 bb bc d8 eb f0 bc 8e e2 89 bd
       0.0031174507 -0.02283759 -0.029409334 -0.06732665
0002b0 1e 00 f1 bb 1e db 87 3d 67 03 31 bd 48 72 6b 3d
       -0.0073547503 0.0663359 -0.043216135 0.057482034
0002c0 d0 54 e2 3c 0c d8 f6 bc 9b ca 14 bd 3a 59 71 bd
       0.027628332 -0.030132316 -0.036326032 -0.058922984
0002d0 70 39 94 3d 40 72 ed bb b3 da 8a bd cc bb 25 3d
       0.07237518 -0.0072462857 -0.06779995 0.0404623
0002e0 60 fa fd 3b 90 8d bf 3c 06 f0 88 bd 14 bc 57 3d
       0.0077507943 0.023382932 -0.06686406 0.0526696
0002f0 cc 30 a3 3c 38 7e 6d 3d 02 fb 95 bd 54 93 1e bd
       0.01992073 0.0579817 -0.073232666 -0.03871472
000300 60 df 30 bb b4 ec f5 bc b8 d4 39 bc b0 c3 59 3c
       -0.002698861 -0.030020095 -0.01134222 0.013291284
000310 53 77 31 bd 8a 23 b6 bc a3 bf 26 bd 40 6a 7b 3d
       -0.043326687 -0.022233743 -0.040710103 0.061380625
000320 9c 72 cf 3c c2 a2 a2 bc 98 fc 30 3d 84 50 1b bd
       0.025323205 -0.019853 0.043209642 -0.037918583
000330 2d ef 43 bd f0 eb 68 3d 3f 6d 8b bc 13 b5 39 3d
       -0.047835518 0.056865633 -0.017019866 0.0453387
000340 69 78 99 bd 99 fc 2b 3c 62 2a 33 3c 4b 7f 78 bd
       -0.074936695 0.010497236 0.010935398 -0.06066827
000350 6c ad 3e bc 81 49 de bb a2 1b 84 3d c0 8e 11 bd
       -0.011638027 -0.0067836647 0.06450583 -0.035536528
000360 d4 30 41 bd 35 f2 f3 bb b0 e2 d2 bb ad 77 f6 bc
       -0.047165707 -0.007444645 -0.0064357147 -0.030086363
000370 48 bf 0c 3d fb 16 97 3c a1 2e 02 3c 0c 40 73 3d
       0.034362108 0.018443575 0.0079456875 0.05938725
000380 45 be b7 3c e2 77 68 3d 96 b6 61 3d 14 29 90 3d
       0.022429595 0.056754954 0.05510577 0.07039085
000390 45 72 48 3d 7a a3 37 39 04 29 b9 bc 7e 78 c3 bc
       0.0489371 0.0001751314 -0.022602566 -0.023861166
0003a0 2a 41 09 bd d8 9f 89 3d d2 0c 95 3c 01 55 1e bc
       -0.03350941 0.06719941 0.01819459 -0.009663821
0003b0 46 d7 35 3d e1 a6 6f 3c 0d d0 c5 ba db 5f f1 3b
       0.044394754 0.014627189 -0.0015091911 0.007366163
0003c0 4d 52 95 bd 5a 5e f5 3c 8c 3e e2 bc 47 3a 67 3c
       -0.07291088 0.029952217 -0.027617715 0.0141130155
0003d0 97 45 ea bb b4 f7 3c 3d f2 42 2f bd dc 0c c3 3c
       -0.007149409 0.046134666 -0.042788453 0.023809843
0003e0 0e a3 a3 bd 3c 10 96 bc 5e 18 6b 3d 72 84 8b 3d
       -0.079900846 -0.018318288 0.057396285 0.06812371
0003f0 aa 5e b3 bc 3e be 0c 3d dc 21 8e bd 65 b6 29 bd
       -0.021895725 0.034361117 -0.06940052 -0.04143371
