data/models/USAir_model.pth (torch, 214863 bytes, 15 tensors)

gnn.conv_params.0.weight f4 [32, 16]
00000000: dbba d63d 2b64 33be 102b c33e 4fbc b0be
00000010: 01d2 4e3e 6e99 6dbe 6dcd 863e 062c 98be
00000020: aaef 29be 184c 8a3e b017 b63d fcad c5be
00000030: 2e5d 97be df72 88be 8620 4f3e 89d8 8dbe
00000040: 641f b6bc 8196 ecbd 3076 de3e 0175 5d3e
00000050: 864d eabd 1160 13be aa00 77be 71ab 2ebe
00000060: caab 32be 80fe 82bd d6bd 743e 74d3 9dbe
00000070: ddca f43d 1bf0 b2be 3a7f 04be c260 21be
00000080: 2e17 463e 8d1a 983d 8e73 0abe b1d1 8ebe
00000090: 4cb4 79be c476 b8be 225b 543d 8f36 4d3e
000000a0: 30a9 adbb 5371 3c3e b637 f7bd 98ed f63d
000000b0: ae17 44be 103f dfbd 6248 7a3e 0b11 943e
000000c0: 383c db3d 9b4d eebd 8d3e 2b3d cada 91be
000000d0: eacd eebc f4f0 00be 24c8 263e d11b 8ebe
000000e0: 7a25 1a3e 13bd 693d 8499 afbe 3e20 f9bd
000000f0: a403 603e 187d a8bd 16ef 483e 7ddd 993e
00000100: b2b3 74be c073 443e 8b7d af3e 0b20 30be
00000110: 22ad 6fbe b743 1a3e 4bd4 22be 00a7 2ebd
00000120: c7bb 14be d824 b0be b898 973d fff8 273d
00000130: 1ae4 5a3e 3491 a4bd c7af a73e 1199 7dbe
00000140: ba11 163e 0f5e a93e c17d 973e 382d 853d
00000150: 7d69 ffbd ef65 3dbd eb19 893e 26e1 b6bd
00000160: 60cb 903e 8a88 9ebe b054 ed3d 9795 1bbe
00000170: e8a9 a6be 2914 a13e a047 b7bd 75a0 62bd
00000180: a247 89bc fcc4 593e 02bd a5be c198 f1bd
00000190: 4ba9 b73c 7937 1d3d 369b 65be 87b0 213e
000001a0: 1287 85be 1395 af3e 5581 833e 1afc be3d
000001b0: fddb 8f3e 6b5d aabe 3eed 413e c10f 9ebe
000001c0: 6d68 9c3e cd18 03be 1839 a53e 4572 d43c
000001d0: a883 44be 53da 06be 3d9e 813e 1e3a 34be
000001e0: f740 923d 61ff 893e b88b 7abd 4fab 59bd
000001f0: 1c9e c93d da8a 6a3e 10cc cb3d cb3b f33c
00000200: 2102 88be 65f3 a2be b823 59be 9fd9 69be
00000210: 6d1a a5bd def4 5b3e 5031 efbd 6448 713e
00000220: a35b 80be 72f3 6f3e b316 29be 2694 b63e
00000230: 91de 85be b81c 8dbe 6fac 993e 904b 223e
00000240: 4637 9fbe 91d8 69be 7419 c73e 9069 1e3e
00000250: bcdd b1be 8224 a5bd 8e3a afbd 429d 32be
00000260: 4d50 f73c 6d69 28be b83b 72bd 52c4 063d
00000270: 769d a53e ef34 35be b0b1 613d 68b0 9ebe
00000280: b32d b3bd f7aa 493c 2e7c 8abe 7f74 ab3c
00000290: 7908 813e 5462 7c3e 621d 53bd d663 53be
000002a0: 9dbf 9b3e 8485 373d 819a a4be 0f0e 25be
000002b0: 3daa 083e 8206 3b3e 0030 13bc 125d 3a3e
000002c0: 037e a53e e287 c63d e9fb be3e 18a0 a93e
000002d0: ff2b a13e 13fd af3e 5e18 a3be 17b1 37be
000002e0: b5b7 40be 2297 b83d 409d 823c 9cdb 16bd
000002f0: a422 d83d 6652 42be d780 b43e f10f a4be
00000300: 465f 533e f626 b33e aefc 873e c2c6 a13e
00000310: 6431 973e e041 7c3c 0614 e33d c148 f2bd
00000320: 0106 013e 18df 4a3e 56d9 6f3e 2d5f 6cbe
00000330: 852c 783e 08a3 27bd c2be 7f3e 46dd 9a3e
00000340: bc16 3dbc 031f 07be 87ca 3e3d 131f 223e
00000350: 27cc 733e 0667 6cbe 3565 babe 101a 90be
00000360: c2d3 af3d 8fad 613e 372b 9a3e bc11 adbd
00000370: fa91 e73d e07a 583d 385a 66bd bb06 89be
00000380: 2e8b 1f3d d923 a8bd 2d5a cc3e cf70 823e
00000390: 5a40 853e 18b6 823e 88d8 babd 29f1 89bc
000003a0: 0c41 3b3e 929b 9cbe fabf 2e3e b651 4b3e
000003b0: e02c 97bc 6c71 b13d 457c 8dbe 99ce a33e
000003c0: 6fe1 88bd 795a b0be 7397 b3be 3c69 81bd
000003d0: 3e2d e7bc c461 4abe e4ac c5bd f676 6c3e
000003e0: 81af a7bd 6b94 8ebe 4206 2e3e 11cb 243d
000003f0: 32f1 683d 6d20 86be d81e 98be 732b 08bc
0.104848586 -0.1751868 0.38118792 -0.34518668 0.20197298 -0.2320306 0.26328602 -0.29721087
-0.16595331 0.2701118 0.08891237 -0.38609302 -0.29563278 -0.2665014 0.2022725 -0.27704266
-0.022231765 -0.11552144 0.43449545 0.21626665 -0.11440568 -0.14392115 -0.24121347 -0.17057587
-0.17448345 -0.06396198 0.23900542 -0.30825388 0.119527556 -0.3494881 -0.12939158 -0.15759566
0.1934478 0.07426939 -0.13520643 -0.27894357 -0.24385184 -0.3602811 0.051844724 0.20040344
-0.0052997097 0.18402605 -0.12071173 0.12057036 -0.19149658 -0.109007 0.24441674 0.28919253
0.10704845 -0.11635896 0.0418077 -0.28487235 -0.029150922 -0.12591916 0.16287285 -0.27755597
0.15053359 0.05706508 -0.3429681 -0.12164353 0.21876389 -0.08226985 0.19622454 0.30051795
-0.23896673 0.1918478 0.3427547 -0.17199723 -0.23405889 0.15064894 -0.15901296 -0.042639732
-0.14524756 -0.3440311 0.07402176 0.041008946 0.21376076 -0.08035508 0.32751295 -0.24765421
0.146552 0.33079574 0.2958813 0.065027654 -0.12471292 -0.04623979 0.26777586 -0.089296624
0.28280163 -0.30963546 0.115884185 -0.15193783 -0.32551503 0.31460693 -0.08949208 -0.055328805
-0.01675779 0.2126655 -0.32370764 -0.117967136 0.022419592 0.03838298 -0.2242249 0.15789996
-0.26079613 0.34293422 0.2568461 0.09325428 0.28097525 -0.33274397 0.18938157 -0.30871394
0.3054842 -0.1280243 0.32270122 0.025933394 -0.19190848 -0.13169222 0.2531604 -0.17600295
0.07141297 0.2695265 -0.061168402 -0.05314189 0.0984461 0.2290453 0.09951031 0.029691597
-0.26564124 -0.3182632 -0.21205032 -0.22836922 -0.08061681 0.21480128 -0.116793275 0.23562771
-0.25069913 0.23432711 -0.16512565 0.35659903 -0.26146367 -0.27560973 0.3001437 0.15849137
-0.31096858 -0.2283652 0.38886607 0.15469956 -0.34739482 -0.08063604 -0.0855609 -0.17442802
0.030189658 -0.16446467 -0.059138983 0.03290207 0.32346696 -0.17695974 0.055101097 -0.30993962
-0.08748951 0.012308828 -0.27047867 0.020929573 0.25201777 0.24646884 -0.051541694 -0.20643553
0.30419627 0.044805065 -0.32149127 -0.16118644 0.13346191 0.18264201 -0.008983612 0.18199566
0.32322702 0.09693886 0.37301567 0.33129954 0.3147888 0.34372768 -0.31854528 -0.17938648
-0.18820079 0.09013201 0.015944123 -0.03683053 0.10553482 -0.18976745 0.35254547 -0.32043412
0.20641813 0.34990662 0.26559967 0.31596953 0.2952987 0.015396565 0.110878035 -0.11830283
0.12599947 0.19811666 0.23422751 -0.23083182 0.24235733 -0.040926963 0.24975112 0.30246943
-0.011541065 -0.13195424 0.046579864 0.15832166 0.23808347 -0.23086175 -0.3640534 -0.28144884
0.085853115 0.22038864 0.30111095 -0.08450648 0.1130714 0.052851558 -0.056238383 -0.26762947
0.03895109 -0.082099624 0.3991255 0.2547669 0.2602566 0.25529552 -0.09123331 -0.016838627
0.18286532 -0.3058744 0.17065421 0.19855389 -0.018454015 0.08664212 -0.27633873 0.3199356
-0.06683623 -0.34444025 -0.35076484 -0.063189 -0.028219815 -0.19763857 -0.09652117 0.23092255
-0.081877716 -0.2784761 0.16994575 0.04023272 0.056870647 -0.26196614 -0.29711032 -0.00831114

gnn.conv_params.0.bias f4 [32]
00000000: 44a6 f6bc e81c c9bb f06d 58bc 80f9 7dbc
00000010: def6 22bb bf74 8bbd 954f 0f3c f021 793b
00000020: 9dd3 16b8 10fe 203c 797b 9a3c eb03 ad3b
00000030: b013 46bc ab82 1f3c 07d1 82ba be55 35bc
00000040: 1215 773c 1ada a73c f642 ff3c 413a 613a
00000050: cac0 ed3c 48b4 a7bc 018a 5d3d fe0d abbd
00000060: b48d 8cbd 5412 f63c f5d4 1abc eff4 3abd
00000070: f042 dcbc 49dd 08bc f77b d43c 2b36 96bb
-0.030108579 -0.006137479 -0.013209805 -0.01550138 -0.0024866383 -0.06809377 0.008747001 0.0038014613
-3.5959867e-05 0.009826198 0.018857704 0.005280008 -0.012089655 0.0097357435 -0.0009980508 -0.011067806
0.015080707 0.020489741 0.03115986 0.00085917494 0.029022593 -0.020471707 0.05408669 -0.08352278
-0.06862965 0.030038036 -0.009450187 -0.045643743 -0.026887387 -0.00835354 0.025938017 -0.004584094

gnn.conv_params.1.weight f4 [32, 32]
00000000: 42ed 5d3d 5eb0 18be 267c 563e bf09 d33b
00000010: 51bb fc3d 01bc b53c a08b f9bd dcf4 35be
00000020: dc76 1bbe 2ef2 cbbd e027 543d a333 bebc
00000030: 573c 723e 85dd 803e 1555 633d 678e fe3c
00000040: 50e6 2cbe 85d7 2d3e 7c14 19be d479 96be
00000050: 1e4c 2f3e 4bb2 3b3e 31a2 023e e2d5 813d
00000060: 2dc0 1cbe 41b4 4f3e 6e2e 863e 41ad e43d
00000070: f85a 293e 638d 20be 1287 b53d 9975 29be
00000080: b699 a9bd d89e d13d 77f4 d83d 6622 3d3e
00000090: 1989 88bd c0a6 d0bd f2dd ad3d 11d5 153e
000000a0: 2858 573d 3d17 7abe 61dd 9b3e aff3 033e
000000b0: 2611 e43d aae2 54bd 89ea 883e ef60 943c
000000c0: 87f6 693c ce13 153e 85fe b8bc 41eb 043d
000000d0: 0c62 afbb f790 9a3d d2d8 9d3b f470 31be
000000e0: 616e 9abd 3c9a 9a3e 7cc6 4a3e 08e5 6bbd
000000f0: 7aa2 a63b b225 3cbe 89cc 503e a092 9fbe
00000100: 5ffc 173e 1a0e 3e3e f870 9f3d a162 0e3e
00000110: 31a4 9bbe 4aae 0ebe 3230 eabd f7bb e43d
00000120: d41b 7ebe a68b 64be 3fa5 0c3e c3ce 813d
00000130: 290a 9cbe f6a4 5e3e 39b0 303e dbe1 913d
00000140: 663d 033d 9159 86be c5d8 99be ecfb 85be
00000150: 17cc 57be 8d9c 4abe 57cc 2cbe 6580 9d3e
00000160: 283c 99be 83b6 8a3e 53eb 823e 45f1 ec3c
00000170: e36b 6e3b 890e c43d 9c90 c23b 6435 85be
00000180: 6b43 81be a3c5 903e 3673 f1bd 987b 2a3e
00000190: 967b 9c3d 5ac6 33be 9736 aabc ebc9 88bd
000001a0: 3501 8f3e 21a6 b13c 6e12 003e b768 44be
000001b0: ef01 19be 5b90 5bbe a724 063e 25ee 71be
000001c0: feb7 323e 20a5 353e a04c 333d fb9f dabd
000001d0: 1e40 2e3e 8d4a 6dbe c8dc 533e e7bc 0a3d
000001e0: 0f18 6ebe 3e7c 223e 0453 22be 947f 543e
000001f0: 486b 89be 0f5b 6f3e ace6 783d a01c a1be
00000200: 5948 bc3d c08e fcbd 82c8 df3d c6c8 ca3c
00000210: ba26 3ebe 3345 403d 0066 1dbe 8c75 98bd
00000220: 769e 833b ee41 033e e051 653d f34c 99be
00000230: 51e7 e33d 5faf 5fbd 65bb 4cbe f53b 983e
00000240: 5e47 c03d 0a47 143e f015 dfbb 9f5b 96be
00000250: b23e 5f3e 629c be3d 1cd4 0dbe 3187 983e
00000260: 7a10 80be f7e5 7e3e 9971 0a3e 7589 423e
00000270: fc20 803c cdb4 41be 7b98 df3c 5820 56be
00000280: f281 9ebd 8eaf 14be a5b3 6cbe 02a5 7c3e
00000290: 9e92 95be f419 3b3e 7ead 92bd c87e 62be
000002a0: 91cf f93d 64d9 2abe f167 863e ad28 343e
000002b0: 93e1 823e 77d1 acb8 f9af 9fbe c20e 8c3d
000002c0: cf37 51bd 44e7 bf3d 5d10 3f3d 7b70 93be
000002d0: efa9 4b3e 0db6 60be 5fd6 92be 886a 13bd
000002e0: ae2a 993e 8c6a 2ebe f4ed 95bc e589 57be
000002f0: 6247 323e 00b9 bcbd e5ef 84be 58fa de3d
00000300: 64a6 74be eb98 523e d70b 103e a8cf f23c
00000310: ff12 a43d 237a 64be eef0 983e fd21 9cbc
00000320: 42cc 6bbe df0f 943c 9dac 46be c748 51bd
00000330: cebf 6cbe 43c6 99be a551 973d a28a 63be
00000340: c371 5c3e db1f 773e 1970 b33d a2db 8dbd
00000350: 4e0a adbd e740 cebd 725b a5bc f0c6 633e
00000360: d13d 563e c4f9 033e e1a6 823e dcac 9dbe
00000370: 84bb 90bc d0cc 933e 8c93 87bd 35cd dbbd
00000380: 5bd5 a23c b92b f3bd 3093 8e3e b105 92be
00000390: 5535 65be 727d 0dbe a2aa 88bc 81c0 3abe
000003a0: 0556 8b3e 030c f5bc a0eb a03e c660 4abe
000003b0: d09c 01be 226a 81be a4e2 d03d 1e9d 093e
000003c0: 097a 66be 60e0 9dbe d0f1 553e a7f3 9e3c
000003d0: 91d9 c13d 1766 33bc 36ae 7abe ba21 85bd
000003e0: c39a 01be 37c7 c73c 992f e93d 8cd9 e03d
000003f0: c443 2bbd cacf 92be 460b 28bd e93f 353e
0.054181345 -0.14911029 0.20945796 0.006440371 0.12340415 0.022184374 -0.121848345 -0.17769188
-0.1518206 -0.099583015 0.05179584 -0.023217982 0.2365583 0.25169006 0.055501062 0.031073762
-0.16884732 0.16976745 -0.1494922 -0.29389822 0.1711888 0.18329732 0.12757184 0.06339623
-0.15307684 0.20283605 0.26207298 0.11165858 0.16538608 -0.15678935 0.08863653 -0.16548766
-0.08281271 0.10235375 0.10593503 0.18470153 -0.06666774 -0.10188055 0.08489598 0.1463206
0.052574307 -0.24422927 0.30442336 0.12885927 0.11136083 -0.051973976 0.26741436 0.018112628
0.014279968 0.14558336 -0.022582302 0.032450918 -0.0053522643 0.07547181 0.0048171068 -0.17328244
-0.07540584 0.30195796 0.19802278 -0.057591468 0.0050852867 -0.18373755 0.20390524 -0.31166553
0.14842366 0.18560067 0.07785219 0.13904811 -0.30398706 -0.13933674 -0.11434974 0.11168664
-0.24815303 -0.22318897 0.13734911 0.06338265 -0.30476502 0.21742615 0.17254724 0.07123157
0.032040976 -0.2624021 -0.30048195 -0.26168764 -0.21073948 -0.19786282 -0.16874824 0.3076202
-0.29928708 0.2709237 0.25570163 0.02892364 0.0036380223 0.09573085 0.005937649 -0.26017296
-0.25246748 0.28275785 -0.11789553 0.1664871 0.0764076 -0.17556134 -0.020777984 -0.06679138
0.27930608 0.021685662 0.1250703 -0.1918057 -0.14942144 -0.21441786 0.1309992 -0.23626001
0.17453 0.17738771 0.043774247 -0.10675045 0.17016646 -0.2317297 0.2068969 0.033871558
-0.23251365 0.15867707 -0.1585198 0.20751792 -0.26839662 0.2337458 0.06076686 -0.31467152
0.09193487 -0.12331915 0.10926916 0.02475394 -0.1856946 0.046940994 -0.15370941 -0.07444295
0.0040166928 0.12818119 0.055986285 -0.2994152 0.111281045 -0.054610606 -0.1999336 0.29733244
0.09388612 0.14480224 -0.006808035 -0.29366776 0.2180126 0.093071714 -0.13850445 0.29790643
-0.2501257 0.24892412 0.13519897 0.18997748 0.015640728 -0.18916626 0.027294388 -0.20910776
-0.07739629 -0.14520094 -0.23115404 0.2467232 -0.29213423 0.18271619 -0.07161997 -0.22118676
0.12197793 -0.1668449 0.26251176 0.17593642 0.25562724 -8.240615e-05 -0.31188944 0.06838752
-0.051078614 0.09370282 0.046646465 -0.28796753 0.19889043 -0.21944447 -0.28679177 -0.035990268
0.29915375 -0.17032832 -0.018301941 -0.21048696 0.17410043 -0.092149734 -0.25964275 0.10887593
-0.23891598 0.20566146 0.14067017 0.029640034 0.08011436 -0.22312216 0.29871315 -0.019059176
-0.23027137 0.018073974 -0.19401784 -0.051094797 -0.23120043 -0.30034074 0.07388619 -0.22220853
0.21527772 0.24133246 0.08761615 -0.06926657 -0.08449231 -0.10070973 -0.020185206 0.22243857
0.20922019 0.12888247 0.25517944 -0.30795944 -0.01766754 0.28867197 -0.06619939 -0.107324995
0.019877126 -0.11873574 0.2784667 -0.28519967 -0.22383626 -0.13817385 -0.016682927 -0.18237497
0.27214065 -0.029912954 0.31429768 -0.19763479 -0.12657475 -0.25276285 0.10199478 0.13438842
-0.2250749 -0.30835247 0.20893025 0.019403292 0.094653256 -0.010949633 -0.24480519 -0.065005735
-0.12656693 0.024386985 0.11386032 0.10978994 -0.041812673 -0.28674155 -0.041026376 0.17700161

gnn.conv_params.1.bias f4 [32]
00000000: 2087 a83d d96c a2bb 67b1 8b3c 3b03 e23b
00000010: c9f3 a3bb 3ff8 09bb 6ec3 243c b270 083b
00000020: bd82 66bd 13e5 e43b 0155 5d3a 4b2f 893b
00000030: bfbf 143d 4909 5dbb 1d98 39bd abd8 e93a
00000040: 2614 e7bb 22e0 0b3c 1233 20bc faf0 5ebb
00000050: 835b 8a3b 1e10 9f3c 9670 63ba 550b 1abc
00000060: 73da 103d 11c2 8c3b 080d adbb 2e8f 003c
00000070: c74d 1abd 0e08 6c3c c14d 4c3d e085 8dbc
0.08228898 -0.0049568233 0.017052365 0.0068973578 -0.0050034267 -0.0021052507 0.01005636 0.0020819125
-0.056277025 0.0069853156 0.00084431475 0.004186546 0.036315676 -0.0033727458 -0.045311082 0.0017841061
-0.0070519624 0.008537324 -0.009777801 -0.0034018145 0.004222335 0.019416865 -0.00086761394 -0.009402116
0.03536458 0.0042955955 -0.0052810945 0.007846637 -0.03767183 0.014406217 0.04987884 -0.01727575

gnn.conv_params.2.weight f4 [32, 32]
00000000: 70ae 783e b644 913d bd12 5bbe a832 77bd
00000010: d854 94bd 97f2 943e 5da5 313e 54d6 043e
00000020: d15b 6c3e 587a 5cbe a03c 133e 1795 27be
00000030: 90a7 40bd 4027 95bd 0502 c73d 1b0b 993e
00000040: 6066 793e 3d8f 0cbe 336a 8b3e eedf e3bd
00000050: abd6 0ebd 8ed5 21be 6453 5abe fa1d 9fbd
00000060: 2536 5dbd 1a14 7dbe cee3 073e 990a afbc
00000070: c414 8b3d ffd5 87be d4d1 433d f46c a8bd
00000080: 8aca 4dbe 7d86 0e3d 412e 8ebe 509e 98be
00000090: 7609 04be efbf 803e e3ed aebd b4ab 5fbd
000000a0: a617 3f3d 6182 ad3e f978 943e d3d6 afbd
000000b0: 345e 44bc 5210 9abe 24aa f1bd bb54 4a3e
000000c0: 9617 90be d483 7ebe 86ef a63d a70b 8ebe
000000d0: a951 09be 71f2 68be a2c2 99be 4498 ffbd
000000e0: 1299 9c3d 3a9a 4abe b5bf 00be a855 ccbd
000000f0: d8f2 b9bd 67e8 933e d720 493d 5d44 96be
00000100: dcaa 90be c00d 923e 9747 453d 6087 01be
00000110: b4d9 663e 7443 acbd 01dd 0c3d 5249 a1be
00000120: 0aa3 94be da11 83be 78f0 b73d 1d2a 623e
00000130: d9f5 26be 24d6 ee3d 13e2 983e b22f aa3d
00000140: 38c7 ef3c 63d9 c4bd 7aca 323d 5734 703e
00000150: 1ee6 413e a387 8fbe 1d7a b53d 9007 3abe
00000160: b84c 733e dccb 76be 7b64 95be 47d3 083e
00000170: 82a0 c2bd 3cd4 bf3c 9d6b 09bd 1410 173d
00000180: ae28 c0bd 8d44 613d c804 e1bd 5a17 4a3e
00000190: 19e5 ea3d 018e 1abe f3fc 5ebd ee92 8dbc
000001a0: 19fa 03bc 04ee 753e 2cab eebd a683 173e
000001b0: fb44 57be 2ded 8dbb 932b 4fbe 2833 3bbd
000001c0: 730f c33d 171b b7bd 3d8d 8a3e ab69 9fbd
000001d0: 4e2f 263e e9c6 f3bc 58f0 59be c574 943d
000001e0: 3c49 afbd ea64 353e 8dec eebd 17f9 6abe
000001f0: ff54 863e d874 99be 7f22 943d 0b13 a13e
00000200: 8cc0 59be c670 92be a3e9 4a3e d463 663d
00000210: 6597 133e 74f6 9d3d 315a b1bc 8d0d 033e
00000220: 80ce 8cbe 6edc 1e3e cf92 05be beea 5dbe
00000230: e9b7 a83d 16ba 71bc c75b 903e 2737 27be
00000240: 7980 8cbe 161a 2d3d 3709 e33c 28dc 3dbe
00000250: 908a f9bd 92ca 853e 08aa 873e 2902 2bbe
00000260: 50f8 acbd f321 d4bd c8c0 fdbd f7f2 35bd
00000270: 50ed f93d e0ff 19be 22fa 6abd e192 a9be
00000280: b648 323e bc10 95bd 2e89 32be 0155 ac3e
00000290: 05e7 123e 9893 593e ece9 5f3e cde9 d23d
000002a0: fb7f 12be f934 a5be 0c7f e2bd 5021 d4bd
000002b0: 25c2 4cbd 790d 453e 9b84 93be 16a0 1e3e
000002c0: 8905 123e 128f 173d 7b5f c1bc e468 2d3e
000002d0: f4b4 48be 4305 07bd 7594 023e 380d f33d
000002e0: 92fa b23c dd46 fe3d 1f89 89be 4c4c 4d3e
000002f0: 5254 82be 3931 da3d 13e8 07bd 1d05 0cbe
00000300: 9844 343d cc7e 76bd 034c 973e d601 653e
00000310: d0c3 c23d 1002 cebc 4f56 643e 9e26 83be
00000320: 8bf5 883e 6a12 183e b1f4 623e 0602 923e
00000330: e689 223c c913 8d3d df2d 283e 3d77 5ebe
00000340: a206 9a3e c323 babc 471c 6f3d 9165 61be
00000350: 4900 843e ae3e a23d 6515 7dbe 2d00 2b3e
00000360: b82a c93d a76e d53d 0460 e6bc be8c f63c
00000370: 97eb 3abe 4574 8a3e c681 5c3e fe0c dd3b
00000380: 4eec 88be d91f 63be 6d7e 30be 27c8 263e
00000390: 4ef6 7bbe f08f 4cbe d5c8 05be e736 81be
000003a0: 4c37 c53d c744 1f3e 207e 8fbe 68ec 783e
000003b0: 532d 133c 8cf4 4fbe 487a 523c 05c0 a53d
000003c0: 034d 013e 1e98 44be 3a08 913e 2077 813e
000003d0: ada9 8a3e 8b57 18bc cfc8 3abd 3c9f 8cbe
000003e0: 224b 923e 7cc1 aabd d789 67bd 482a cabd
000003f0: 04c8 41be 4275 75be 8d1a 08bc a489 84be
0.24285293 0.07093184 -0.21393867 -0.060351044 -0.07242745 0.2909133 0.17348237 0.12972385
0.230819 -0.21531045 0.14378595 -0.16365467 -0.0470348 -0.07282877 0.09717182 0.29891285
0.24355459 -0.13726516 0.2722946 -0.111266956 -0.034872692 -0.15804121 -0.21320873 -0.077693895
-0.054006714 -0.247147 0.13270494 -0.021367358 0.0679107 -0.26530454 0.04780753 -0.08223906
-0.20096794 0.034796227 -0.27769664 -0.29808283 -0.12894234 0.25146434 -0.08541467 -0.05460711
0.046653412 0.33888534 0.28998545 -0.08585896 -0.01198535 -0.30090576 -0.1180003 0.19758885
-0.28142995 -0.24854976 0.08151154 -0.27743265 -0.13410057 -0.22748734 -0.30031306 -0.12480214
0.07646383 -0.19785395 -0.1257313 -0.09977275 -0.09079522 0.28888246 0.049103584 -0.29349032
-0.28255355 0.28526115 0.048163977 -0.12649298 0.22543985 -0.08411303 0.034390453 -0.3150125
-0.2903064 -0.25599557 0.08981413 0.22086377 -0.16304721 0.11661938 0.2985998 0.083098784
0.0292698 -0.09611776 0.043650128 0.23457466 0.18935439 -0.2803317 0.08861182 -0.18166947
0.23759735 -0.24101204 -0.29178223 0.13361846 -0.09503271 0.02341663 -0.033549894 0.036880568
-0.09382759 0.054997016 -0.1098724 0.1973547 0.11469478 -0.15093233 -0.05444045 -0.017281976
-0.008055233 0.24016577 -0.11653742 0.14796314 -0.21022408 -0.004331252 -0.20231466 -0.045703083
0.09524431 -0.08940714 0.2706088 -0.077838264 0.16228983 -0.029757934 -0.2128309 0.072488345
-0.0855889 0.17714277 -0.11666212 -0.22946583 0.26236722 -0.29971957 0.07233142 0.3145984
-0.21264857 -0.28601664 0.19815688 0.056247547 0.14413221 0.07713023 -0.021649452 0.12798138
-0.27501297 0.15513775 -0.13044284 -0.21671578 0.08238203 -0.014753839 0.2819502 -0.16329633
-0.27441767 0.042261206 0.027714355 -0.18541014 -0.12184632 0.2613111 0.2649691 -0.16700043
-0.08445799 -0.10358038 -0.12390286 -0.044421162 0.12203467 -0.15039015 -0.05736745 -0.33119872
0.1741055 -0.072785825 -0.17435142 0.33658603 0.1434594 0.21247709 0.21866578 0.102985
-0.14306633 -0.32266977 -0.110593885 -0.10357916 -0.04998984 0.1924342 -0.28812107 0.15490755
0.14259924 0.037001677 -0.023605099 0.16934544 -0.19600278 -0.032964002 0.12751944 0.11867756
0.021847997 0.1241586 -0.26862428 0.20048636 -0.25454956 0.1065392 -0.033180308 -0.13673826
0.04401073 -0.060179517 0.2955018 0.22363982 0.095100045 -0.025147468 0.22298549 -0.256154
0.26749834 0.14850774 0.22163655 0.2851717 0.009920573 0.06888539 0.16423748 -0.21725173
0.30083185 -0.02272213 0.058376577 -0.22011401 0.25781468 0.079221115 -0.24715193 0.16699286
0.09822601 0.10421496 -0.028121956 0.030096408 -0.18253933 0.27041832 0.2153388 0.0067459336
-0.26742786 -0.22180118 -0.17235728 0.1628729 -0.24605677 -0.19976783 -0.13064893 -0.252372
0.09629688 0.1555358 -0.28025913 0.24308932 0.008982974 -0.20308131 0.012846537 0.080932654
0.12627034 -0.19198653 0.2832659 0.25286198 0.27082577 -0.009298216 -0.045601662 -0.27465236
0.28572947 -0.083376855 -0.05652794 -0.09871346 -0.18923956 -0.23970512 -0.008307111 -0.2588626

gnn.conv_params.2.bias f4 [32]
00000000: 1726 8bbc 48df b03c 1f90 a53a 7333 61bc
00000010: d10f 293d 357a 5ebc a269 173d 2b30 c83b
00000020: 8725 cfbb 1c98 b43c 3e39 be3c c8bf a73c
00000030: 497b 80bb 3033 163b 6e11 ab3c d038 fa3c
00000040: ba14 b73b 7622 3b3c 7bc9 26bc c362 09bb
00000050: e48b 873c d0eb ff3c 5dee 393c 779f ed3c
00000060: 086c fabb df04 143c 8fad abbc 9b59 c13b
00000070: 7da9 ad3b 7a35 c73c 021c 323c 2f3c 0a3d
-0.016985936 0.021590844 0.0012631452 -0.013745177 0.04127485 -0.013578941 0.036965974 0.0061092577
-0.0063216123 0.022045188 0.023220655 0.02047719 -0.0039209467 0.0022918694 0.020882335 0.030544668
0.0055871876 0.01142179 -0.010179873 -0.0020963408 0.016546197 0.031240374 0.011348334 0.029006703
-0.007642273 0.0090343645 -0.020956783 0.0059005744 0.0052997456 0.024317492 0.010870935 0.0337488

gnn.conv_params.3.weight f4 [1, 32]
00000000: 8b8a 9dbe 1050 8dbe f74b f93c 063a e0be
00000010: 74b5 d1be cc0c d63e fa59 14bd f5c7 e0be
00000020: 67d7 e2be ff37 d13e 0be8 66be db28 2a3e
00000030: 94e1 5cbe 989c cabe 1c37 3fbe 1a00 383e
00000040: 93a8 aebe a5ac 473e 33f3 943d 86f7 a83e
00000050: ae5b 883c 4cbf 413d 0517 4ebd c978 93be
00000060: 783d c7be 1eec 613e 929d a53e 2246 873e
00000070: c605 b83e a71d 1fbe baad 2b3e 6ef7 53be
-0.30769762 -0.27600145 0.03043173 -0.43794268 -0.4095875 0.41806638 -0.03621862 -0.43902555
-0.44304964 0.40863034 -0.22549455 0.16617148 -0.21570426 -0.39572597 -0.18673366 0.17968789
-0.34112987 0.19499452 0.07272949 0.33001345 0.016645279 0.047301576 -0.050314922 -0.2880309
-0.38914084 0.22062728 0.3234678 0.26420695 0.35941905 -0.15538655 0.1676549 -0.20699856

gnn.conv1d_params1.weight f4 [16, 1, 97]
00000000: fea3 eebc aa88 bcbc 3764 cfbd 3cec 5f3d
00000010: da49 bdbd a773 053d d534 bb3d be60 793d
00000020: fe52 b93d c8fd 6bbd 1ddd 0e3d 9ead 4f3d
00000030: 7418 13be 0a16 193d 5821 8ebd 3885 1c3d
00000040: c67f c23d 4de5 9abd 33b2 4c3b 92fb 9f3d
00000050: 011a d33d 767e bb3d 3018 a3bd 7166 213d
00000060: 8470 b9bd e3db 8c3c f532 c7bd 450e 323c
00000070: 7dc1 6f3d 2ebd dabd bd22 04bc 318f 4bbd
00000080: 6b8c a73d babb a5bc 7a13 443d 4702 cfbd
00000090: c3fb 9c3c 45ff 7f3d 9c5a 2ebc 8b32 8fbc
000000a0: 290c 21bd 3bf7 9e3d 81e5 063d aebf 81bb
000000b0: c720 823d c594 7abd dfa8 84bd ff5b 8fbc
000000c0: b440 a23d 6756 a0bd e6c0 8fbd 011b 883c
000000d0: c5bd 4c3d 03c4 653d 82e3 023d 92f4 acbd
000000e0: dd3f 5cbd 0e55 743d ee7e 953c 0e6e 2e3d
000000f0: 22fe c53d 4144 853d fa38 7cbd 6f70 83bd
00000100: e510 c8bc f7f2 573c cd7a cebc bae1 70bc
00000110: 0356 8c3c 1afc 2ebc 766e abbd 7205 953d
00000120: 5bdd cfbd 9018 fd3c fbeb cabd eaf8 0e3e
00000130: 118c c3bd ee63 86bd db53 933d 0b20 9b3d
00000140: 37e1 e93d 9605 b73d 9b9b 1ebe 0af7 3ebd
00000150: 9427 963d 9491 e6bd 4ec1 b53d 4f22 8fbc
00000160: 1642 473d db2b fa3c 940c 9fbd 63a5 81bd
00000170: fcc0 3a3d fb45 adbb a1ed 8e3d c466 d43c
00000180: da9a d0bc b883 a7bd ecda cebd 78a7 823d
00000190: ee42 143d fb0d c03c 131d 95bd 8c07 6fbd
000001a0: 74d6 983d b4a7 9fbd 0d72 8fbd ea03 5e3d
000001b0: cf3a ae3d fbd9 97bd d13e dfbd aa13 9a3c
000001c0: 656a 64ba 5c5b 3abc 266f d8bd cfb4 953d
000001d0: ce45 2ebc 72d2 2c3d 5ec8 983d 4cb0 ad3d
000001e0: d72b 97bc bd07 253c 2090 83bd ab18 8fbd
000001f0: 3e21 66bd b351 8f3c 1bc5 a9bd 63a6 693d
00000200: 12ff 8a3c ce23 03bd 9bdb 2c3d 9fd4 443d
00000210: 7da9 4cbd 1007 803d 292a 113d bd23 953d
00000220: da84 72bd c4b7 993d 4b22 383c fa98 113c
00000230: fe27 0b39 c0a9 a0bd 42da 2bbd dd5e 9dbd
00000240: 7768 73bc 1a78 173d bee5 3cbd e1e5 a53b
00000250: b027 c3bd 8763 673d 148a cfbd 595e 20bc
00000260: 8d19 733d 39e3 e0bd 0ba8 d8bd 3581 10bd
00000270: 65bb 2fbd 9d87 00bd 8aba af3d 606b c7bd
00000280: 1b95 fb3c 2e31 7ebd 6e8b cdbc 8a2f b1bd
00000290: ab42 b7bd 3132 83bd 6fd6 5abd 658e 0d3d
000002a0: 07f9 5a3d 6dff 4b3d 557c c93d 56ba 7ebb
000002b0: c238 173e 089e b1bd 80d2 49bd e30b 86bd
000002c0: 1f61 43bd 5570 14bd 3a15 82bd 73cb 473c
000002d0: 8057 243d 1dbd 783d a324 10bd 2769 e23c
000002e0: c5f3 f6bc 4416 87bd 9981 363d 9cb7 043d
000002f0: 7fdd 05bd 3d5a 1d3d 29b9 453d cff8 fa3d
00000300: 66b6 1bbe b81c 9abd 2d58 2e3b 1aa2 e73d
00000310: ca31 cd3d 0024 93bd 8afa 81bd 97aa f43d
00000320: b9d2 d7bc 2368 81bd 6277 8bbd b47c 913d
00000330: 3e6d 463d 0eb0 a03d 274a 03bc ebc5 eebc
00000340: 0c75 d23a a365 d83d 066c ccbd 4eab ab3d
00000350: 79e6 9ebd 479c 273c a517 ae3d 521e 32bd
00000360: ed6d 46bd 52c9 c538 0701 343d 8c5a a33d
00000370: fbb9 d0bd 17cc c73d 32a2 e7bc 82c3 a43c
00000380: 5425 4cbd 671d 3e3d 049e c9bd c08f 75bd
00000390: d36b 25bd 8458 b03d e33f 443d 9ea2 6dbd
000003a0: 122e bc3c 0051 bf3d 6a44 aebd d49b 913d
000003b0: d3be 923d ad17 cb3b a9be 0dbd f05a 533d
000003c0: a5dd 4e3d e887 3fbd 7f9a 96bd be57 9fbd
000003d0: ef3d c9bb 29d8 903c 7096 1d3d 68fd 28ba
000003e0: 3f19 943d ab94 6f3d 8cdf f23c 2e55 02bd
000003f0: 5b85 44bd cea3 8e3d 6367 1b3d f214 debb
-0.029130932 -0.023014385 -0.10126536 0.05466865 -0.09242602 0.032580998 0.09140936 0.060883276
0.09049033 -0.05761507 0.03487884 0.050702684 -0.14364797 0.037374534 -0.069399536 0.038212985
0.09497027 -0.07563267 0.0031234145 0.07811655 0.10307694 0.0915498 -0.07963598 0.039404336
-0.09054664 0.017194694 -0.09726516 0.01086766 0.058534134 -0.106806144 -0.008064923 -0.049697105
0.081810795 -0.020231117 0.047870137 -0.10107856 0.019163018 0.062499303 -0.01064172 -0.017480155
-0.039318237 0.07761999 0.032933716 -0.0039596176 0.06353908 -0.061177034 -0.06477522 -0.017499922
0.079224974 -0.0782898 -0.07019214 0.016614439 0.049985666 0.056095134 0.03195525 -0.084450856
-0.053771842 0.059651427 0.018249001 0.042585425 0.096676126 0.06507159 -0.061577775 -0.064179294
-0.024422118 0.013180486 -0.02520504 -0.014702255 0.017130857 -0.010680223 -0.08370678 0.07276429
-0.10149642 0.030895501 -0.09908291 0.1396214 -0.095482 -0.06562029 0.071937285 0.07574471
0.114199094 0.08936612 -0.15489046 -0.046622314 0.07331768 -0.112582356 0.088747606 -0.017472414
0.04864701 0.03053849 -0.07766071 -0.06330373 0.0455942 -0.0052878833 0.06978918 0.025927909
-0.025464464 -0.0817942 -0.1010035 0.063795984 0.03619664 0.023444166 -0.07280936 -0.058356807
0.07462779 -0.07795659 -0.07004175 0.05420295 0.085073106 -0.07414623 -0.10900653 0.018808205
-0.0008713364 -0.011374321 -0.10568075 0.07309877 -0.01063676 0.042192884 0.07460092 0.084808916
-0.018453522 0.010072646 -0.06423974 -0.06987127 -0.056184046 0.017495012 -0.08289548 0.057043444
0.01696733 -0.032016568 0.04220162 0.048054334 -0.049966324 0.06251347 0.035440598 0.07282207
-0.05920873 0.07505754 0.011238645 0.00888657 0.00013270971 -0.07844877 -0.041956194 -0.07684109
-0.014856449 0.036979772 -0.046117537 0.005062804 -0.09529054 0.0564914 -0.10133758 -0.009788119
0.05935054 -0.10980839 -0.10578927 -0.03527947 -0.042903323 -0.03137933 0.085805014 -0.09737277
0.030710747 -0.06205862 -0.0250909 -0.086516455 -0.08948263 -0.064060576 -0.053427156 0.034559626
0.053460147 0.04980414 0.098381676 -0.003886839 0.14767745 -0.0867272 -0.049273014 -0.06545236
-0.047700044 -0.03623994 -0.06351705 0.012194502 0.04012251 0.060727227 -0.03519119 0.027638031
-0.030145535 -0.06596044 0.044557188 0.032401666 -0.03268194 0.038416136 0.048272286 0.12254488
-0.15206298 -0.07525009 0.002660285 0.11310215 0.10019262 -0.07184601 -0.06346615 0.119466
-0.026345598 -0.06318691 -0.0680988 0.07103863 0.048444025 0.0784608 -0.008013285 -0.029147109
0.0016056611 0.10566261 -0.09981541 0.08382283 -0.07758803 0.0102301305 0.085006036 -0.043485947
-0.048444677 9.431191e-05 0.043946292 0.07976255 -0.10191723 0.09755724 -0.028275583 0.020112757
-0.049840286 0.04641476 -0.09844592 -0.059951544 -0.040386032 0.08610633 0.04791249 -0.058016412
0.022971187 0.093416214 -0.08509143 0.071098 0.07165303 0.0061978907 -0.034605656 0.051600397
0.050504345 -0.04676047 -0.073536865 -0.07780407 -0.0061414163 0.017681198 0.038473547 -0.0006446452
0.07231378 0.05849139 0.029647611 -0.031819515 -0.04797874 0.06964837 0.037940394 -0.006777399

gnn.conv1d_params1.bias f4 [16]
00000000: 02f7 39bd 7470 f5bc 25d8 023c 3123 73bd
00000010: 13f1 363d 3ce2 ac3d 2ea1 33bc b09e 493d
00000020: 6dfc adbd a159 cdba c203 4cbd 5aaa 533c
00000030: 8295 1cbd 468a 78bd 4385 9fbc aecd a6bd
-0.04540158 -0.029960848 0.007986103 -0.059359733 0.0446635 0.08441588 -0.010963721 0.0492236
-0.08495412 -0.001566697 -0.04980827 0.012919033 -0.03822852 -0.060678743 -0.019472724 -0.08144699

gnn.conv1d_params2.weight f4 [32, 16, 5]
00000000: f15b 4dbd 5345 59bd 6f30 da3d c69a 69bd
00000010: a02d 8dbb f8f1 02bd 313d b4bd 64ff 013d
00000020: 4387 a8bd eb3c 293d aa03 40bd 141c 443d
00000030: af67 933d ddf4 ac3d d861 d43d 14f3 c3bc
00000040: 6cf7 e2bd 4c09 15bd b4da dfbd 5014 983c
00000050: 6551 d0bd 90e8 9dbc 9a6d ba3d 75a9 8abb
00000060: f5fd 943a 574b d13d d66b 69bd c37e d7bd
00000070: 3592 6c3d 54a2 983d 548d 2dbc 0f5c b7bd
00000080: 0136 bc3c a56f 0b3d 1647 9fbd a1ee 52bd
00000090: b0b2 11ba 3236 853d 7cae b5ba d774 d63d
000000a0: 0203 d73d 588a e73c 9cf0 8bbd 17b0 5dbd
000000b0: d4f3 f0bc 50c6 0c3c 1aa7 8cbd 3f0a dabd
000000c0: b8a5 08bd b516 a6bd 33c9 113d 4fe5 74bd
000000d0: 2a32 0bbd a760 413d 6767 b13c 9d9f 80b9
000000e0: 4028 7e3d aaa3 a5bd e4ab e23c 06c1 dc3b
000000f0: 7638 dbbd 71f6 003d f809 9dbd 54cd f7bc
00000100: ee7a 5abd 4526 d5bd 714e 913d 87b5 843d
00000110: f035 523c 1e23 96bd b41e ca3d cbdf 29bd
00000120: 622b a1bd 77e8 aabd 44f2 683c aaf1 83bd
00000130: e740 8fbc 5367 e1bd 782d f0bc 9aef d8bd
00000140: 14d4 12bd 7dea 3abd cf98 b9bc 384a 0b3e
00000150: 29dd c23c 7738 a6bd 59df d43d 7bcd 163c
00000160: 4c36 b0bd efc8 9fbd 25a1 a03b f8b5 b1bd
00000170: a82e 283d 6c17 cfbd 24b6 d0bd deb9 863d
00000180: d14c dc3b b8a1 2d3d db27 c9bc 1565 89bd
00000190: 0447 9b3d 7596 8dbc 103d ab3d 655c f6bc
000001a0: 7c54 bfbc b608 b3bd eab2 02be 175a 30bd
000001b0: bc6c 19bd 9ca0 ebbd d374 8ebd f8d9 b53d
000001c0: 9d1f cabb 8c1b 9b3c 4b0e 84bd 5f1b bf3d
000001d0: ff52 da3d c10c 163d 4d71 e33d 145b 9d3d
000001e0: 766f 913d 1af5 95bd b90c 66bd 087b 02bd
000001f0: 2a43 89bd 04a6 683d 6329 5ebd e6b9 4a3d
00000200: 961c 9b3d 12bf eabb 0070 d13d 17fe 5fbd
00000210: 1810 513d 0f48 9d3d 64ae 84bd 44a7 e6bc
00000220: cf03 763d 1672 e6bd 80be 9dbd 0729 08be
00000230: 3d68 9f3d 544c 963d c4c6 ab3c 57ff a13c
00000240: 224d ccbd deea b23d 92ac 5abc dd40 cf3d
00000250: 5b2a 06bd 4e8a 0abd ec47 a23d 4cdb 023d
00000260: 9d2d f5bc a638 8abd 6c85 bebd cd82 ca3d
00000270: 5a52 70bc dbc2 563d fae7 bb3d 2a71 633c
00000280: c4a2 97bd 4fde b0bd fc93 acbc 5ed9 37bd
00000290: b62b 15bd 431d 213d a3c7 b2bd 6134 8c3d
000002a0: fcce e2bb 1537 bfbd f6ef 27bc 0487 ed3c
000002b0: ceb8 f53d 8372 043e d886 b4bc 70d6 babd
000002c0: f7ab 963d 75dc a83d b8aa 693d 5e7c edbd
000002d0: 433c 4a3d 599e 513d 9212 6e3d ab26 4cbd
000002e0: c8b5 173d e516 753c 72d4 023e b300 59bc
000002f0: 5b12 223e 2d5b cb3d 9ca7 3d3d 857f 0abd
00000300: a3e4 293c 5b2e 3f3d 4e69 8bbd 16b1 fc3c
00000310: e438 953d e967 6e3d 83b6 e03d 6020 24bd
00000320: a117 12be 8c88 8fbd a939 acbd b44a 303d
00000330: b50b 693c 54a0 8abd cdf4 4fbd ae1e a8bd
00000340: 7c43 5d3d a6ab 0e3d 7159 193d af59 e1bb
00000350: a6f6 ee3d e2a1 d13d 29e7 aebd f08c 25bd
00000360: ac5c 723d 2010 46bd 39e4 373d 0447 543d
00000370: 4d4e 48bd d7de dc3d 79b7 4fbd 5aa0 3cbd
00000380: 6672 a93b 2a04 60bd f994 25b9 f30b a9bd
00000390: f703 7b3d 7e33 ebbd a3de d0bc 4503 183d
000003a0: 00ea 223d 1692 723d cbd7 e1bc fefb e83c
000003b0: 4fd6 c3bd b8fc 45bd 0470 37bc 5c90 f1bd
000003c0: 25e8 bdbd 4aa2 a0bb 1db2 09be fd1b 363d
000003d0: 01f7 c7bd 337c 14bd 4296 923d 7432 e3bc
000003e0: 353e 023d e0d1 c83d 5ba5 e13d deac e53d
000003f0: 4130 9ebd 4604 f93d d67a 513d b8ef 073d
-0.05013651 -0.05304463 0.10653769 -0.05703237 -0.0043084174 -0.03196904 -0.08800734 0.0317377
-0.08228924 0.04131786 -0.046878494 0.04787834 0.071975105 0.084451415 0.10370225 -0.02391962
-0.11082348 -0.03638582 -0.10930386 0.018564373 -0.10171775 -0.019275934 0.09102936 -0.0042316266
0.0011367189 0.10219448 -0.056987606 -0.10522225 0.05775662 0.07452837 -0.010592777 -0.08953106
0.02297497 0.03404202 -0.077772304 -0.051497106 -0.00055579375 0.065044776 -0.0013861204 0.10471504
0.104986206 0.02826421 -0.06833002 -0.05412301 -0.029413141 0.008592203 -0.068678096 -0.106464855
-0.033361167 -0.081098 0.03559227 -0.059789 -0.033983387 0.047211315 0.021655751 -0.00024532984
0.062050104 -0.08087857 0.027669854 0.0067368774 -0.107041284 0.031485025 -0.07667917 -0.030249275
-0.05333989 -0.1040769 0.0709504 0.06479936 0.0128302425 -0.07330917 0.098691374 -0.04147319
-0.07869603 -0.083451204 0.014217917 -0.06442578 -0.017487003 -0.11006036 -0.029318556 -0.10592575
-0.035846785 -0.04563378 -0.022655873 0.13602531 0.023787098 -0.081162386 0.10394163 0.009204264
-0.08604106 -0.07801997 0.0049020224 -0.08677286 0.04106012 -0.10111889 -0.101909906 0.0657842
0.0067230244 0.042390555 -0.024555137 -0.06708733 0.075819045 -0.017283658 0.08361256 -0.030073354
-0.023355715 -0.08741896 -0.12763563 -0.043054666 -0.037457213 -0.11505243 -0.06955876 0.08879465
-0.0061683194 0.018934034 -0.06448039 0.093313925 0.106603615 0.036633257 0.11105595 0.076833874
0.071013376 -0.0732214 -0.056164477 -0.031855613 -0.06702264 0.05679895 -0.05423869 0.049493693
0.07573812 -0.0071638906 0.102264404 -0.05468568 0.05104074 0.0767976 -0.06478575 -0.02815593
0.060062226 -0.11252229 -0.077023506 -0.132969 0.07783554 0.07338777 0.020968802 0.019775076
-0.099756494 0.087362036 -0.013346808 0.101197936 -0.032755237 -0.033823304 0.07923874 0.03194742
-0.029928977 -0.06749086 -0.09302792 0.098882295 -0.014668072 0.052431922 0.091751054 0.013881961
-0.07404092 -0.08636152 -0.021066658 -0.044885032 -0.03641864 0.039334547 -0.08729484 0.06845928
-0.006921647 -0.09336678 -0.010250082 0.028995045 0.11998139 0.12934308 -0.022036955 -0.09122932
0.073570184 0.08245174 0.057047576 -0.11595987 0.049373876 0.051176403 0.05812318 -0.049841564
0.037038594 0.014959072 0.12776354 -0.013244796 0.15827315 0.099295 0.046302423 -0.03381302
0.010369453 0.046675067 -0.06807195 0.03084616 0.07286242 0.058204565 0.10972311 -0.040069938
-0.14266826 -0.07008466 -0.08409435 0.043039992 0.014223983 -0.067688614 -0.05077057 -0.08208977
0.054019436 0.034831665 0.037438814 -0.006877146 0.11668138 0.10235955 -0.08540184 -0.04041761
0.05917041 -0.04835522 0.044895384 0.05182554 -0.0489028 0.10784691 -0.050712083 -0.04605136
0.005171108 -0.05469147 -0.00015791123 -0.08254232 0.061283078 -0.11484431 -0.025496786 0.037112493
0.03977394 0.05922135 -0.027568718 0.028440472 -0.095623605 -0.048336715 -0.01119614 -0.117951125
-0.09272794 -0.004902159 -0.13446851 0.044460285 -0.09763909 -0.036251258 0.07157566 -0.027734019
0.031797606 0.098056555 0.11017867 0.112146124 -0.077240475 0.12159018 0.051142536 0.033187598

gnn.conv1d_params2.bias f4 [32]
00000000: 9683 a5bd ca0d a83c 045f 613c e42c d93c
00000010: e62f a7bd ed11 a4bb 49d5 7cbd 4a4a d73d
00000020: 31ef 94bd fd91 c1bd a2e3 263d 6dd4 983c
00000030: 84de a5bb 4921 803d 71a3 983d 3b44 ba3d
00000040: 892b e53b 6e22 343c e579 813d a2a4 e03d
00000050: ce31 15bc 9397 a5bc 7900 12bc 9817 f93c
00000060: 6034 8dbd 74c3 ce3d 5a66 9bba 39a7 643d
00000070: 03db c73d 4856 3c3d b9fa 08bd 1535 c33d
-0.08081739 0.020514388 0.013755564 0.026510663 -0.08163433 -0.0050070197 -0.061726842 0.105122164
-0.07272185 -0.09451673 0.04074443 0.01865598 -0.0050619263 0.06256349 0.07453049 0.09095045
0.006993715 0.010994537 0.06322078 0.10968901 -0.009106113 -0.020213878 -0.0089112455 0.030406758
-0.06894755 0.100958735 -0.0011856065 0.05582354 0.0975857 0.04598072 -0.033442233 0.09531609

mlp.h1_weights.weight f4 [128, 352]
00000000: 3819 943c db7b dcbd 0c27 98bd 32f8 c1bd
00000010: 505b 793c a61c b53d 9c02 cd3d b88a 723a
00000020: e02f 37bc bf3d e13d abae c0bd bb7e 323b
00000030: e139 a5bd ec54 a13d 70db d43c 9a6a 20bd
00000040: 4952 babd 8c59 0bbe 2198 223c e67d 45bc
00000050: 1c6f f6bd 3715 4f3d 17dc 143d 88b4 39bc
00000060: 0202 45bd f172 56bd ab41 7abc c71d 4a3d
00000070: bac5 19bd 45ac f93d f2f0 ca3a e491 023e
00000080: 6af9 483d 976d 553d 2bda 153d 1cd5 393d
00000090: 9c02 183d bb27 6d3d 2b82 d03d a46b 0b3d
000000a0: f12f 05ba 8c81 b1bd 0f1c 913a 8788 833b
000000b0: 136c ff3c 06b6 3bbc e3f8 eb3c bd8a bebc
000000c0: 310b d3bd b9f5 b43d 22ff 813d 9f4a 0ebd
000000d0: acd8 97bd cc96 e0bc 2871 11bc 5e5d 513d
000000e0: 9295 e23d ea1d 053c 4824 163d 37c3 92bd
000000f0: 7e68 21bc 4521 87bc 270e 57bd 441c 0f3d
00000100: f368 8dbd d590 06bd ba42 e83d fbe3 f83c
00000110: c978 da3d 91c5 573d c1ab 503d 28cc a83d
00000120: d9b2 953d b369 2d3a 98b6 bdbc eea6 513d
00000130: 1408 17bd ef25 85bd 1eb3 1bbd 4315 5d3d
00000140: 73d1 ebbc 489d 89bd 561c de3c dc3b 983d
00000150: 415e eb3b ab83 57bd 61e1 2abd c5b5 9f3b
00000160: c548 99bd f081 cebd da97 a0bc 2b1a 903d
00000170: 642b 263d 7119 4bbd da46 a4bd c9b7 80bc
00000180: 9147 0cbd f3eb 9ebd 7c21 74bd 0b89 7ebd
00000190: 9d7a c13c 80a9 1c3e 94ff a13d 5f9e d33d
000001a0: c472 e63d 2acf bd3c 621b eb3d 284c 883c
000001b0: c18d 0d3e 48f0 123d 59b4 763d 0ea5 b9bc
000001c0: 8458 a43c 9cad 523d d4b8 b0bd 532e bb3c
000001d0: 4f46 babb 03eb 4fbd 8fd6 81bd b8dd b3bc
000001e0: e9f8 c7bd 8677 79bc 4f00 063e 397e c13d
000001f0: 2f2b 20bd fd97 44bd 33ae af3d e501 833d
00000200: d969 19bc f523 15bd 5d2e 513c d849 733d
00000210: d3f0 443d ee3f ff3d cc13 943d 8365 743d
00000220: 8940 003e d971 b43d a439 743c 75a5 9cbc
00000230: 5c5e 293d 8eaa a53d 9ab2 4fbd 1d49 b43d
00000240: 008c 4d3d fa00 dbbd 538d 623d dea5 bcbd
00000250: 1ebf f93b 4854 f5bd a1af 683c 3531 a4bd
00000260: 16f8 983d f887 73bd 7847 a8bd dd0d d9bc
00000270: 0349 0cbd dd28 033d c83e d7bd e355 89bc
00000280: 7d9d 803d e088 a0bd 4797 08bd 74eb 20bd
00000290: 8dfe 1e3d cf08 ab3d 8225 29bd 626f 2abd
000002a0: 67cc 7dbc 4458 ad3c a541 da3b 4a49 3fbd
000002b0: 3678 9b3d e245 6ebd c6c8 25bd b5cf 933d
000002c0: 20cc aa3d 1067 fe3d 3b0e d83b 9647 a53d
000002d0: d446 afbc c2eb 3a3d a164 ed3d 571e 083d
000002e0: 4327 1cbd db5c 8ebd d3f8 84bc 6e08 2bbd
000002f0: cf0c a0bd 5513 a9bd e0de bf3c 70da 05be
00000300: 5cdb aebc 194d 8abd a5e6 08be 7e3b 873d
00000310: 7955 8dbd 4f06 ac3b da22 b03d af0e 9bbc
00000320: afe0 413c b40f 01bd ad08 d6bd 8f09 933c
00000330: 6292 0f3d eac2 ad3d b1c8 afbd e0a6 b9bd
00000340: 7e08 eebd 5fe0 c83d b88f fabb 01ef 66bd
00000350: 1869 c23d 1ee2 f33b cd5c c13d 5222 d73b
00000360: 0920 903d b0dc 5cbc 9050 373c b4b1 52bd
00000370: 4e76 b13d 8eda cbbc af8a ce3d 69ff 63bd
00000380: 0521 4abd a91b a23c c44b 6dbb 6612 9c3d
00000390: 7e6b 5fbd 28f1 c43d 7dce 67bb 055e f23d
000003a0: 65ff 693c 43a9 88bc f025 0b3d ee73 e73d
000003b0: d0ef b83b 8739 6b3d 5696 f13b 8e55 6abb
000003c0: 27b6 ad3d 8f63 7ebd 686c 50bd 0025 08be
000003d0: 6e0e afbd 94a7 c8bc 6b41 183c b6c2 7e3d
000003e0: 7644 9fbd 4e0f 8ebd 23cf a8bd f69b 9bbd
000003f0: 1c82 c13b 4aa3 d33d a451 ca3d 16ed 3a3d
0.018078431 -0.10765811 -0.074293226 -0.094711676 0.0152195245 0.08843355 0.10010263 0.0009252238
-0.011180848 0.10998105 -0.09408315 0.0027236182 -0.0806768 0.07877526 0.025983542 -0.039164163
-0.09097726 -0.13608378 0.009923966 -0.012053942 -0.12032911 0.05055734 0.036342707 -0.011334546
-0.048097618 -0.05235571 -0.0152744455 0.049344804 -0.037542082 0.12191061 0.0015483184 0.12750965
0.049065985 0.052106466 0.036585014 0.045369253 0.037111863 0.057899218 0.101810776 0.0340382
-0.0005080691 -0.08667287 0.0011070984 0.004014078 0.031179463 -0.011456972 0.028805202 -0.023259515
-0.10304869 0.088359304 0.06347491 -0.034739133 -0.07414374 -0.027415656 -0.008877076 0.051114433
0.110636845 0.008124808 0.036655694 -0.071661405 -0.009851573 -0.016495356 -0.05250373 0.034939066
-0.06904783 -0.032852966 0.11340852 0.030382147 0.10667569 0.05267865 0.050945047 0.08242065
0.07309503 0.00066151767 -0.023158357 0.051184587 -0.03687294 -0.06501376 -0.038012616 0.053975355
-0.028786397 -0.06719452 0.027113121 0.07433292 0.007182867 -0.052615803 -0.041718844 0.0048739635
-0.07484583 -0.10083377 -0.019603658 0.07036241 0.040568724 -0.04958481 -0.08021326 -0.015712636
-0.03424794 -0.077598475 -0.059602246 -0.062142413 0.023618037 0.15299034 0.07910076 0.10332941
0.112523586 0.023170073 0.11479832 0.016637877 0.13823606 0.03587368 0.060230587 -0.022661712
0.020061739 0.051435098 -0.08629003 0.022849238 -0.005684651 -0.050761234 -0.06339752 -0.02195631
-0.09764273 -0.0152262505 0.13086055 0.09447903 -0.039103683 -0.04799651 0.08578148 0.06396846
-0.009363615 -0.036411244 0.0127674015 0.059396595 0.04808123 0.124633655 0.072303385 0.05966712
0.12524618 0.08810777 0.014906321 -0.019121865 0.041349754 0.08089171 -0.050707437 0.08803008
0.050182343 -0.10693546 0.05531056 -0.09211324 0.00762166 -0.11978966 0.014202029 -0.08017198
0.07469194 -0.05945584 -0.082167566 -0.026495868 -0.034249317 0.032021392 -0.105100214 -0.016764587
0.062800385 -0.07838607 -0.033347394 -0.039287046 0.038816977 0.083512895 -0.041295536 -0.04161013
-0.015490628 0.021160252 0.0066606575 -0.046700753 0.07591288 -0.058172114 -0.040474676 0.07217351
0.08339715 0.12422001 0.0065934933 0.080702946 -0.021396078 0.045634992 0.11591459 0.03323206
-0.03812338 -0.069513045 -0.01623193 -0.041756086 -0.07814943 -0.082556404 0.023421705 -0.13071609
-0.021344833 -0.067529865 -0.13369234 0.06603144 -0.06901068 0.0052497755 0.086003974 -0.0189279
0.011833354 -0.031509116 -0.104508735 0.017948894 0.03505171 0.084844425 -0.08583201 -0.09065032
-0.116227135 0.098084204 -0.007646527 -0.056380276 0.09492701 0.0074427268 0.094415285 0.0065653706
0.0703736 -0.01348035 0.011188641 -0.051439002 0.08665143 -0.024884488 0.100850455 -0.0556635
-0.049347896 0.01978858 -0.003620849 0.07620697 -0.054545872 0.096163094 -0.003537088 0.11834339
0.014282082 -0.016682273 0.033971727 0.11301409 0.0056438223 0.05742791 0.007372658 -0.003575656
0.084820084 -0.062106665 -0.050884634 -0.13295364 -0.08547674 -0.02449397 0.009292941 0.06219741
-0.0777673 -0.06936513 -0.08242633 -0.075981066 0.005905403 0.10333879 0.09878853 0.04563626

mlp.h1_weights.bias f4 [128]
00000000: 549a a93a 834f 833a 1ead 6a3a fb9e 48bb
00000010: 1c4a a83b 3c58 61bb 994e 543b 9868 8f3b
00000020: 3adf 1a3a 1f77 a43b 2370 e73a 3118 113b
00000030: 38df fe3b 7a22 cabb 2552 92bb 34cd cf3b
00000040: 8c25 6abb 1f5d 12bb 7397 93bb 3615 37bb
00000050: f3d1 e43a b155 a9b8 4dc7 383c 3e66 4c3b
00000060: c128 77bb a05f b33b 39f7 aa3b 757b 32bb
00000070: 74be 693c 2f45 483b d2ab e73b e47c 1eba
00000080: 3acb 533a 23d1 22b9 0809 923a 2a09 313c
00000090: 576a c73b 0000 0000 ef3c c23b 54e2 a93b
000000a0: 0297 553b 9d1f ccba 65ee a63b 7493 8b3b
000000b0: 0b23 c83b 4d34 ba3a c7d5 58bb 9b98 ba3b
000000c0: 68d1 8e3c 7686 553c 9f5e 803b 6a2b 2d3b
000000d0: 6728 64bb 7798 09bb a6d9 1b3b 13ab d8b9
000000e0: d56c 7bbb ce6e a4b8 ceb1 01ba 81f4 1b3c
000000f0: 1205 a239 5072 65bb f443 9dbb 4648 0e3b
00000100: 2f81 efba 02cd c83b fa1e 9a3b b378 003c
00000110: 0cf4 373c 8778 6cba 0e86 0f3b 9746 1a3c
00000120: 3f16 97ba 40ef c73b bb58 5bba 0000 0000
00000130: 93a2 303c 7aac 62bb 1fc0 e0bb e18a 8dbb
00000140: ad50 5eb9 51ec ad3b 4e7b 013c d680 c53b
00000150: 94d4 52bb 0000 0000 76e1 adb9 21ae 8a3b
00000160: d1d0 9fbb 160b 483c 27e0 69bb 544f 513a
00000170: 19fc 91b9 bc1a cf3b 021a 13bb 1066 5338
00000180: 9c7a 423c abd7 2f3b 0000 0000 06d3 15bb
00000190: 2fae d4ba a0fe f23b 81e1 7d3b 4ae5 e2bb
000001a0: 4d8f 243b 426a 2cbb f261 afba d9f6 e6bb
000001b0: bfaa d3b9 dfdb d23b b94c 673b 0000 0000
000001c0: 1ef2 e83b a702 253b 658f 8a3b e018 a13b
000001d0: 0000 0000 ac58 1f3c c0f5 42ba 82ef 5a3b
000001e0: 7a41 6ebb 85e6 9ebb eb38 86bb 3957 99bb
000001f0: 0000 0000 708d c83a 701d 673a 0329 81ba
0.001293967 0.0010018203 0.0008952188 -0.0030612338 0.0051357877 -0.0034384867 0.003239548 0.004376482
0.0005907897 0.005019083 0.0017657321 0.0022139663 0.0077780746 -0.0061686607 -0.004465359 0.006341601
-0.0035727946 -0.0022333337 -0.004504138 -0.0027936227 0.0017457589 -8.074509e-05 0.011277986 0.003118887
-0.00377135 0.005474046 0.0052174595 -0.002723423 0.014266599 0.0030558815 0.007070043 -0.0006045832
0.00080792943 -0.00015527433 0.0011141608 0.010805408 0.0060856747 0.0 0.005927674 0.005184451
0.0032591228 -0.0015573386 0.005094337 0.004259521 0.006107693 0.0014206261 -0.0033086406 0.0056944615
0.017433837 0.013032546 0.0039175297 0.0026423582 -0.003481412 -0.0020995417 0.0023780852 -0.0004132619
-0.003836443 -7.8407684e-05 -0.00049474544 0.0095187435 0.00030902826 -0.0035010763 -0.0047993604 0.0021710559
-0.0018272753 0.0061279545 0.0047033997 0.007841277 0.011227619 -0.00090206455 0.0021899971 0.009416244
-0.0011527016 0.006101519 -0.0008367409 0.0 0.010780948 -0.0034587667 -0.00685884 -0.004319534
-0.00021201624 0.005307712 0.007902933 0.0060273213 -0.0032170163 0.0 -0.00033165113 0.0042321836
-0.004877188 0.012209674 -0.0035686584 0.0007984538 -0.00027844383 0.0063203257 -0.0022445922 5.0401373e-05
0.011870053 0.002683143 0.0 -0.0022861375 -0.0016226227 0.0074156076 0.0038739147 -0.006924306
0.0025109828 -0.0026308452 -0.001338063 -0.0070484695 -0.00040372272 0.006434902 0.0035293533 0.0
0.0071089407 0.0025178583 0.0042285197 0.0049162954 0.0 0.009725731 -0.00074371323 0.0033406918
-0.0036354945 -0.0048492574 -0.0040961406 -0.004679587 0.0 0.0015300941 0.0008816337 -0.0009854141
