data/models/yeast_model.pth (torch, 698831 bytes, 15 tensors)

gnn.conv_params.0.weight f4 [32, 85]
000000 b1 ac 5a 3e ef 43 f8 bc e9 07 0d 3d a4 59 c2 bd
       0.21354939 -0.03030583 0.03443137 -0.09489754
000010 ba 1a d5 bd 24 0a 16 3e 0f aa 90 bd 02 8d 8b bd
       -0.10405488 0.14652306 -0.07063686 -0.068140045
000020 f0 27 8e 3d b1 85 4a be f6 27 ef 3d 37 fb 28 3e
       0.06941211 -0.19777562 0.11677544 0.16502081
000030 93 06 47 3e 60 e3 31 3c 13 ad 04 be 24 b2 1f 3e
       0.19436102 0.010857433 -0.12956648 0.15595299
000040 99 f2 09 3e ff 96 59 3e 23 27 33 be cb b4 04 be
       0.1347145 0.21249007 -0.17495398 -0.12959592
000050 25 f1 5d be e8 65 21 be 49 5d 52 3e 47 96 52 be
       -0.2167402 -0.1576153 0.20543398 -0.20565139
000060 16 e3 b8 3d 70 de 17 bd e9 6b 51 3e 93 77 64 3e
       0.09027688 -0.037077367 0.2045132 0.22311239
000070 b8 58 75 3d d8 50 b5 bd 1a 82 fe 3d 86 d8 e2 3d
       0.059899062 -0.0885331 0.12427159 0.11076455
000080 c2 18 9c bd 87 62 38 be 08 13 e5 3c ae 40 96 bd
       -0.0762191 -0.18006335 0.027963176 -0.073365554
000090 23 ff f3 bd f4 07 0a 3d 97 e1 2d 3e 61 a2 63 be
       -0.11913898 0.03369899 0.16980587 -0.22229911
0000a0 6f 2f 00 3e a8 3e d8 bc a0 ef 8d bc 21 fe 53 3e
       0.12518094 -0.026397064 -0.017326176 0.20702411
0000b0 6c 96 69 ba c7 61 ce bd c0 96 66 bd bc 26 5d bd
       -0.0008910659 -0.10077243 -0.05629611 -0.053992018
0000c0 2a db 2b be fc 22 24 be f2 e7 c2 3d 32 0d 49 be
       -0.16782823 -0.1602897 0.09516896 -0.1963394
0000d0 63 9a 5b bd 09 9a 21 3e 38 fb aa bc 2c e2 82 bd
       -0.05361403 0.15781416 -0.020871744 -0.06390795
0000e0 88 94 91 bd 30 19 60 bd 7f 79 29 be 8a 1f 59 be
       -0.07108408 -0.05471152 -0.16550253 -0.21203437
0000f0 c8 54 e4 bc 2c cb 41 3d 5b 89 1f 3e d0 f7 dc bc
       -0.027872458 0.0473129 0.1557974 -0.026973635
000100 50 c4 13 be 2e 01 cf 3d a5 01 59 be 2c b1 5a 3d
       -0.14430356 0.10107647 -0.21192034 0.05339162
000110 46 e3 f0 3d b8 36 0e bd 86 49 f1 3d 57 07 44 be
       0.11762099 -0.034720153 0.117816016 -0.19143425
000120 9a e0 b3 bd 36 59 dc 3d 5b d5 61 3e 84 cf 26 3e
       -0.08783074 0.10759203 0.22054045 0.16290098
000130 24 67 6f 3d 09 74 4b be 6c 1e 5b bd e8 8f 33 be
       0.058447972 -0.19868483 -0.05349581 -0.17535365
000140 93 b2 29 be 84 93 a5 bd de ba 84 bd d7 5f 41 3e
       -0.16572027 -0.08084777 -0.064809546 0.18884216
000150 1e 13 4a be 4f b5 0c 3e 2d 53 cc 3c 99 a4 5d be
       -0.19733855 0.13741039 0.024942005 -0.2164482
000160 a2 bd 4f bd 60 b6 2a be 7b f3 b0 3c 39 a4 b5 3d
       -0.050717957 -0.16671133 0.021600476 0.088692136
000170 f7 36 03 be e8 78 48 3e fc cd 03 be 5c 93 17 bd
       -0.12813936 0.19577372 -0.12871546 -0.037005767
000180 3d dd 5f 3c 75 78 15 be 40 29 2f bd 77 3e 06 be
       0.013663587 -0.14596732 -0.04276395 -0.13109766
000190 9a 01 83 3c 08 22 8a 3c 43 da 4f be 71 f3 3b 3e
       0.015991975 0.01686193 -0.20298104 0.18354584
0001a0 e9 f9 e8 3c e1 29 5a 3e f8 8f c8 3c b6 dc 9e bd
       0.028439479 0.21305038 0.024482712 -0.07756941
0001b0 ce 69 8b bd 20 1a de bc 10 d9 43 bd 34 56 66 3d
       -0.0680729 -0.027112067 -0.04781443 0.056234553
0001c0 12 04 48 bd 74 4c ef bd d6 7e 9d 3d 67 7c 65 3e
       -0.048832007 -0.11684504 0.07690208 0.22410737
0001d0 40 3f ff bc 1c 27 5d 3d af b0 1a be 6d 3b 19 be
       -0.03115809 0.053992376 -0.15106462 -0.14964075
0001e0 ab f4 65 be ca 96 e9 bd fa 17 ef 3d 52 28 49 3e
       -0.22456615 -0.11405714 0.11674495 0.19644287
0001f0 ed 40 56 3e b8 86 d5 3c fa bc eb bd 60 ac 5b bc
       0.20923205 0.026065215 -0.11510654 -0.013407797
000200 62 d0 b7 3d f0 67 ed 3d cd b1 7c bd 74 03 1e bd
       0.08975293 0.1159209 -0.061693 -0.038577512
000210 8e 22 4a be 4e a9 a4 3d 98 b3 e4 3c 5d fd 21 be
       -0.19739744 0.08040105 0.027917668 -0.15819307
000220 04 cd 07 3d 25 a7 21 3d ec 52 22 be c1 df 61 3e
       0.033154503 0.039466042 -0.15851945 0.22058012
000230 3f 27 01 be 4e 1c e1 3d 88 dd 96 bd e5 71 14 be
       -0.12612627 0.10991727 -0.073664725 -0.14496572
000240 24 fd 91 bd 00 64 d8 b9 8c ca 36 bd 7a b0 f3 3d
       -0.07128361 -0.00041273236 -0.044626758 0.118988946
000250 40 4a 4e be 2e 2a 05 be a4 4b 4f bd ce ef 32 be
       -0.20145512 -0.13004372 -0.050609246 -0.1747429
000260 2b 50 f5 bd 49 3c 4a be a6 76 e4 3d 74 d8 e6 bd
       -0.119781815 -0.1974956 0.11155443 -0.11271754
000270 49 48 07 3e 47 95 46 3e 18 69 17 be 79 3a 38 3e
       0.13211168 0.19392882 -0.14786184 0.17991056
000280 a1 d0 a8 bc 49 be 5f 3e 8e b1 ba 3d 62 70 f9 3d
       -0.020607295 0.21849932 0.09115897 0.121796384
000290 24 47 39 bd d4 8d 55 3d b0 76 84 bc 32 97 85 3d
       -0.04523386 0.05213721 -0.016169876 0.06522979
0002a0 0c 87 11 3d 76 b6 27 be ef 03 56 3e 6e 9d cd bd
       0.03552918 -0.16378197 0.20899938 -0.10039793
0002b0 8b 50 a5 3e fd 83 f5 bd 4f 67 4b 3d 83 25 0e 3e
       0.32288012 -0.119880654 0.04965907 0.13881497
0002c0 89 ed 3f be 3c 19 1e be d4 6d 4e 3e fa ca ed bd
       -0.18742956 -0.15439314 0.20159084 -0.1161098
0002d0 4f bc 0e 3e 45 d9 f6 3d 7c c1 25 be 2c 7f 0d be
       0.13939022 0.120531596 -0.1618709 -0.13818043
0002e0 09 d0 66 be ae cc 6d bd 3a d7 b6 bd 31 56 0d 3e
       -0.22540297 -0.058056526 -0.0892777 0.1380241
0002f0 8b 38 3d be f8 38 7e be 04 82 05 3d fe 3a 8b bd
       -0.184786 -0.2482642 0.032594696 -0.06798361
000300 65 d9 2c 3e 91 47 2f 3e 4c f2 50 3d 7a bd c1 3d
       0.16879804 0.17117144 0.051012322 0.09459968
000310 47 02 5e 3e 30 bc 55 3d bd 0d 1c 3e 8b 2f 46 3e
       0.21680556 0.052181423 0.15239616 0.19354074
000320 aa d0 5f be 85 51 18 3e 94 89 0f 3e 07 c6 b8 bc
       -0.21856943 0.14874847 0.14017326 -0.022555364
000330 e2 e7 ac 3d cf 16 3e 3e 86 12 89 bd 5c ea 33 be
       0.08442666 0.18563388 -0.06692986 -0.1756987
000340 e6 6a c3 3c 6b 75 52 3e 0e 37 e9 3d 8c cd 6d bd
       0.023854684 0.20552604 0.11387454 -0.058057353
000350 60 c7 24 bd 14 9d 42 3d db b5 c7 ba 52 92 83 3d
       -0.0402292 0.047513083 -0.0015236692 0.06424393
000360 ce f8 97 3d b4 b5 1e 3d b8 16 aa bd bd 71 20 be
       0.074205026 0.038747504 -0.083051145 -0.15668388
000370 f4 cd 8f bd 3b 8f 66 3e 1b a5 8d 3c 46 d4 86 bd
       -0.07021704 0.22515576 0.017290642 -0.06583457
000380 3e 08 97 bd 79 9c df bd 2e 07 c8 3d a9 f2 14 be
       -0.07374619 -0.10918517 0.097669944 -0.14545693
000390 88 4b 54 3d f7 a3 20 3e 6e 3b 1e be 5b ce 67 3e
       0.051829845 0.15687548 -0.15452358 0.22637312
0003a0 64 79 3d be a1 4d 45 3e c1 c4 08 3e 00 a1 75 3c
       -0.18503338 0.19267894 0.13356306 0.014991999
0003b0 55 05 36 be 41 0f 04 bd d2 47 81 bd 04 5a 04 3d
       -0.17775472 -0.03224111 -0.06312527 0.032312408
0003c0 37 b7 62 3e dd 1c 66 3e c7 6c 24 3e 2e ae 12 be
       0.22140203 0.22471948 0.1605712 -0.14324257
0003d0 35 d4 50 3e cf 6e 0d 3e fe 36 e6 bd ca 73 96 3d
       0.2039345 0.13811801 -0.11240958 0.07346304
0003e0 60 bf 1a be a8 26 18 be c0 40 5f 3b e6 6f ee 3d
       -0.15112066 -0.14858496 0.0034065694 0.11642437
0003f0 33 7a 2e be 40 b5 5a bb 54 1c 20 3d db 92 35 bd
       -0.17038803 -0.0033372194 0.039089516 -0.044329505

gnn.conv_params.0.bias f4 [32]
000000 d6 97 98 bc 8c a1 b3 bc ef 5c 9d 3c 8b 30 d8 3c
       -0.018627089 -0.021927617 0.019209353 0.026390335
000010 a0 6c d7 3c d5 94 10 3c a3 02 fc 3c f2 0e a6 bc
       0.026296914 0.008824547 0.030762976 -0.020270798
000020 c7 00 b0 3c e2 f7 ea 3c 5b ba 07 3d 0a fe c5 3c
       0.021484746 0.028682653 0.033136707 0.024168987
000030 81 2f 93 3c 04 ed 77 bc e8 29 92 bb bc 74 ad 3c
       0.017966988 -0.0151321925 -0.004460562 0.021173827
000040 b9 94 8f 3c f4 69 80 3c ae 02 64 3c 3f 89 fd bc
       0.017526971 0.015675522 0.0139166545 -0.030949233
000050 bc 77 a1 3c 8d 34 d8 3c 0f 44 bc bc bb f9 d4 3c
       0.019710414 0.026392246 -0.022981672 0.025997987
000060 d9 fa b4 3c 3e 19 ed bc 41 dc e1 bc 66 ae 8b 3c
       0.02209227 -0.0289427 -0.027570846 0.017050933
000070 55 ae c9 3c 9c 87 8e bb 20 24 b1 bc b7 be 90 bc
       0.02461926 -0.004349662 -0.021623671 -0.017669065

gnn.conv_params.1.weight f4 [32, 32]
000000 ed d3 75 be 83 09 89 be 06 f9 a1 bc b4 a3 9d bd
       -0.24006625 -0.2676507 -0.019772064 -0.076972395
000010 12 d5 77 3d 3b b9 27 3e 9c 1f da 3d 1d 9a 52 3d
       0.060505934 0.16379254 0.1065056 0.051416505
000020 a5 77 91 3d 32 a3 ff bd d0 41 99 be 6b d1 ac bd
       0.071028985 -0.12482299 -0.29933023 -0.08438381
000030 0a b6 90 be 8f 27 72 3d 07 38 e9 3c de 46 81 3e
       -0.28263885 0.059119757 0.028469099 0.2524938
000040 e9 39 8e 3e f3 20 b8 3c b9 51 81 3e 7b ea 8c 3d
       0.27778557 0.022476649 0.25257662 0.06880661
000050 e7 02 f8 3d fe 3a 1a 3e 19 86 43 3e 0d a8 55 be
       0.121099286 0.15061566 0.19094123 -0.20864888
000060 3b 45 59 be cc cc a6 3e bc 22 59 3e 80 11 a2 b8
       -0.21217816 0.32578123 0.21204656 -7.7280216e-05
000070 53 f0 09 be f1 21 6c be d4 66 47 3d a6 4c db 3d
       -0.13470583 -0.23059823 0.04868205 0.10707979
000080 3f e9 cb bc 68 ee 17 be 52 d2 44 3e 10 d3 a5 3d
       -0.024891494 -0.14837039 0.19220856 0.080968976
000090 e5 14 5d 3d c5 e1 f3 3d 53 95 8c 3e 36 e7 7e be
       0.053975005 0.119082965 0.27457675 -0.24892887
0000a0 99 13 51 3e 84 1e 39 3e f8 c6 44 bd cf 66 02 be
       0.20417632 0.18078047 -0.048041314 -0.12734531
0000b0 30 16 08 3e 22 ad 43 be 24 06 00 3e 5d 1d 6b be
       0.13289714 -0.19109014 0.12502342 -0.2296042
0000c0 f8 fc c7 3d ed 8a 5c 3e 71 cf 49 be 9c db 20 be
       0.09765047 0.21537371 -0.19708039 -0.15708774
0000d0 b3 74 02 3e fc 7f ef bd 2d a5 2d 3e 12 d5 27 bb
       0.1273983 -0.11694333 0.16957541 -0.0025609178
0000e0 87 1a 52 bd d2 b1 6f 3e 47 39 ce bd e1 3f e2 3c
       -0.05129483 0.23407677 -0.100695185 0.02761835
0000f0 2d d7 2e 3d 45 b5 8d be 68 f7 83 3e 03 a2 77 3e
       0.042685676 -0.2767736 0.25774693 0.24182896
000100 56 6c 6b 3c 2c 4e 78 3e 21 3d 5e be eb c2 24 be
       0.014369091 0.2424857 -0.21703006 -0.1608998
000110 57 a0 e5 3d 95 7b 00 be 07 b2 c8 3b d3 31 9a 3e
       0.11212223 -0.12547143 0.006124738 0.30116138
000120 f0 6e 94 be 11 ea 46 3e 7e 59 b4 bd 81 f6 96 be
       -0.2899089 0.19425227 -0.08806132 -0.29484943
000130 c5 0c 81 be ce 8c ea 3d 9f b5 c4 bc 39 da 81 be
       -0.25205055 0.114526376 -0.024012385 -0.25361803
000140 04 d3 5b be 06 47 ec bd b7 e6 20 be fe 40 41 bb
       -0.21467215 -0.11536984 -0.1571301 -0.0029488201
000150 3c e7 4d 3e 38 97 62 3d 00 f2 7b bd 73 9e 50 bc
       0.2010774 0.055319995 -0.061510086 -0.01273309
000160 4d 05 27 bd a1 cd cc bd 91 7b 50 3a 43 ac 46 3e
       -0.04077654 -0.10000158 0.0007952983 0.1940165
000170 9c 3b 9d be 13 c3 62 3d e3 89 01 bd f2 86 20 3e
       -0.3070954 0.05536182 -0.03162564 0.15676478
000180 17 fc b8 3d 2c 2b 17 be 93 e5 7a bd a2 35 6c 3e
       0.09032457 -0.14762563 -0.061254095 0.23067334
000190 48 93 27 be d8 f1 84 3e d0 80 eb bb 67 60 c3 3d
       -0.16364777 0.25965762 -0.0071869865 0.09539872
0001a0 2a 87 57 3e 9b 1c 14 3e 92 42 3a 3e 26 ef 61 be
       0.21047655 0.14464037 0.18189457 -0.22063884
0001b0 0f 1f 5c be c3 82 94 be 40 92 38 3e d4 84 f9 3d
       -0.21496223 -0.29006013 0.1802454 0.12183538
0001c0 e0 5c 91 be 2e 1e 80 3e bc 21 97 3e 5e 0a 9f 3e
       -0.2839117 0.25023025 0.29517925 0.31062597
0001d0 cb ab a5 bd 9d 03 82 be b3 67 90 be 02 73 93 be
       -0.080894075 -0.25393382 -0.28204116 -0.28798681
0001e0 f3 c2 85 3d 09 54 ba bd 58 d2 82 3d 99 38 20 be
       0.06531324 -0.0909806 0.06387776 -0.1564659
0001f0 08 15 7a 3e ba 82 a7 bb d2 22 87 3c 25 d2 8e be
       0.24422085 -0.0051120194 0.016496096 -0.27894703
000200 78 c7 15 3d e3 75 91 3d 43 96 90 bc bf 1b 46 be
       0.03656718 0.07102563 -0.017649775 -0.19346522
000210 dd c0 b7 bd ee 21 ab 3e 37 de 92 3d cd 68 99 3e
       -0.089723326 0.33424324 0.0717129 0.2996277
000220 6f 0d f3 3d 1a 82 27 be 70 7b 82 3e 1d 38 8f bd
       0.11867797 -0.16358224 0.254848 -0.06993125
000230 d7 45 4d be 93 15 26 be ab 6f 3b bd ed e1 82 be
       -0.20046173 -0.16219167 -0.04576079 -0.25562993
000240 28 6a 6e bd c3 38 31 be 8f 64 32 3e 2f 1f ac 3e
       -0.058206707 -0.17306809 0.17421173 0.3361754
000250 14 a6 0f 3e d1 75 ff bc d7 5a 6a 3e 74 12 9d be
       0.14028198 -0.031184109 0.22886215 -0.3067814
000260 e4 36 4c 3d 43 ea 0f 3c 95 49 dd 3d 5d d6 2d bd
       0.049857035 0.00878388 0.1080505 -0.04244076
000270 a4 e0 4c 3e 17 a1 bd 3c d7 66 27 3e 94 04 23 ba
       0.20007569 0.023148103 0.16347824 -0.0006218639
000280 24 c4 1f 3e 56 bd 08 3e e2 03 2a 3e 7e 8b 86 3d
       0.15602165 0.13353476 0.16603044 0.06569575
000290 98 3b 66 be 9f ef 37 be d9 32 74 3c b7 c8 3f 3e
       -0.2248367 -0.17962502 0.014904701 0.1872891
0002a0 74 16 99 be 1e 9c 24 be a2 c0 4b 3e c3 f3 d1 3d
       -0.29899943 -0.16075179 0.19897702 0.10251572
0002b0 f0 32 59 bd 5f 76 9b be d8 66 b5 3d fd 62 b1 bd
       -0.053027093 -0.30363747 0.088575065 -0.08661459
0002c0 4a c4 07 3e 10 ee 9b 3e ff 1e 93 3d 91 ba 04 3e
       0.13258472 0.30455065 0.071836464 0.12961794
0002d0 d0 94 95 3e 15 97 ae bd ee 89 78 3d 05 fa 68 bc
       0.29215097 -0.0852491 0.060678415 -0.014219766
0002e0 e6 40 46 3e 66 71 58 3d da d3 fb bb 1c 37 01 3e
       0.19360694 0.05284252 -0.007685167 0.12618679
0002f0 45 18 4f 3c 79 bb 4e be fa 34 cb 3d c9 ba 8f be
       0.012640064 -0.20188703 0.09922214 -0.28072193
000300 14 e2 85 3e 3d c7 3f be a7 05 ee bc 50 3d 53 be
       0.26149046 -0.18728347 -0.02905543 -0.20628858
000310 7e f6 a1 3d 8a a4 56 be 4c c8 4a 3d 5f 88 3e 3e
       0.07908343 -0.20961204 0.049507424 0.18606709
000320 bb f4 80 be 2e 6a fa bd c2 46 62 3e f1 7a 07 3e
       -0.25186715 -0.122272834 0.22097304 0.13230492
000330 dc 5f 3d 3e 66 ea 14 3d 3d ff ee 3c a8 b1 26 be
       0.18493599 0.036356352 0.029174441 -0.16278708
000340 8c d9 cb bd d5 97 83 be 42 bb 7a 3e d5 b3 d9 3d
       -0.09953603 -0.25701776 0.24485496 0.10630003
000350 f2 96 78 bd b7 87 57 be 56 1d 2d 3c 75 5a 34 3d
       -0.060690828 -0.21047865 0.010566076 0.04403158
000360 fc 9d 4d 3b d3 cb 29 3e 19 06 21 be 93 4d a5 bd
       0.0031374684 0.16581659 -0.15724982 -0.08071437
000370 fb ff 30 be 6c 00 6f 3e 5e 53 9e 3e b4 ae a4 bd
       -0.17285149 0.23340005 0.3092298 -0.080411345
000380 3c 75 99 3d 11 4c 16 3e 00 ae 93 3e 33 f2 68 3e
       0.07493064 0.14677455 0.2884369 0.22748642
000390 33 f0 e5 bd 6a 54 80 be 0b 33 8c 3e 4c de 43 3e
       -0.11227455 -0.25064403 0.27382693 0.19127768
0003a0 2d 49 7f be 8f 6b 82 3d b4 b7 49 3e 39 41 58 be
       -0.24930258 0.063681714 0.19698983 -0.2111863
0003b0 cd eb 6d be f9 a7 9b bd d0 c3 db 3d 04 9b d1 3b
       -0.23234482 -0.076003976 0.10730708 0.006396653
0003c0 9c 92 24 3e 48 a0 96 be db ea f2 bd 85 c0 77 bd
       0.16071552 -0.2941916 -0.118612014 -0.060486335
0003d0 a6 ba 3a 3e 39 91 87 be af fe 64 be e1 f3 46 3e
       0.18235263 -0.26477984 -0.22362779 0.1942897
0003e0 af e3 a0 be 9c 9f 9b bd f7 24 47 3e cf e1 42 3d
       -0.3142371 -0.075988024 0.19447695 0.04757863
0003f0 54 39 e2 3b de 84 9a bd b6 7a 92 3e 37 f1 4a 3d
       0.0069038067 -0.07544874 0.28609246 0.049546447

gnn.conv_params.1.bias f4 [32]
000000 ab 1b c3 bb a1 2d d2 3c 8a c1 83 bc 7b 99 8e bc
       -0.005954226 0.025656523 -0.016083498 -0.01740717
000010 50 61 2e bd 12 55 80 3c de 31 20 bd 07 73 df 3a
       -0.042573273 0.015665565 -0.039110057 0.0017047831
000020 10 20 7f 3c af 69 d7 3c c6 e1 e9 bc 25 44 04 bc
       0.015571609 0.026295511 -0.02855004 -0.008072888
000030 54 52 b0 3c da ac bf 3c 2e d3 06 bd b8 05 0e bd
       0.021523632 0.023397852 -0.03291624 -0.034673423
000040 1f 9c 22 bc a9 b0 ec 3c ea 33 08 3d b1 80 f1 bc
       -0.0099249175 0.028892832 0.033252634 -0.02948031
000050 1a 2f e6 3c af 9d fa bc 51 cf d8 3c 36 c5 09 3d
       0.028098632 -0.030592768 0.026466044 0.03363534
000060 b9 41 d0 3c b0 a1 98 3c 89 2f 9c 3c 33 3a 60 3c
       0.025421964 0.018631786 0.019065635 0.013685751
000070 89 bf 8d 3c d4 f9 cf bc 7a 4a af bc b6 cb 1a bc
       0.017303245 -0.025387682 -0.021397818 -0.009447983

gnn.conv_params.2.weight f4 [32, 32]
000000 7f 8f 27 3e 87 e1 69 bd 98 45 8c be 7a 0d f0 3c
       0.16363333 -0.057099845 -0.27396846 0.029303301
000010 e9 f3 43 bd 68 7a 94 be c7 ae a8 bd de 47 7d be
       -0.047840033 -0.2899964 -0.08236461 -0.24734446
000020 fb f9 14 3e c9 ca 9d 3d 65 3b 46 3e 87 a3 09 3e
       0.14548485 0.07704694 0.19358595 0.13441287
000030 92 36 83 3e 78 d0 48 3e 92 77 b2 3c 49 70 0a 3e
       0.2562757 0.19610775 0.021785531 0.13519396
000040 3c ae 8a be 37 9e 19 3e 17 d9 fd 3d 4b 06 7d 3e
       -0.27086055 0.1500176 0.12394922 0.24709432
000050 37 56 98 3d e6 8e d9 bd 9a 39 12 be 3b 32 29 3e
       0.07438319 -0.10622959 -0.14279786 0.16523068
000060 41 3c 02 be ef 61 65 3e fa 0c b5 3d 83 a0 a8 3d
       -0.12718298 0.2240064 0.08840366 0.0823374
000070 1c c7 9c 3e e8 df 39 bd 60 2a a8 bd 9f 5f 7a 3e
       0.30620658 -0.04537955 -0.082112074 0.24450539
000080 8b 13 0a 3d 48 e5 f0 bd 2c 3a 90 bc 29 04 90 be
       0.033710044 -0.11762482 -0.017605864 -0.28128174
000090 b7 bc 88 3e e7 a3 fe 3d 2f 42 96 be 92 8a 0e 3e
       0.26706478 0.12433606 -0.2934737 0.13920048
0000a0 44 36 20 3d ac ed 8e bd 73 82 62 be 22 6f 9e be
       0.03911425 -0.06978926 -0.22120075 -0.30944163
0000b0 ca b1 eb 3d 1d fc 95 3e 2b 2f 10 be 2d ee 63 be
       0.1150852 0.2929391 -0.14080493 -0.22258826
0000c0 66 7b 6d be 93 c0 70 3e 92 4e 98 3c 91 ec 56 3e
       -0.23191604 0.23510961 0.018592153 0.2098868
0000d0 51 78 96 3e 34 fa 5c be 00 dc e6 3d 3b fe 19 3e
       0.2938867 -0.2157982 0.112724304 0.15038387
0000e0 bb 3f 4f 3e 4e 06 41 3e 29 f2 45 3e 66 b3 4d 3e
       0.20239155 0.18850061 0.19330658 0.20087966
0000f0 1e eb e5 3d ff b2 02 be ce b2 31 bd bc fe 94 3e
       0.11226486 -0.12763594 -0.043383412 0.29100597
000100 4a 94 5c 3e 75 01 74 bd 51 ca 31 bd 78 95 84 be
       0.21540943 -0.059571702 -0.043405835 -0.25895286
000110 9c 75 70 3e 0d 59 32 be 03 fd 4e 3c e2 ec 08 be
       0.23482364 -0.17416783 0.012633565 -0.13371614
000120 87 7c 56 3e 6c 0f 22 be e6 ce 94 3e 2a eb 81 3e
       0.20945941 -0.15826195 0.290641 0.25374728
000130 f2 99 ee 3d 6c 8c 92 be 76 39 4c 3e 67 6c 9c bd
       0.116504565 -0.28622758 0.19943795 -0.076378636
000140 bd a6 99 bd fa 43 24 be 66 59 3e 3e c8 ff 19 3e
       -0.07502506 -0.16041556 0.1858879 0.15038979
000150 11 16 b2 3d 84 6a 9b 3e 32 2a 5b be 34 23 9a bc
       0.08695615 0.30354702 -0.21402815 -0.018815614
000160 a6 7b ca 3d d0 c3 14 3e 8e ee bf 3d 7b d8 a6 be
       0.09886865 0.14527822 0.093716726 -0.32587036
000170 ee 49 be 3d 9e 1e ae bb 04 7b 54 3e 13 db 96 3d
       0.09291445 -0.0053137084 0.20750052 0.07366004
000180 b8 26 ab 3e 6d 50 4b 3d 92 17 c5 bb 03 29 be bb
       0.33427978 0.049637247 -0.0060147727 -0.005803229
000190 80 27 95 3e 45 f7 49 be 16 9b 45 3e ec 8a c1 3c
       0.291317 -0.19723232 0.19297442 0.023625813
0001a0 4f 54 6d 3e 35 a9 83 be c6 9f 8a 3e 13 68 06 be
       0.23176692 -0.25715032 0.27075022 -0.13125639
0001b0 e6 a5 66 3d a2 fb 27 be f6 78 b4 3e e6 48 8b 3e
       0.056310557 -0.16404584 0.35248536 0.27204055
0001c0 b8 ca 84 be c0 71 99 be 70 bd 20 be 24 5a 67 bd
       -0.25935912 -0.29969597 -0.15697265 -0.05648245
0001d0 f4 ff 8d be 89 f7 5d 3d ae f1 65 bd 29 0a 80 bd
       -0.2773434 0.054191146 -0.056138687 -0.06251938
0001e0 81 7b 2b be cc 7d 08 3d b3 ee 84 3e 33 61 36 3e
       -0.16746332 0.033323094 0.25963363 0.17810516
0001f0 13 28 25 3e 0d 4e db 3d 96 1f 06 be f6 46 45 3e
       0.16128568 0.107082464 -0.13097987 0.1926535
000200 31 56 4e 3e a7 28 8a be 64 83 4c 3e 8d c1 8b bd
       0.20150067 -0.2698414 0.19971997 -0.06824026
000210 aa b9 84 be a0 b0 69 be bb 05 81 3d e1 8f c1 3b
       -0.259229 -0.22821283 0.06299921 0.0059070443
000220 6e 68 42 be ec 34 ce bd d5 35 52 3e 07 9f a8 bd
       -0.1898515 -0.10068688 0.20528348 -0.08233457
000230 6e 7e 98 3e e5 16 ae 3d 59 f8 bc 3d c9 46 30 3e
       0.29783958 0.085004605 0.09227056 0.17214502
000240 8c 51 8d 3e 9c 3a 77 3d f2 9e cb bd b9 f7 a3 3e
       0.27601278 0.06035863 -0.09942426 0.32024935
000250 1d 42 20 3c 4e fd 07 3d 8f ce 34 be 39 cf 79 be
       0.009781388 0.033200555 -0.17656921 -0.24395455
000260 e6 c5 67 be c1 1f 72 3e 2b 7a 9a be 55 41 83 be
       -0.22634086 0.23644926 -0.30171332 -0.25635782
000270 9c 61 6f 3e ae 4f 7a 3e 67 21 dd bc d7 cf f6 bd
       0.23377079 0.24444458 -0.026993467 -0.12051361
000280 85 6b 4a 3e 50 77 80 be 39 a2 49 3e ac 80 33 be
       0.19767578 -0.25091028 0.1969079 -0.17529553
000290 7c ab 1f 3e c8 e9 60 be 87 52 10 3e e9 f8 6b bd
       0.1559276 -0.2196418 0.14093982 -0.057610426
0002a0 83 07 f3 bd e7 44 59 be a1 b0 56 3e c7 aa 13 be
       -0.11866667 -0.2121769 0.20965816 -0.14420615
0002b0 aa ca 04 be 90 11 ca bd 0e eb 12 3e 38 bd 55 3e
       -0.12967935 -0.09866631 0.14347479 0.20872962
0002c0 cc e7 6f 3e 42 3c 84 be eb c6 d2 3d c4 62 69 3c
       0.23428267 -0.25827223 0.10291847 0.014244739
0002d0 c8 bb 1c be 39 eb 85 be e1 fa aa be 93 6b c6 3d
       -0.15306008 -0.26156023 -0.3339453 0.09688487
0002e0 39 dc 5c be 1f 58 ec 3d bc e4 3f be 5f 06 84 3e
       -0.21568383 0.11540245 -0.18739599 0.2578611
0002f0 9f ec a0 be c9 ac c0 3c ba 03 4f be 18 68 8e be
       -0.31430528 0.02351989 -0.20216265 -0.27813792
000300 db 64 96 bd 1b a3 5d be 76 d8 82 3e 96 e5 15 bd
       -0.073434554 -0.21644251 0.25555772 -0.036595903
000310 63 1f 88 be c7 96 5b 3e f7 dd c6 3d b1 b8 1b bd
       -0.26586446 0.21444236 0.09710305 -0.038017932
000320 8e 98 00 be aa 92 1c bd ee 0d 5b be 99 0a 8f be
       -0.12558195 -0.038225807 -0.21392033 -0.27937773
000330 7a 98 9a 3e 9a 55 54 3e 8b c8 85 3c 00 e8 99 3e
       0.30194455 0.2073578 0.016330978 0.30059814
000340 ad b6 ca bd d4 30 30 be 82 34 26 3e 34 05 d2 bd
       -0.09898124 -0.17206126 0.16230968 -0.10254899
000350 cd 32 f5 3a ee 04 49 3e 08 18 94 be 9b 78 b0 3d
       0.0018707156 0.19630787 -0.28924584 0.08616754
000360 50 28 6c 3e 5a ad 89 3d b6 0d 01 be 00 ea c6 bd
       0.23062253 0.06722517 -0.12602887 -0.09712601
000370 d4 ed 92 3e a0 77 d4 3d c2 df 88 3e 18 d3 3b 3e
       0.28697073 0.10374379 0.26733214 0.18342245
000380 c8 77 30 be aa 11 0a 3c 5c 08 de 3d d0 e2 5c 3e
       -0.17233193 0.008427063 0.10841438 0.21570897
000390 77 f4 95 3d 6f ac 8b 3e ab ab a2 bd 4f b7 7d bd
       0.073220186 0.27279994 -0.07942899 -0.061942395
0003a0 1a 6f 43 3e dc c4 f2 3d 72 28 a5 3e 83 c5 48 be
       0.1908535 0.11853954 0.3225742 -0.19606595
0003b0 a4 5c 51 3d da 77 8c be 48 54 1d 3e 1e 5b 13 be
       0.05111374 -0.2743519 0.15364182 -0.14390227
0003c0 9a ed 0c 3d ba 7c 58 bd 09 84 6e be 2f 6d ed bc
       0.034406282 -0.052853324 -0.23292555 -0.028982727
0003d0 79 46 07 3e 49 90 cc 3d 4b b5 75 3e 80 e2 85 be
       0.13210477 0.09988458 0.23994939 -0.26149368
0003e0 c6 28 8c bc 66 5f bf bd 97 06 85 bc be c0 43 3d
       -0.017109286 -0.09344368 -0.016238494 0.047791235
0003f0 5e 8a 4c be fa 98 36 3e 94 a8 7b 3e c0 47 8c be
       -0.19974658 0.17831793 0.24576026 -0.2739849

gnn.conv_params.2.bias f4 [32]
000000 03 db 2a 3c 33 14 7a 3c 67 4a cc bc a4 a3 98 bc
       0.010428193 0.015263605 -0.024937822 -0.018632717
000010 2a fd db bc d4 4b 50 bc e6 53 57 3b 68 54 98 bc
       -0.026854116 -0.012713391 0.0032856404 -0.018594936
000020 bc e2 b3 3c 07 f6 82 bc 05 94 1f bc ec 40 a5 3b
       0.021958701 -0.015986456 -0.00973988 0.0050431397
000030 b0 55 7b bc 03 5c 49 3c fe 66 a0 bc 15 82 97 3c
       -0.015340254 0.012290004 -0.01958036 0.018494645
000040 bd b4 02 bb f4 70 3f bc b5 67 ad 3c b9 c6 20 3c
       -0.0019944154 -0.011684645 0.021167615 0.009813004
000050 38 ec 93 3c 4d 6e c6 bc 41 45 15 bc 94 72 db 3c
       0.018056974 -0.024222517 -0.00911075 0.026788034
000060 59 c7 3c bb e3 23 d6 3c 6e e0 53 bb af 66 50 39
       -0.0028805344 0.026140159 -0.0032329815 0.00019874678
000070 ec 2d 26 3c 04 59 95 bc 99 87 63 ba 2c 5f db bb
       0.010142785 -0.018230923 -0.00086795684 -0.006694695

gnn.conv_params.3.weight f4 [1, 32]
000000 4a 8b cc 3b 62 cc 4b 3e 12 d8 95 3d 54 16 42 3e
       0.0062421905 0.19902185 0.07316603 0.1895383
000010 b3 ca 3f be 00 d9 23 3e a9 ec 51 be 18 9b c6 3d
       -0.18729667 0.16000748 -0.20500435 0.096975505
000020 ff 5a d3 be 55 7a 3b 3d 7b c3 5c bd 3f 0c 4e be
       -0.41280362 0.04577096 -0.053897362 -0.20121859
000030 c0 18 cd be 20 a3 c4 3e 4c e1 ab 3e 7b f3 b8 3e
       -0.40057945 0.38405704 0.33570325 0.3612326
000040 e4 69 28 bd b2 57 68 3e dc cf 82 3e 9d 27 a4 be
       -0.04111661 0.22689703 0.2554921 -0.32061473
000050 62 74 ce 3d 64 0a bf be e6 f8 2e be 73 1a cd 3e
       0.10080792 -0.37312615 -0.17087135 0.40059242
000060 9e c0 87 bc 3c c6 76 3e 1b 7a be be ef 12 15 bd
       -0.01657134 0.24099058 -0.37202534 -0.03639501
000070 44 1e a1 be e1 40 c7 3e 70 30 24 be 31 4d 8a 3d
       -0.31468403 0.38916686 -0.16034102 0.06753004

gnn.conv1d_params1.weight f4 [16, 1, 97]
000000 ee 8c 85 3d 6d b7 28 39 fe f9 29 3d 1a 4b 9c bc
       0.06521021 0.0001609006 0.041498177 -0.01907878
000010 f4 06 ea 3c 5f 8c 03 3d 9b 8b 98 3d 36 ab aa bd
       0.028567769 0.03211629 0.07448503 -0.08333437
000020 72 0f fe bc 29 a4 4d 3d a0 ee 33 bd fe 1f 92 bd
       -0.031013224 0.050205383 -0.043928742 -0.07135008
000030 cd 13 89 3d 04 19 47 3d 8b fd c9 3d d8 a7 31 3d
       0.0669323 0.04860784 0.098628126 0.04337296
000040 cf c8 f4 bc 53 55 9e bd a7 18 8c bd 7e f2 e7 3c
       -0.02988091 -0.07731118 -0.068406396 0.028313871
000050 8f 85 84 bc c6 14 d0 3d d3 fc 83 3d 79 93 8d 3b
       -0.016176967 0.10160212 0.06444707 0.0043205586
000060 66 4b d2 3d 8e fa 22 3c ad a5 bf 3c bd 1b cc 3d
       0.10268287 0.009947432 0.02339443 0.09966228
000070 63 ba 82 bc 0d 1e 17 3d 18 e0 09 bc 06 b8 bb 3d
       -0.015958017 0.036893893 -0.0084152445 0.09165959
000080 cb 5b 7d 3d 2d 40 1b bd f8 bd b7 bd 42 c5 80 3c
       0.06185512 -0.037903 -0.089717805 0.01571906
000090 91 2c 43 bb 9a 2c 36 3d 82 27 27 3d bb 65 c8 bd
       -0.0029781202 0.04447613 0.040809162 -0.097850285
0000a0 57 dc a6 bd 41 bd b2 bc 24 43 b3 bd d8 31 16 3c
       -0.08147495 -0.021818759 -0.087530404 0.009167157
0000b0 ab 60 7f 3d f2 ba d7 3d 4a bb e1 bb 19 71 91 bd
       0.06234805 0.10533704 -0.0068887817 -0.0710165
0000c0 12 c1 90 3d 40 2a 87 bd f2 a5 95 3d a9 7e 24 bd
       0.07068075 -0.065998554 0.07307042 -0.040159855
0000d0 7a 77 5b bd 77 a8 7f 3d 6b 51 f3 3c 46 ba df bc
       -0.05358074 0.06241652 0.029701909 -0.027310502
0000e0 b0 43 7e 3d b1 59 c2 bd 16 2f 18 bd 70 b7 7f bd
       0.06207627 -0.094897635 -0.03715428 -0.0624308
0000f0 3d a6 95 bd ef 25 bd bd 30 6d 73 bd 65 40 f1 3c
       -0.07307098 -0.09235751 -0.0594303 0.029449651
000100 9a 38 54 bd 4c b8 aa 3d 44 fb ac bc f9 80 b3 3c
       -0.051811792 0.08335933 -0.021115907 0.021912085
000110 b7 13 a6 3d d3 97 c0 3c 12 fc 81 bd 8c 5d 85 bc
       0.08109229 0.023509895 -0.06346907 -0.016279958
000120 fa 4e 20 bc ed 34 2c bd 84 fc 89 3c 10 a0 98 bd
       -0.0097844545 -0.04204266 0.016844042 -0.074524045
000130 1e c4 d9 3c 19 1b 99 bd b0 41 9a 3d 65 ae 4c bc
       0.026582774 -0.074758716 0.0753206 -0.012492751
000140 db 41 b7 bd 0f 29 96 bd bc 94 b8 bd f7 19 95 3b
       -0.08948108 -0.0733205 -0.09012744 0.0045502144
000150 99 a1 6e 3a 39 0e 3f bd 58 ca 56 bd 8e 75 af bd
       0.00091030594 -0.046644423 -0.052439064 -0.08567344
000160 96 e5 7b bd 0f 76 33 bd f0 19 5d bd df 2c 43 3d
       -0.061498247 -0.04381376 -0.053979814 0.047650214
000170 01 13 2d 3d 3a 03 4c bd eb 17 a2 bb e0 0d 9b bc
       0.04225445 -0.049807765 -0.004946699 -0.018927515
000180 da 31 1d bd cb b3 82 bc 5c 78 fb bc fb 49 b1 3d
       -0.03837762 -0.015954873 -0.03069704 0.08656689
000190 81 d9 74 bc ca a0 5d 3d 16 a3 d4 3d 6f fe 19 3a
       -0.014944435 0.05410842 0.10382669 0.00058744004
0001a0 3f ec 97 3c 6e f2 fb 3c a5 f1 b1 3d 26 64 b6 bd
       0.018545268 0.030755248 0.08688668 -0.089058205
0001b0 4f 12 06 3d 83 04 a0 3c e3 09 d9 3c 79 b2 a3 3c
       0.032732304 0.019533401 0.026493972 0.019982563
0001c0 09 a7 aa 3d cf f9 bf 3d 08 81 af bd 09 dc a1 bd
       0.08332641 0.09373819 -0.08569533 -0.079032965
0001d0 32 8d 95 3d b9 60 29 3d d6 bd 54 3d 2f dd 97 3d
       0.073023215 0.041352008 0.051938854 0.07415234
0001e0 9e 0c bd 3d bd 5e 07 3d 62 5a e8 3c 70 e6 bb 3d
       0.09230922 0.033049334 0.02836341 0.09174812
0001f0 6a 30 b3 bc 31 59 c5 bc 5f e8 af bd b8 69 e0 3d
       -0.021873672 -0.024090381 -0.08589243 0.10957664
000200 ab 10 61 bd 23 d8 f9 bb 0e 64 da 3d 77 85 bc bd
       -0.054947536 -0.0076246425 0.10663615 -0.09205144
000210 dc 08 65 3d 48 61 17 3b 40 cb 32 3d a5 21 9a 3d
       0.055916652 0.0023098756 0.043650866 0.075259484
000220 10 1e 9b 3d ea 72 7a 3d a9 fe c8 3b 6e 67 2c bd
       0.07574093 0.061144747 0.0061338735 -0.042090826
000230 06 60 9f 3d 75 4f 5e 3d 94 9c db 3b b0 c8 0d 3d
       0.07781987 0.054274995 0.006702015 0.03461522
000240 63 27 42 3d 09 fd 73 bd bf 07 a0 bd 88 37 a8 bd
       0.047400843 -0.059567485 -0.078139775 -0.08213717
000250 42 95 43 3d eb 70 7f bd d6 c1 27 3c 95 ef bc bd
       0.047749765 -0.062363546 0.010239085 -0.09225384
000260 80 40 81 3d 78 27 90 3d 52 fc 0f bd 3b de f1 3b
       0.063111305 0.07038778 -0.03515274 0.0073812283
000270 12 46 82 bc 2b 27 b9 bc 40 d9 7b 3d 60 c0 d4 3d
       -0.015902553 -0.022601685 0.061486483 0.10388255
000280 fd d3 92 3d 08 fd a5 bd b3 e4 7d 3d 01 08 8d 3d
       0.0716934 -0.081049025 0.061985683 0.06886292
000290 b6 47 a8 bc 1f eb 49 3d ea 12 1c 3c bb 35 95 bd
       -0.020542007 0.049296495 0.009525994 -0.07285639
0002a0 f8 7d 70 bd ce c5 ed bc cc 5a 6c 3d cd 4f 55 bc
       -0.058713883 -0.029024985 0.05770378 -0.013019514
0002b0 18 98 4b bd 96 3b d8 3d 6b ac 87 3d ef 3f 4f 3d
       -0.049705595 0.1055824 0.06624683 0.05059808
0002c0 40 fe c4 bd e4 8f 5c 3d 4a bf b3 3d 51 39 f5 bc
       -0.09618807 0.053848162 0.0877672 -0.029934557
0002d0 9c 85 4e bd b5 ea 01 bc 62 21 7d bc f4 80 ae 3d
       -0.05042039 -0.007929494 -0.015449854 0.085206896
0002e0 0c 74 9b 3d 0d 37 9a 3d d1 75 38 bd 18 be 89 bd
       0.075904936 0.07530031 -0.045034233 -0.06725711
0002f0 6e 3a 24 3c 39 e4 9a bd 30 0c 79 3a 72 6a 76 bd
       0.010023696 -0.07563061 0.0009500412 -0.060160108
000300 50 2f 4c 3d 9c 91 be 3d 2b 5e 89 3d 58 81 df 3d
       0.04984981 0.093051165 0.06707414 0.10913342
000310 f2 45 96 3d ed 48 c6 bd c6 8f b4 3c 94 ce 55 3d
       0.0733756 -0.09681878 0.022041213 0.05219896
000320 bd 6a 8b 3d 0f 41 ba bd a3 55 e7 bd 0b 3e a7 3a
       0.06807468 -0.0909444 -0.11295631 0.0012759579
000330 df 6d dd 3d c3 6d 7d bc 77 8e 69 bd a6 b1 b2 bd
       0.10811972 -0.015468064 -0.05702063 -0.0872529
000340 28 6d 22 3d e9 d6 af 3d 46 9b de bc 8e 1f dc 3d
       0.03965488 0.08585913 -0.02717365 0.10748206
000350 11 65 4b 3d d1 e3 df 3d 7e da 63 3d 62 a3 09 bd
       0.04965693 0.109321244 0.055628292 -0.03360308
000360 2f 68 c4 3d 9f 20 8d bd d1 4e 67 3d dc b3 ae 3c
       0.09590184 -0.068909876 0.05647165 0.021325998
000370 f4 ee d2 3d b1 e5 75 bd c1 bb 98 bd fa ee 8c bc
       0.10299483 -0.060033504 -0.07457686 -0.017203797
000380 02 28 fe bb 56 37 81 bd 21 a4 01 be 37 48 24 bd
       -0.007756234 -0.063093826 -0.12660266 -0.040107932
000390 ec 28 c2 3d dd 4a e8 3d 9c 5b e6 bd 60 97 38 bd
       0.094804615 0.11342404 -0.11247942 -0.045066237
0003a0 e1 63 36 3d 87 44 b2 3d 04 ff c6 3d 8f 5f cd bd
       0.044528846 0.08704477 0.09716609 -0.10027992
0003b0 2a ed 30 3d 49 cb 50 bd d6 99 89 bd 6c ae c6 3d
       0.043194927 -0.050975118 -0.06718795 0.09701237
0003c0 9c bc 4d 3d b8 23 d3 3d 3f 58 83 3c f4 33 d0 3c
       0.0502287 0.10309547 0.01603329 0.025415398
0003d0 6b 24 77 bd b8 1b 8c 3c 81 13 f0 3d f6 d2 10 bd
       -0.060337465 0.017103061 0.1172247 -0.035357438
0003e0 ad 4f b3 3c fb 04 01 bd 83 34 8d bd 53 7b a9 bd
       0.021888578 -0.03149889 -0.068947814 -0.08275475
0003f0 8d 54 c3 3d ea 7f 3a bd 52 03 61 bd c6 ad ac bd
       0.09537611 -0.045532145 -0.054934807 -0.08431582

gnn.conv1d_params1.bias f4 [16]
000000 08 df 94 bd b1 ee c6 3d db ea 8f bd 09 b1 45 3d
       -0.07269102 0.097134955 -0.07027217 0.048264537
000010 19 d2 66 3d cf 62 3d 3d 8b 99 cc 3d 08 a7 16 bb
       0.05635271 0.04623681 0.099902235 -0.0022987742
000020 62 e5 95 bd f6 d1 31 bc c3 d4 bb 3c 55 ed 66 bb
       -0.07319142 -0.010853281 0.022928601 -0.0035236676
000030 94 58 0b 3d d9 fd 47 3d e8 76 f7 bc d9 38 9b bc
       0.03402002 0.048826072 -0.030208066 -0.018948006

gnn.conv1d_params2.weight f4 [32, 16, 5]
000000 3d c1 de bc ff c3 24 bd 0c ab b8 bd 5e 39 19 bd
       -0.027191753 -0.04022598 -0.090169996 -0.037408225
000010 37 6a 82 bc d9 d3 c4 bd ff 7b ba bd 4a 26 c1 3d
       -0.015919788 -0.09610719 -0.09105682 0.09431131
000020 80 00 9b 3d b4 5d ad bd 3d d6 8f bd f3 45 3b 3d
       0.07568455 -0.08465138 -0.070232846 0.045721006
000030 e6 03 06 3d 07 be 97 bd ba d7 5a bc fd 15 b2 bd
       0.03271856 -0.07409292 -0.013357097 -0.086956
000040 da 9c de bb 4f 0b 9e bd 57 f7 85 bc 3f 15 57 ba
       -0.0067936005 -0.07717001 -0.016353292 -0.0008204765
000050 6d 3c 78 bc 6e 7e 07 3e 2f 4f 4f 3c 44 16 b2 3d
       -0.015151125 0.13231823 0.012653156 0.08695653
000060 ac ca 37 3d 09 c5 5a bd 04 8b 6f 3d 2b cd 0c bc
       0.044871017 -0.053410564 0.058482185 -0.008593838
000070 5f f2 42 bd 34 16 95 bb dd f7 be bd de fb af bc
       -0.047594424 -0.004549766 -0.0932462 -0.021482404
000080 7b de e8 3c 90 34 a2 3d 91 e8 40 bd f8 ae 1f bd
       0.0284264 0.07920182 -0.047096793 -0.038985223
000090 b0 1f ff bb c7 f1 3e bc f4 e8 17 3d f4 51 1b bc
       -0.00778576 -0.011654324 0.037087396 -0.009479988
0000a0 0b 3e f0 3d 36 3b 8b bc e6 5d fc ba 97 9c 9e bd
       0.11730584 -0.016996007 -0.0019254058 -0.07744711
0000b0 6f cd d3 3d 4a b4 d0 3d 48 16 9b bd 98 da 7a 3c
       0.10341918 0.101906374 -0.07572609 0.015310906
0000c0 11 5b 8e 3d ca 12 98 3d 96 e2 7f bd 1e 70 da 3b
       0.06950963 0.07425459 -0.06247195 0.0066661974
0000d0 12 2a d6 3c ad 48 9e bd 41 18 be bd bb 8a e9 3d
       0.026143108 -0.077287056 -0.0928197 0.11403414
0000e0 3f f9 ad bc 5b 5f bb 3d 48 6d e3 3c 56 f0 63 3d
       -0.021237014 0.09149047 0.02776207 0.055649124
0000f0 18 ca 35 3d 36 6b 86 3c 66 0b b3 bb b0 a5 d4 3b
       0.044382185 0.016408544 -0.0054640053 0.006489478
000100 8e 6f 45 bb 51 37 87 3d b3 f5 14 3e e3 9c f1 3d
       -0.0030126306 0.06602348 0.14546852 0.11797502
000110 57 67 30 3c b9 51 d4 3d 78 b3 7c 3d 0c e9 ae 3d
       0.010766826 0.1036715 0.061694592 0.08540544
000120 b2 eb 6a bb 13 7b 1b bd 10 ad b4 3d df 04 71 3d
       -0.0035846052 -0.03795917 0.088220716 0.058842536
000130 8c 03 8d bd f8 75 ae 3d 01 6a 0d bc f1 c4 91 3c
       -0.06885442 0.085185945 -0.00863123 0.017794104
000140 db c8 ae 3c 37 88 59 3d 87 0c f4 3c 69 30 7d bd
       0.02133601 0.05310842 0.02979113 -0.061813746
000150 b0 a6 00 bd 67 f3 09 3b 67 1a c7 3d 61 7e 32 3d
       -0.031408966 0.002104962 0.09721833 0.043577556
000160 67 2e ef 3d bf be af 3d d1 d5 7e bc b6 c7 62 bc
       0.116787724 0.08581304 -0.0155539075 -0.01384156
000170 69 1b 65 bc e7 76 e9 3d af 8f e1 3c e9 2c e6 3d
       -0.013983586 0.11399632 0.027534334 0.11239035
000180 0c 96 79 3d 63 f4 92 3d 09 2e 68 3d c1 4b 44 bd
       0.06093411 0.07175519 0.056684528 -0.047923807
000190 3e 93 4b 3c d7 5b 98 bd 46 68 a6 bd d4 ab 97 3d
       0.012425242 -0.07439392 -0.08125357 0.074058205
0001a0 8c 17 db bd ca fc 8f 3d 61 5f 8e 3d cc 1c 98 bb
       -0.106978506 0.070306376 0.06951786 -0.0046421047
0001b0 a9 6d b5 3b 63 af 3d 3d 4b 11 06 bb 12 f8 b3 bd
       0.005536754 0.04630984 -0.0020457085 -0.0878755
0001c0 af 16 ac 3d a2 c9 1b 3d 37 52 70 3d a0 46 3e 3c
       0.08402764 0.03803409 0.058672156 0.011613518
0001d0 95 37 0c 3d 0f 86 fa bb 3f 4e e8 bd dd 2f 99 3d
       0.034232695 -0.0076453756 -0.11343049 0.07479832
0001e0 79 72 b7 bd 07 c7 c3 bb 7c 7e 36 bd f0 1d b5 3d
       -0.08957381 -0.0059746536 -0.04455422 0.08843601
0001f0 17 d7 57 3d ef 5b 39 bd f7 b1 c6 3d 0f 20 94 3d
       0.05269536 -0.04525369 0.09701913 0.07232677
000200 12 9f dd bd b7 d5 78 3d 03 33 3e bc 1a 9f 84 bd
       -0.10821356 0.06075069 -0.011608842 -0.06475659
000210 fd 10 e9 3d 1c 0d e5 3d cd e4 ae 3b b9 09 10 be
       0.113801934 0.11184141 0.005337334 -0.14066209
000220 65 7f 12 bd f3 2f d6 3c 34 93 8e bc e4 75 15 be
       -0.035766024 0.02614591 -0.017404176 -0.14595753
000230 fe d2 d1 3d 2f f7 ef 3b a2 16 0d bd c6 75 ce bd
       0.10245322 0.0073231678 -0.034445412 -0.10081057
000240 bd 89 59 3d 7a e5 4f 3c 59 86 18 3d 4b 28 4d 3d
       0.053109873 0.012688989 0.0372375 0.050087254
000250 fe 1a d3 3b 85 a5 e5 bd 94 54 95 bd a8 91 e4 3d
       0.0064424267 -0.11213211 -0.072915226 0.11160594
000260 c1 e3 44 3d c9 90 ce bd cf a0 9f bd 42 7f c7 3d
       0.048068766 -0.10086209 -0.07794344 0.097410694
000270 ee 8d 4a bd 80 29 2b 3d dc 02 c6 bc 64 6f 36 3d
       -0.04945176 0.041787624 -0.024171285 0.044539824
000280 56 f2 ec bc 0c b8 16 3d de ab 8d bd 6e 16 a5 3d
       -0.028924149 0.036796615 -0.06917547 0.08060919
000290 d1 24 43 bd bc 47 bd bd 76 22 32 3d 17 22 65 3d
       -0.047642533 -0.09242198 0.043489896 0.055940714
0002a0 a6 2c 42 bd c5 6a 91 bc a5 37 f7 3d 54 12 e8 3b
       -0.04740586 -0.017751107 0.1207116 0.007082263
0002b0 43 7b be 3d 79 f4 02 3e c9 9a 9b 3d 10 03 a8 3d
       0.09300854 0.12788571 0.07597882 0.08203709
0002c0 d9 49 8e bd c3 a7 6a bd 25 65 2f bc c1 d0 80 bc
       -0.06947679 -0.057288896 -0.010705267 -0.015724542
0002d0 ad a9 1b 3b 70 37 ad 3d 8c 4f bd bd a4 65 a5 3d
       0.0023752258 0.084578395 -0.09243688 0.08076027
0002e0 94 cf df 3d 4d 83 b3 3d 97 e1 c1 3d a5 3c d8 3d
       0.10928264 0.08765278 0.09466856 0.10558442
0002f0 bb a3 b7 bb 11 07 aa bc c4 07 96 bd 98 8f c5 3d
       -0.005604235 -0.020755323 -0.073257 0.09646529
000300 35 ee 24 3d 9c df 8d 3c 15 c6 33 bd e8 6b cf bc
       0.040266234 0.01731854 -0.043890078 -0.025320008
000310 8f 86 aa bd bc a3 f0 bd 65 0d 98 bd 47 6b 9c bc
       -0.08326446 -0.1174998 -0.0742443 -0.019094123
000320 5a e7 d9 bd ae 87 c1 3d 79 67 ef 3c 06 82 5c bd
       -0.1063983 0.09449707 0.029224144 -0.053834938
000330 4a 7c 4b bb b2 e1 10 bd c6 f6 99 3d b5 93 bc bd
       -0.0031049424 -0.03537149 0.075177714 -0.092078604
000340 09 13 a7 3d 9f f1 97 bd 58 4a da 3d 1b 46 87 bd
       0.081579275 -0.074191324 0.10658711 -0.066051684
000350 86 04 aa bd 10 8e 2b bd e2 f4 b3 bb 3c c4 84 bd
       -0.08301644 -0.04188353 -0.005491839 -0.06482741
000360 6d 16 de bd 22 bc d9 bd f0 76 85 3d 9a 8f 1f be
       -0.10844121 -0.106315866 0.06516826 -0.15582123
000370 07 d4 08 3d f0 1c b1 bd c0 3d e5 3d dd 5c 82 bd
       0.03340533 -0.086480975 0.111934185 -0.063653685
000380 04 0d e2 3d 25 31 ad 3d be 22 bd bd 60 a3 2a bd
       0.11037639 0.08456639 -0.09235142 -0.041659713
000390 02 23 2a bd 07 38 7f 3d 88 23 12 bc c1 65 ae 3c
       -0.041537292 0.06230929 -0.008919604 0.021288754
0003a0 20 fb 56 bd f9 b7 03 bd b5 b4 96 3d b4 6c ae bd
       -0.052485585 -0.032157872 0.07358686 -0.08516827
0003b0 85 d0 e0 3b 0f 8a 35 3d d1 3e a3 bc eb f0 e6 3c
       0.006860795 0.044321116 -0.019927414 0.02819105
0003c0 10 21 64 bd 71 74 6f bd 6a c8 b0 3d e8 64 81 3b
       -0.055695593 -0.058460657 0.08631976 0.0039487965
0003d0 e8 af 76 3d 81 a0 7a bd 76 4b cc bd 91 21 16 bd
       0.06022635 -0.061188225 -0.099753305 -0.036653105
0003e0 82 23 e9 3d 89 ca b8 3d 7b e2 f5 3d 71 29 a6 bd
       0.11383726 0.090230055 0.12006088 -0.08113373
0003f0 48 64 c0 3d 6f b8 3a bd 56 fe c9 3d 30 37 72 bc
       0.09394127 -0.045586046 0.09862964 -0.014783666

gnn.conv1d_params2.bias f4 [32]
000000 de ac ff bb 68 6f 40 3d 19 aa 07 3d 2d dd d8 3b
       -0.00780259 0.046981245 0.033121202 0.006618163
000010 6f 60 b2 bd 30 72 57 3d fa 4c c5 3c dd 03 7e bd
       -0.087097995 0.052599132 0.024084557 -0.062015403
000020 05 e7 3d 3d be 04 b5 3d 19 04 98 3c 68 26 aa 3c
       0.046362896 0.08838795 0.018556641 0.020770267
000030 e2 04 02 3b d4 7e 12 3d 52 d5 87 bd ce 43 08 3d
       0.0019839336 0.035765484 -0.066324845 0.03326779
000040 32 b2 9e bd 50 c7 a3 bd b0 8a c7 3d 32 7c a5 3d
       -0.07748832 -0.07997 0.097432494 0.08080329
000050 9d 71 e6 3d 3e 3c 61 bd 65 24 bb 3d 0b c0 cb bd
       0.11252139 -0.054989092 0.09137801 -0.09948739
000060 7d dd 70 bd 12 43 02 3d 74 1a 79 3d 4c 9e e4 bd
       -0.058804978 0.031802244 0.060816243 -0.11163005
000070 78 41 aa 3d c1 cc d8 3c ad de 4a 3d 75 d2 fc 3b
       0.083132684 0.026464822 0.049528766 0.007715518

mlp.h1_weights.weight f4 [128, 1280]
000000 e6 ff ca 3b bf cb 2f bd 58 e0 f2 bc 76 e0 73 bd
       0.0061950563 -0.042918917 -0.029647991 -0.059540235
000010 95 a3 0a bd c4 7a 11 bd 8a 16 25 bd 19 cd 81 bc
       -0.03384741 -0.03551747 -0.040304698 -0.015844868
000020 75 03 45 3c 38 e5 8d 3d b1 a1 c4 3c a4 07 97 3c
       0.01202475 0.06928486 0.024002882 0.01843626
000030 c7 a2 23 bd ad 69 c0 bc 57 f4 de 3a a7 82 d2 bb
       -0.03995016 -0.02348789 0.0017010075 -0.0064242664
000040 a5 1e 1e bb 75 e8 7d 3d bb 0d 11 3c a7 15 6b 3d
       -0.0024127152 0.061989266 0.008853371 0.057393696
000050 1e ab 19 3d 27 29 c6 bb 43 4c b8 3c c2 10 5b 3d
       0.037516706 -0.006047386 0.022497302 0.05348278
000060 c5 fc 58 bd 07 48 7a bc d5 20 55 bd 1c 61 3a bd
       -0.052975435 -0.015275962 -0.052033264 -0.045502767
000070 1b 33 f9 3b 1f bc 67 bd 42 76 15 bd f6 0c 38 bd
       0.007604969 -0.05657589 -0.036489733 -0.044934236
000080 89 f4 6c bd ef 1b 5b 3d cb 5f d5 bc a8 03 89 bc
       -0.057850394 0.053493436 -0.026046654 -0.016725376
000090 b9 6a 4e bc 2f b0 10 3b 3e 0d 6e bc 18 9f b3 bc
       -0.012598687 0.002207767 -0.014529524 -0.021926448
0000a0 55 ec 5d 3d 05 26 26 bd 5c a5 46 3d 7e 40 d8 bc
       0.054180462 -0.040563602 0.048497543 -0.02639794
0000b0 40 ac 36 3d 00 b8 17 bd b4 29 e6 3a 2f b4 1a 3c
       0.044597864 -0.03704071 0.0017560036 0.009442373
0000c0 bb e5 0f bd fa 18 30 3c a7 99 34 3c 30 d4 00 bc
       -0.035131197 0.010748142 0.011022962 -0.007863089
0000d0 93 1f 60 bd de 1a ab bc f8 7d e9 3c 56 61 be 3c
       -0.05471761 -0.020886835 0.02850245 0.023239773
0000e0 2f c8 8d bc c0 50 26 bd df 80 04 bd 03 83 56 bc
       -0.017307369 -0.040604353 -0.032349464 -0.013092759
0000f0 60 2f 63 bd a9 e6 06 bb c2 f3 28 bd 5e 6a 87 3a
       -0.055465102 -0.0020584262 -0.04124809 0.0010331383
000100 85 d6 48 3d e0 a5 0c bd 05 9b 45 bd 9b b9 17 bd
       0.049032707 -0.03433788 -0.04824354 -0.03704224
000110 df 56 b1 3c 18 3b 3f bd c2 c3 63 bd 61 a1 4d bb
       0.021647869 -0.046687216 -0.05560661 -0.0031376707
000120 75 59 3d bd 88 96 22 bd c2 30 5f bd 02 20 53 3d
       -0.04622789 -0.03969434 -0.05448986 0.051544197
000130 f0 35 2d 3c a8 23 bc 3c 44 76 5a 3d bf 89 8d bb
       0.010571942 0.022966221 0.053335443 -0.004319399
000140 d7 28 76 bd 03 97 80 bd 41 d7 2b 3d 14 f0 c5 bc
       -0.06009754 -0.06278803 0.04195333 -0.02416233
000150 cb a3 05 3d a2 0e c9 3c 65 89 66 3c 5a 2e 38 bd
       0.03262691 0.02454311 0.014070843 -0.04496608
000160 32 7e 4f 3d 4b 88 87 3c ef 8a 2e 3d 42 f7 e9 3c
       0.05065746 0.016544482 0.042612966 0.028560285
000170 61 ec 67 bc 64 ca ad bc 8c 64 38 3d 17 0d fc 3c
       -0.014155478 -0.021214671 0.045017764 0.03076796
000180 5e ce e0 3c 89 95 24 bd 42 db 48 3d 09 d6 fa bc
       0.027442154 -0.04018167 0.049037226 -0.030619638
000190 58 2a 59 bd 3e 98 57 bd d3 0e b7 3b 8c 5e e3 bc
       -0.053018898 -0.052635424 0.005586484 -0.027755044
0001a0 10 82 fb 3c 48 78 5f 3d 61 ad 70 bd ed b3 53 3b
       0.030701667 0.05455807 -0.058759097 0.003230329
0001b0 2e 9d 7c 3d 71 9c 47 bd 3e 27 fe 3c ce 67 6d 3d
       0.061673336 -0.04873318 0.031024572 0.057960324
0001c0 75 0f 53 bd b2 79 8f bc 9a 2a d9 bb e6 6e 06 bd
       -0.051528413 -0.017514084 -0.006627393 -0.032820605
0001d0 8c c1 b4 bc 4f 50 c4 b9 d8 83 5e bd 3a ae c7 3b
       -0.022064947 -0.00037443868 -0.054324955 0.0060937675
0001e0 4a 84 15 bc cf 07 c4 3c 25 20 63 3d a8 96 79 bd
       -0.009125778 0.023929505 0.055450577 -0.060934693
0001f0 85 e0 7a bd 3d 24 b2 bc 0f 43 c4 3c 24 bb 37 bc
       -0.061249275 -0.021745795 0.023957757 -0.011214051
000200 0b 38 1a bd 6e 92 34 bd 65 26 8e 3c 9e 95 21 3b
       -0.037651103 -0.04408496 0.017352292 0.002465583
000210 cf 38 a7 3c d6 10 84 3d 1b ae 88 bc 87 a0 49 3d
       0.02041283 0.06448524 -0.016684582 0.049225356
000220 7d e8 2d 3d e1 2e ea 3b bf 5e 38 3c c3 02 0c bd
       0.042458046 0.0071467017 0.011253058 -0.03418232
000230 72 26 07 3d 13 13 c1 3c 69 21 97 bc 07 36 13 3d
       0.03299565 0.023568666 -0.018448548 0.035940196
000240 88 0f 47 3d de b0 0e 3d ca 33 a1 3c 16 02 21 3d
       0.048598796 0.034836642 0.019678015 0.03930863
000250 67 8f 0a 3d a7 01 3c bd e6 db 4a 3d f6 39 d4 bc
       0.033828165 -0.045900013 0.049526118 -0.025906544
000260 9c 1e c2 bc 74 85 e7 3c 5b 95 33 3d 82 47 83 bd
       -0.023696236 0.028261878 0.04384361 -0.064101234
000270 af 83 36 bd 45 cf e9 bc 8e 70 5f bb 6f 91 c6 3c
       -0.044559177 -0.028541217 -0.0034094187 0.02423927
000280 80 f7 60 3b 00 34 24 3d 7c c6 bf 3c 29 c0 62 bd
       0.003432721 0.040088654 0.023410074 -0.05535904
000290 a8 9c 57 3d ac 5c 9b bc 80 fb cd ba 98 9f 49 bd
       0.052639633 -0.018965088 -0.0015715212 -0.049224466
0002a0 d8 ab 51 3c be cb c1 bc 6c 38 ce 3c 10 1f 7a bd
       0.012797318 -0.023656722 0.025173388 -0.06106478
0002b0 10 15 c5 3c 2b 59 85 bd e4 1d 0c bd b2 fd f2 bc
       0.024057895 -0.06511148 -0.034208193 -0.029661987
0002c0 c0 f3 42 bc d3 84 51 bd 6a c4 7a bd b0 b5 e4 3b
       -0.011898935 -0.05115206 -0.06122247 0.0069796667
0002d0 b0 11 70 bd 08 75 3b 3c 52 17 0c bd 82 77 04 3d
       -0.058610618 0.011441477 -0.034201927 0.032340534
0002e0 fa 0d 7b bd b9 68 2d bd 38 ea 42 bc 34 43 a5 bc
       -0.061292626 -0.0423362 -0.011896662 -0.020173647
0002f0 b4 66 df 3c 6c cc 42 bd ea 47 8f bc 98 4e f8 bb
       0.027270652 -0.047558233 -0.017490346 -0.0075777285
000300 15 0d 7f bd b0 ca d4 bc 50 77 01 3c 06 d8 86 bc
       -0.062268335 -0.025975555 0.0079019815 -0.01646043
000310 e0 ba cb 3b f8 10 05 bd 54 01 78 bd 64 a5 6b 3d
       0.0062173456 -0.032486886 -0.06054814 0.057530776
000320 78 e5 4c bd bb cd 4a bc 4b 3e 86 3d cc c1 89 bd
       -0.050023526 -0.0123781515 0.0655485 -0.06726417
000330 7a dd d9 bb 38 2d 2a 3d e0 f8 26 3d 79 89 c9 3c
       -0.0066487165 0.04154703 0.04076469 0.024601685
000340 d9 08 ec bb 6a c4 17 bd 75 f1 5a bd 8f 16 86 bd
       -0.007203203 -0.03705255 -0.053452928 -0.065472715
000350 81 1f a6 3c 48 6e b7 bc af 06 57 bd aa 5c c8 3c
       0.020278694 -0.022391453 -0.05249661 0.024458248
000360 77 a0 cb bc 2b a5 12 3d 49 18 82 bd bf c4 4a bb
       -0.024856789 0.035802048 -0.06352288 -0.0030940024
000370 67 17 08 3d 8f 83 43 bd 9b d4 13 3d 7d c9 65 3c
       0.033225443 -0.047732886 0.03609143 0.014025089
000380 50 31 ee 3a 1c 6c 9c 3b e3 ba 36 3d 32 3f ae bc
       0.0018172655 0.00477363 0.044611823 -0.021270368
000390 46 34 cf bc e4 4e f9 bc 9b 5a eb bc 7a 0c aa 3c
       -0.02529348 -0.030433126 -0.028729727 0.020757902
0003a0 5a 96 03 bd 19 ba 59 bd 3e 29 5f 3c 94 6a 8e 3c
       -0.03212581 -0.053155992 0.013620673 0.017384805
0003b0 63 eb a8 3b 6e 55 49 3d 19 93 41 bd e8 cc 4b 3d
       0.0051550134 0.049153738 -0.047259424 0.04975596
0003c0 61 ff 85 3d 0a 21 62 3d 55 46 36 3d 9b 2f 6c 3c
       0.0654285 0.05520729 0.044500668 0.014415647
0003d0 df 49 24 bd 5d b1 64 bd 45 ee 57 bd 4f 47 d0 bc
       -0.04010951 -0.05583321 -0.052717466 -0.025424628
0003e0 b0 0f 30 3d 1c 36 09 bd 27 7b 61 bc 83 b1 95 bc
       0.04298371 -0.03349887 -0.013762272 -0.01827312
0003f0 95 bf 01 bc 5e c1 7c 3d 69 2d 1a 3d de 6d 10 bd
       -0.007919212 0.061707847 0.037640963 -0.035261028
