data/models/yeast_model.pth (torch, 182479 bytes, 15 tensors)

gnn.conv_params.0.weight f4 [32, 19]
0	0xbc6c6177	-0.014427534
1	0x3e66d516	0.22542223
2	0xbe80ec11	-0.25180104
3	0xbdf602b7	-0.120122366
4	0x3ceb44f0	0.028719395
5	0x3d0107d0	0.03150159
6	0xbe8542b1	-0.26027444
7	0x3e1cfd5a	0.15331021
8	0xbe9944a9	-0.29935196
9	0x3eab55c7	0.3346388
10	0x3e7f2856	0.2491773
11	0x3dc45a4f	0.095875375
12	0x3e88e8db	0.26740155
13	0xbea5473b	-0.32280907
14	0x3e48554d	0.1956379
15	0xbe995f89	-0.299557
16	0x3e97a0ef	0.2961497
17	0xbe1ab882	-0.15109447
18	0x3e3a6baa	0.18205133
19	0x3c63ad20	0.013896257
20	0xbe4e0004	-0.20117193
21	0xbdda812f	-0.10669171
22	0x3ea50474	0.3222996
23	0xbe35a2f2	-0.1773794
24	0x3df009c8	0.117206156
25	0x3e8a837e	0.27053446
26	0xbd7310a8	-0.059342057
27	0xbc3bbeea	-0.011459092
28	0x3dc65e14	0.09685913
29	0x3e638a1e	0.22220656
30	0x3e00084d	0.12503166
31	0x3ca96ab0	0.020680755
32	0xbe83e8b0	-0.25763464
33	0xbe7be7aa	-0.24600092
34	0xbdccbef6	-0.099973604
35	0xbe6653be	-0.22492883
36	0xbd97a464	-0.07404402
37	0x3e60ff71	0.21972443
38	0xbe4ee81a	-0.20205727
39	0x3e8045ca	0.25053245
40	0xbe68bf3a	-0.22729197
41	0x3e6264b2	0.22108725
42	0xbe607530	-0.21919703
43	0x3ea5fc0f	0.32418868
44	0xbe9080b1	-0.28223184
45	0xbe88e620	-0.2673807
46	0x3e8835b4	0.26603472
47	0x3e28efe6	0.16497764
48	0xbe992fcf	-0.29919288
49	0xbea6f053	-0.32605228
50	0x3eab34cd	0.3343872
51	0x3e2c1976	0.16806588
52	0xbeb4209d	-0.35181132
53	0xbdd1a522	-0.10236575
54	0xbd216348	-0.039401323
55	0xbe35df98	-0.17761075
56	0x3dacaba4	0.08431175
57	0xbe3ac81d	-0.182404
58	0xbcd70825	-0.026249
59	0x3dda5459	0.10660619
60	0x3ea3084d	0.3184227
61	0xbe41399f	-0.18869637
62	0x3d5af498	0.05345592
63	0xbead572a	-0.33855563
64	0xbd9a2c1c	-0.075279444
65	0x3d054f4c	0.032546327
66	0xbe0a9d51	-0.13536574
67	0x3c9a9bc0	0.018873096
68	0x3e3d6600	0.18495941
69	0x3e675e36	0.22594532
70	0xbdefecfa	-0.117151216
71	0xbe59b2a8	-0.21259558
72	0x3e755752	0.23959091
73	0x3c8ccc50	0.017187268
74	0xbe9fb05a	-0.31189233
75	0xbe1b52b6	-0.1516827
76	0x3dcfc6cd	0.1014534
77	0x3e48faf1	0.19626977
78	0x3d6882e4	0.056765452
79	0x3e599f68	0.21252215
80	0x3e9ad54f	0.30240867
81	0x3cf0e950	0.029408127
82	0x3e7539ea	0.23947874
83	0x3ea58e21	0.32334998
84	0x3e8f87df	0.2803335
85	0x3eadf235	0.33973852
86	0xbe81eabe	-0.25374407
87	0xbe5f08d6	-0.21780714
88	0xbe117c4b	-0.1420757
89	0x3dc5fbe0	0.09667182
90	0x3b204a49	0.002445834
91	0xbbe65c40	-0.00703004
92	0x3dcd2b2c	0.10018
93	0xbe3c8518	-0.18410146
94	0x3ebd081b	0.36920246
95	0xbeaf3b28	-0.3422482
96	0x3e674bdf	0.22587536
97	0x3e9a91de	0.30189413
98	0x3dfc8311	0.123296864
99	0x3e8d33d0	0.27578592
100	0x3e90cae3	0.2827979
101	0x3c4bab8c	0.012431037
102	0x3e20a1ae	0.15686676
103	0xbdfdf87d	-0.12400911
104	0x3e0e84c2	0.1391783
105	0x3e44836e	0.19190761
106	0x3e3c353c	0.18379682
107	0xbe7180f3	-0.23584346
108	0x3e78cb06	0.24296197
109	0xbd594cff	-0.053051945
110	0x3e781bf6	0.24229416
111	0x3e950555	0.2910563
112	0xbc2f1780	-0.010686755
113	0xbe17a71c	-0.14809841
114	0xbd95436f	-0.072882526
115	0x3e1d9379	0.15388288
116	0x3e73eb87	0.23820315
117	0xbe741f42	-0.23840049
118	0xbea788ba	-0.32721502
119	0xbe91c92a	-0.28473788
120	0x3dc41c7e	0.09575747
121	0x3e542402	0.20716861
122	0x3e8bdd5a	0.27317315
123	0xbd406af0	-0.046976984
124	0x3de9c998	0.11415404
125	0x3ba577ef	0.0050496976
126	0xbd5f7988	-0.05455926
127	0xbe866230	-0.26246786
128	0x3cbb94bd	0.022898072
129	0xbe013d2d	-0.12620993
130	0x3e8dd0d3	0.27698383
131	0x3e856595	0.26054063
132	0x3e7f436a	0.2492806
133	0x3e8b6f46	0.27233332
134	0xbc855929	-0.016277866
135	0x3cd8e212	0.026474986
136	0x3e69c82c	0.22830266
137	0xbe909ef4	-0.28246272
138	0x3e298846	0.1655589
139	0x3e739361	0.2378669
140	0xbca50780	-0.020145178
141	0x3dc92e43	0.09823277
142	0xbe8942d2	-0.26808792
143	0x3e98da49	0.29854038
144	0xbd470661	-0.048590068
145	0xbe8828c0	-0.2659359
146	0xbe69842c	-0.22804326
147	0xbd7ee984	-0.062234417
148	0xbc9b9160	-0.018990219
149	0xbe4cc75b	-0.19997923
150	0xbe13dc9f	-0.14439629
151	0x3e80fc70	0.25192595
152	0xbe061d95	-0.13097222
153	0xbe9abb64	-0.30221093
154	0x3e0a35a1	0.1349702
155	0x3ba5a44f	0.0050549875
156	0x3da1c1ad	0.07898269
157	0xbe821f3a	-0.2541445
158	0xbe91ddff	-0.28489682
159	0x3b88a9c0	0.0041706264
160	0x3c4f511d	0.012653616
161	0xbe8d6bac	-0.2762121
162	0xbe626f42	-0.22112754
163	0x3db3ac74	0.08773127
164	0x3da93e70	0.08263862
165	0x3ce30110	0.027710468
166	0x3df18029	0.11792023
167	0xbeabaf11	-0.33532003
168	0xbd296c20	-0.04136288
169	0x3e89548b	0.26822314
170	0xbe5a3439	-0.21308984
171	0x3dc2a326	0.09503774
172	0x3d7c2474	0.061558202
173	0xbe89664c	-0.2683586
174	0x3e55bbbd	0.20872398
175	0x3e60ae60	0.21941519
176	0x3eab43b7	0.334501
177	0x3e98a126	0.29810447
178	0x3c1bc5e0	0.009507626
179	0x3eaa4582	0.33256155
180	0x3d885cf8	0.066583574
181	0xbe57fa5f	-0.21091603
182	0xbdfdb2d3	-0.12387624
183	0xbe1ea1d3	-0.15491419
184	0xbd2241d0	-0.039613545
185	0xbea531db	-0.322646
186	0xbe0e63ca	-0.13905254
187	0xbeadd2e4	-0.3394996
188	0x3e1fd924	0.15610176
189	0xbeb70811	-0.35748342
190	0x3d57e3a8	0.052707344
191	0xbe4b2baa	-0.19840875
192	0xbd72d7e9	-0.05928794
193	0x3e387762	0.18014291
194	0x3de30cc0	0.11086416
195	0xbeae7fcc	-0.34081876
196	0xbe610b2f	-0.21976922
197	0xbe44bf5b	-0.19213621
198	0x3df2c985	0.11854843
199	0xbccb5e70	-0.024825305
200	0xbc50bc80	-0.012740254
201	0x3e9bdbed	0.30441228
202	0xbe503fd6	-0.20336851
203	0xbe40f2d1	-0.18842627
204	0x3e80ef45	0.25182548
205	0x3e8c4fcd	0.27404633
206	0x3e85db5b	0.26143917
207	0x3e9a7b67	0.30172274
208	0xbe444931	-0.19168545
209	0xbc46ccd9	-0.0121338
210	0x3eb4ab32	0.35286862
211	0x3e93bfdb	0.28857312
212	0xbe494489	-0.1965505
213	0xbe93fbb3	-0.2890297
214	0x3e594dca	0.2122108
215	0x3e35a7c4	0.17739779
216	0xbe8b7c3d	-0.27243224
217	0xbe77eb66	-0.24210891
218	0x3e5f26fa	0.21792212
219	0xbea5bfc1	-0.3237286
220	0x3c380b62	0.011233183
221	0x3e3bb7b2	0.18331793
222	0x3ca570a0	0.020195305
223	0xbc0f4b4b	-0.008745979
224	0x3e31ed9e	0.173758
225	0x3e0d7558	0.13814294
226	0xbcf3eed0	-0.02977696
227	0xbde419e1	-0.111377485
228	0xbe3998c9	-0.18124689
229	0x3e40e292	0.1883643
230	0x3e535bfe	0.20640561
231	0x3e65d4e9	0.224445
232	0x3d9f53a7	0.07779627
233	0xbe59e667	-0.21279298
234	0x3de1e4eb	0.11029991
235	0xbda1fcc8	-0.07909542
236	0xbe0b79cb	-0.13620679
237	0x3e74aaee	0.2389333
238	0x3c294fc0	0.010333955
239	0xbd35ad69	-0.04435483
240	0x3e148bda	0.14506474
241	0xbe8a2ae7	-0.26985857
242	0x3dc2329d	0.0948231
243	0xbe21bd5a	-0.15794888
244	0x3e372f1e	0.17889068
245	0x3e93c301	0.28859714
246	0x3d3b57ef	0.045738157
247	0xbe70d10e	-0.23517248
248	0xbd754cbc	-0.059887633
249	0xbe99014b	-0.298838
250	0x3e086f06	0.13323602
251	0x3e290787	0.16506778
252	0x3dc0ab34	0.094076544
253	0xbea4b127	-0.32166407
254	0xbe26688f	-0.16250823
255	0xbd20ab6f	-0.03922599

gnn.conv_params.0.bias f4 [32]
0	0xbc60b857	-0.013715825
1	0xbc605373	-0.013691771
2	0x3c4c7b33	0.012480545
3	0x3cd27da9	0.025694685
4	0x3c4ba1c2	0.012428703
5	0x3ca13ef9	0.019683348
6	0xbc294d2b	-0.01033334
7	0x3c723ce8	0.014785029
8	0xbcc7676d	-0.02434131
9	0xbcda3757	-0.026637716
10	0xbce2fe59	-0.027709173
11	0x3c84305a	0.016136337
12	0x3cbc170c	0.022960208
13	0xbca9f8f6	-0.020748597
14	0x3d36c523	0.044621598
15	0xbc403375	-0.011731018
16	0x3c29f256	0.010372719
17	0xbbc0ab92	-0.005879828
18	0xbcd3a499	-0.025835322
19	0x3cc512c2	0.024056796
20	0xbce9e508	-0.028551593
21	0x3cc4cfaf	0.024024813
22	0x3ca345dd	0.019930774
23	0x3ca4573b	0.020061126
24	0x3ca682ab	0.02032598
25	0x3b98c930	0.0046626553
26	0xbd00df34	-0.031462863
27	0x3c3db751	0.011579351
28	0x3c9c116a	0.019051272
29	0x3cdd8633	0.02704153
30	0x3c34d8f9	0.011038058
31	0x3cd63200	0.026146889

gnn.conv_params.1.weight f4 [32, 32]
0	0xbe730af3	-0.23734646
1	0x3e7293aa	0.23689142
2	0x3e166c9e	0.14689872
3	0x3d572c55	0.052532513
4	0x3df7a098	0.12091178
5	0xbe12238c	-0.14271373
6	0x3e9c5c10	0.30538988
7	0x3ccabe89	0.024749057
8	0xbe6b8b91	-0.23002459
9	0x3cffbdec	0.031218491
10	0xbe78380c	-0.2424013
11	0xb9fabcfa	-0.00047824514
12	0xbe49cbd4	-0.1970666
13	0xbea7ec87	-0.32797644
14	0x3d9dae73	0.07699289
15	0xbe7d41fa	-0.247322
16	0x3e474307	0.19459163
17	0x3e864793	0.26226482
18	0x3dc201f0	0.09473026
19	0xbd794986	-0.060861133
20	0xbdf06494	-0.11737934
21	0xbdb07d8b	-0.086176954
22	0x3c888a67	0.016667558
23	0x3e380faf	0.17974733
24	0x3e56856a	0.20949331
25	0x3da3d38b	0.07999333
26	0x3e841668	0.25798345
27	0xbe853ccd	-0.2602295
28	0x3cb0eb50	0.02159658
29	0x3ea2369d	0.31682292
30	0xbd46b2c7	-0.04851034
31	0xbdd876cd	-0.105695345
32	0x3cf6fffa	0.030151356
33	0xbdbf251d	-0.09333251
34	0x3e84fad6	0.25972623
35	0xbe9e43f1	-0.3091121
36	0xbe486145	-0.19568355
37	0xbdf58fe4	-0.119903356
38	0xbd769dd7	-0.06020912
39	0xbe358454	-0.1772626
40	0x3e7ce581	0.24696924
41	0x3c331e90	0.01093258
42	0x3e93f7f3	0.28900108
43	0xbe567e41	-0.209466
44	0xbdfec4ff	-0.12439918
45	0xbe790434	-0.2431801
46	0x3dde0fa9	0.10842831
47	0x3de6a254	0.112614304
48	0xbe8416ff	-0.25798795
49	0xbea6429d	-0.32472697
50	0x3e54e91b	0.20792048
51	0x3d4a7dd9	0.049436424
52	0x3dcfa947	0.10139709
53	0xbd11e244	-0.035616174
54	0xbe848cf3	-0.25888786
55	0xbd9c12b8	-0.07620758
56	0xbe194d36	-0.1497086
57	0xbc838dab	-0.016058763
58	0x3df8569a	0.12125893
59	0x3e07027d	0.13184543
60	0xbd4a3495	-0.049366552
61	0xbead4f0c	-0.3384937
62	0xbc76aa95	-0.015055318
63	0x3e5cb04e	0.2155163
64	0x3dc3d05b	0.09561225
65	0x3e0f5039	0.13995446
66	0xbe9ed34e	-0.31020588
67	0xbe9e76eb	-0.30950102
68	0xbe287e7f	-0.16454504
69	0xbdd430e3	-0.10360887
70	0xbe8b8ed7	-0.27257416
71	0x3d6053d9	0.054767463
72	0xbd912fc6	-0.0708919
73	0x3cf2d17a	0.029640902
74	0x3bdbeacc	0.0067113396
75	0xbc93e8e0	-0.01805538
76	0xbdeef2ce	-0.11667405
77	0xbe8f64c5	-0.2800657
78	0x3d14406b	0.036194246
79	0xbc43138d	-0.011906517
80	0xbe2cff6a	-0.16894308
81	0xbe9e5809	-0.3092654
82	0xbb244f2a	-0.00250716
83	0xbe8b4144	-0.2719823
84	0xbcdd5167	-0.027016355
85	0x3de89f4e	0.1135851
86	0x3994e47c	0.00028398994
87	0x3e58c565	0.2116905
88	0x3e8a4ab7	0.27010128
89	0xbd834e9d	-0.06411479
90	0xbe4c47c7	-0.19949256
91	0xbe968e40	-0.29405403
92	0x3c341c1e	0.010993032
93	0xbe1c5407	-0.15266429
94	0x3e91f516	0.28507298
95	0xbd1be215	-0.038057406
96	0xbc395472	-0.011311637
97	0x3e25017e	0.1611385
98	0x3daf4047	0.08557182
99	0xbd78cdb0	-0.060743034
100	0x3e29e89a	0.16592637
101	0xbe300246	-0.17188367
102	0xbe765dd8	-0.24059236
103	0x3e63c6b2	0.22243765
104	0xbd81b304	-0.06332973
105	0xbca46cb1	-0.02007136
106	0xbd93cb59	-0.0721652
107	0xbdd6bbf9	-0.10485072
108	0xbe3470d5	-0.17621167
109	0x3db59c25	0.08867673
110	0x3dcdb9d9	0.10045213
111	0xbe860baa	-0.26180774
112	0x3e9fd3b1	0.31216195
113	0xbe2281b8	-0.15869796
114	0xbe9309b1	-0.2871833
115	0x3d75c97a	0.060006596
116	0xbdc0623f	-0.09393739
117	0xbe81d151	-0.25355008
118	0xbe5fe3c1	-0.21864225
119	0xbe80180d	-0.2501835
120	0xbc6e7144	-0.014553372
121	0xbe78cdc2	-0.2429724
122	0x3d930208	0.07178122
123	0xbe4e4053	-0.20141725
124	0x3e8f3974	0.2797352
125	0x3e8e8b8b	0.27840838
126	0xbd209feb	-0.03921501
127	0x3e63d07f	0.22247504
128	0x3e5257dd	0.2054133
129	0x3e802ac2	0.25032622
130	0xbe8028de	-0.2503118
131	0x3e411253	0.18854646
132	0x3c60abda	0.013712848
133	0xbe398105	-0.18115623
134	0x3d424cd3	0.047436547
135	0x3e545545	0.20735653
136	0x3ea4414b	0.32081065
137	0xbdf9d214	-0.12198272
138	0x3e9849de	0.29743856
139	0xbcd6c0ab	-0.026214918
140	0x3de38620	0.11109567
141	0xbe04c803	-0.12966923
142	0xbe11406c	-0.14184731
143	0x3e37e12c	0.1795699
144	0x3e4e5cf1	0.20152642
145	0xbe7385e7	-0.23781548
146	0xbe497a1d	-0.19675489
147	0xbde68ba6	-0.112571046
148	0xbe3c150b	-0.18367402
149	0x3e2e61bd	0.17029472
150	0xbcf38455	-0.029726187
151	0xbe0d5499	-0.13801803
152	0x3dcaef3e	0.09908913
153	0xbe8f7a94	-0.28023207
154	0x3e7c5ea2	0.24645475
155	0xbe801a82	-0.25020224
156	0xbe5d2a7e	-0.2159824
157	0xbd35ff09	-0.044432674
158	0xbe97a37d	-0.2961692
159	0x3d3e9bf2	0.04653544
160	0xbccb9b09	-0.0248542
161	0x3cb954d3	0.022623455
162	0xbd606cb2	-0.05479116
163	0x3e7d7d2a	0.24754778
164	0x3ddd0f41	0.10793925
165	0x3e03a8c0	0.12857342
166	0xbe91f801	-0.28509524
167	0x3e7a3518	0.24434316
168	0xbd821f12	-0.063535824
169	0xbe3f4d5e	-0.18681857
170	0xbdc4f284	-0.09616569
171	0x3dbe6032	0.092956915
172	0x3e88c478	0.26712394
173	0xbe7fdfc9	-0.24987711
174	0xbd9675ea	-0.07346709
175	0x3e6f25c1	0.23354246
176	0xbe5e5afb	-0.21714394
177	0x3df0fede	0.11767362
178	0x3d849555	0.06473795
179	0xbd915fc2	-0.070983425
180	0xbea092dd	-0.31362048
181	0x3de02fe6	0.10946636
182	0x3e637000	0.22210693
183	0x3e58f5e9	0.21187557
184	0x3e919a7d	0.28438178
185	0x3e00070f	0.12502693
186	0x3dc308db	0.095231734
187	0x3e5c9956	0.21542868
188	0xbe611cf8	-0.21983707
189	0x3e209117	0.15680347
190	0x3d4b59e9	0.049646292
191	0x3e5adaf3	0.21372585
192	0xbe581e67	-0.21105348
193	0xbe3a9c48	-0.18223679
194	0x3dd4f623	0.10398509
195	0xbdfeadb7	-0.12435477
196	0x3e9f01be	0.31056017
197	0x3df5a448	0.11994225
198	0xbc22ae18	-0.0099292025
199	0xbe340eab	-0.1758372
200	0xbe0ba0bf	-0.13635539
201	0xbde8a9d8	-0.1136052
202	0x3e4e2c85	0.2013417
203	0xbd8cc34f	-0.0687319
204	0x3e8bbc14	0.2729193
205	0xbe86dcbc	-0.26340282
206	0xbe8eaa87	-0.27864477
207	0x3ea02c29	0.31283692
208	0x3e4e7e2c	0.20165318
209	0xbe816199	-0.25269774
210	0xbe5c288e	-0.21499845
211	0x3e9a786c	0.3017
212	0xbe5054ad	-0.20344801
213	0x3d61362c	0.054983303
214	0x3ddaee5a	0.10689993
215	0xbd02e50e	-0.031956725
216	0x3b31a5fa	0.0027106986
217	0x3c948bcd	0.018133068
218	0xbdb4abe8	-0.08821851
219	0x3e4948a9	0.19656624
220	0xbad1f004	-0.0016016965
221	0x3e9eddb4	0.3102852
222	0x3e8407d5	0.25787225
223	0x3d1d8f3b	0.038466673
224	0x3e1e0b08	0.15433896
225	0x3d32c404	0.043643966
226	0x3d24085e	0.040047042
227	0x3e5b9512	0.21443585
228	0xbe34e213	-0.17664365
229	0x3e8770f5	0.26453367
230	0x3cdbe6d6	0.02684347
231	0xbe858034	-0.26074374
232	0x3e1a8a38	0.15091789
233	0x3e2fc05c	0.17163223
234	0xbdb9e7b7	-0.09077399
235	0xbdf3d95a	-0.11906691
236	0xbe9ee5c9	-0.31034687
237	0x3e69f584	0.22847563
238	0xbe0cfbf6	-0.1376799
239	0xbe54d8d0	-0.20785832
240	0xbe0474ec	-0.12935227
241	0xbdc8ec13	-0.098106526
242	0xbd7f9755	-0.06240018
243	0xbe87fc28	-0.26559567
244	0xbe0855f8	-0.13314044
245	0xbd98539e	-0.07437824
246	0xbe796973	-0.24356632
247	0x3d8d551e	0.069010004
248	0xbd3d1c96	-0.04616984
249	0x3d8c9061	0.068634756
250	0xbd982e01	-0.074306495
251	0xbe1bf282	-0.15229228
252	0x3e212fe1	0.1574092
253	0x3e8a7636	0.27043313
254	0x3e34ada8	0.1764437
255	0xbe061c42	-0.13096717

gnn.conv_params.1.bias f4 [32]
0	0xba8e6e03	-0.0010866526
1	0xbca70774	-0.020389296
2	0xbbd02bc7	-0.006352875
3	0x3ca20552	0.019777928
4	0x3ceaf098	0.028679177
5	0x3c940048	0.01806654
6	0x3c8551ed	0.016274417
7	0x3bb9f66b	0.0056751273
8	0xbc9216a4	-0.017833062
9	0x3cb4ecba	0.022085536
10	0x3cdbd48c	0.026834749
11	0xbcbdade3	-0.023154205
12	0xb99a1953	-0.00029392037
13	0x3c93a195	0.018021384
14	0xbb9c9c85	-0.004779401
15	0xbcc7bc64	-0.024381824
16	0x3c28e6f8	0.0103089735
17	0xbbb9accb	-0.0056663505
18	0x3cab777c	0.020930998
19	0xbc5d17b4	-0.013494421
20	0xbc6d3395	-0.01447763
21	0x3c1eef35	0.009700586
22	0x3b9bdacf	0.0047563086
23	0x3cbcbe33	0.023039913
24	0xbb999503	-0.004686953
25	0xbbc8a4c2	-0.0061231563
26	0xbc9ab3e4	-0.018884607
27	0xbcb5f136	-0.022209745
28	0xbcbeaed0	-0.023276716
29	0xbcd118b4	-0.025524475
30	0x3c165592	0.009175675
31	0xbc464438	-0.012101226

gnn.conv_params.2.weight f4 [32, 32]
0	0xb9d0e293	-0.00039841663
1	0xbd3fe34e	-0.046847634
2	0x3e94f1ea	0.29090816
3	0x3e97d9d2	0.2965837
4	0x3df7723a	0.12082334
5	0xbd05ab25	-0.03263392
6	0x3e6ff94f	0.23434947
7	0xbe84ca2b	-0.25935492
8	0x3e97456c	0.29545152
9	0x3e0afa7e	0.13572118
10	0x3e545f05	0.20739372
11	0x3e9ca045	0.30591026
12	0x3c387f20	0.011260778
13	0x3d8a0e05	0.06740955
14	0x3e384ae4	0.17997319
15	0xbe42f899	-0.19040145
16	0x3ea07a98	0.31343532
17	0x3c02ceeb	0.007983903
18	0x3df5f5ac	0.12009749
19	0xbe4a8468	-0.19777071
20	0x3e8fa5b2	0.28056103
21	0x3db61115	0.08889977
22	0xbe69344a	-0.22773853
23	0x3e4eeca3	0.20207457
24	0x3dca1299	0.098668285
25	0x3e15414a	0.14575687
26	0xbc8aae38	-0.016928777
27	0x3d52c484	0.051456943
28	0xbe55a8ae	-0.20865127
29	0x3e934f0a	0.2877124
30	0x3e489b5a	0.19590512
31	0xbd591ccd	-0.053005982
32	0xbe876a30	-0.26448202
33	0xbe6a2937	-0.22867285
34	0xbe1be966	-0.15225753
35	0x3e42e951	0.19034316
36	0xbe503a1e	-0.2033467
37	0xbe003cde	-0.12523219
38	0xbde3347a	-0.110939935
39	0xbe73e41c	-0.23817486
40	0x3ded46ee	0.115857944
41	0x3dc432e4	0.09580019
42	0xbe86eedb	-0.26354107
43	0x3e5eff3c	0.21777052
44	0x3cfcce36	0.030860048
45	0xbe346d9b	-0.17619936
46	0xbb2e7b7e	-0.00266239
47	0x3d8067ec	0.062698215
48	0x3daf1371	0.0854863
49	0xbe3780ca	-0.17920223
50	0x3e931ab2	0.28731304
51	0x3e695bb8	0.22788894
52	0x3e8c76eb	0.27434477
53	0xbd223b3f	-0.039607283
54	0xbbdbaee0	-0.0067041963
55	0xbe622559	-0.2208456
56	0x3e97919b	0.29603276
57	0xbd22ffba	-0.03979466
58	0xbdc5a3ba	-0.09650369
59	0xbd9c21d5	-0.076236404
60	0xbe539cb9	-0.20665254
61	0xbe8966cf	-0.2683625
62	0x3c6ddda8	0.014518179
63	0xbe64a2ec	-0.22327775
64	0xbe2be382	-0.16786006
65	0x3e6775a4	0.2260347
66	0x3e11e019	0.14245643
67	0xbe3dfda7	-0.18553792
68	0xbd3f691c	-0.0467311
69	0xbe1bb737	-0.1520661
70	0x3dc1f29a	0.09470101
71	0xbc930c44	-0.017950185
72	0x3e124e9a	0.14287797
73	0x3ddcb0b1	0.10775889
74	0x3d927ff7	0.071533136
75	0x3e712f15	0.23553117
76	0x3dabd628	0.083904564
77	0xbea43cbf	-0.32077596
78	0x3e998597	0.29984733
79	0xbe6b7747	-0.2299472
80	0x3e44960c	0.19197863
81	0xbcd15f58	-0.025558159
82	0x3e204b00	0.1565361
83	0xbde5dd7d	-0.11223886
84	0xbcc4d6de	-0.024028238
85	0xbd454840	-0.048164606
86	0x3e9c4eca	0.3052886
87	0xbe492cef	-0.19646047
88	0x3e3c43c4	0.18385226
89	0xbe8826b9	-0.26592043
90	0x3dfe645a	0.12421484
91	0xbe74893c	-0.23880476
92	0xbe28844b	-0.16456716
93	0x3e4d96a5	0.20076998
94	0x3e3204a4	0.17384583
95	0xbd9ac9ca	-0.075580195
96	0xbe823d9d	-0.25437632
97	0xbe5006b2	-0.20315054
98	0x3d9c8ce8	0.07644063
99	0x3e5a8d8f	0.21343063
100	0x3dfe11b5	0.12405721
101	0xbea80603	-0.32817087
102	0xbe23d496	-0.15999064
103	0x3e05e6d5	0.13076337
104	0x3e6e5249	0.23273577
105	0x3e311c7c	0.17296022
106	0xbd8f0b73	-0.06984606
107	0xbba3c4f0	-0.004997842
108	0xbe05fb62	-0.13084176
109	0xbe037b65	-0.1284004
110	0xbca62d2a	-0.020285208
111	0x3def3c32	0.11681403
112	0x3af02948	0.001832285
113	0x3da5814e	0.080813035
114	0xbc8bb3b4	-0.017053463
115	0x3e343061	0.1759658
116	0xbddf03bd	-0.10889385
117	0x3d906f29	0.07052452
118	0x3ae7f6d7	0.0017697465
119	0xbe6aedfe	-0.2294235
120	0xbc0b504c	-0.008503031
121	0x3d782e4d	0.06059103
122	0x3d9e27a4	0.077224046
123	0x3da2966e	0.079388484
124	0xbe192a82	-0.14957622
125	0xbe490b01	-0.19633104
126	0x3da2c774	0.07948199
127	0xbc889b98	-0.016675755
128	0xbe07715b	-0.13226835
129	0x3ea84faa	0.3287328
130	0x3e1db40e	0.15400717
131	0x3e927aac	0.28609216
132	0xbe863898	-0.26215053
133	0x3d8a6878	0.06758207
134	0xbe984a59	-0.29744223
135	0xbe2175fd	-0.15767665
136	0x3de2bc0c	0.11071023
137	0x3deb2f7d	0.11483667
138	0x3dd5254c	0.104075044
139	0x3e41785c	0.1889357
140	0xbe2a6c68	-0.16642916
141	0xbe0b5b71	-0.13609101
142	0xbd03fd10	-0.03222376
143	0x3d8d943f	0.06913041
144	0x3d917028	0.0710147
145	0xbe030ddd	-0.12798257
146	0x3e66cbc0	0.22538662
147	0xbe9b25cc	-0.30302274
148	0x3e480559	0.1953329
149	0xbe921e3c	-0.28538692
150	0xbe91ec91	-0.28500798
151	0xbbc60eca	-0.0060442435
152	0x3e94b250	0.29042292
153	0xbbb7553e	-0.0055948785
154	0xbc45b6b4	-0.012067486
155	0x3e7d9119	0.24762382
156	0x3da23652	0.07920517
157	0x3e9762a9	0.2956746
158	0x3e63d6cc	0.22249907
159	0xbe092132	-0.1339157
160	0x3dce8a6c	0.100849956
161	0xbe57597a	-0.21030226
162	0x3e8a8f43	0.27062425
163	0xbd8cc034	-0.06872597
164	0x3e8907c4	0.26763737
165	0xbe3d45f6	-0.18483719
166	0x3dcff580	0.10154247
167	0x3c8fc6f9	0.017550932
168	0x3e8c73b6	0.2743203
169	0x3e6eb1ce	0.23310015
170	0xbe35eadb	-0.17765372
171	0xbe34fca1	-0.17674495
172	0xbe12665e	-0.14296862
173	0xbe52e76c	-0.20596093
174	0x3cf27d91	0.02960089
175	0xbdcf84e1	-0.101327665
176	0x3d69c216	0.05706986
177	0x3e8f8878	0.28033805
178	0xbe62eb7f	-0.22160147
179	0xbe9492c4	-0.29018223
180	0x3e01de0c	0.1268236
181	0xbe80e4bc	-0.2517451
182	0xbe7cf949	-0.2470447
183	0xbe57f45a	-0.21089306
184	0x3d9b7ec7	0.0759254
185	0xbe9f83b4	-0.3115517
186	0x3cc71a8a	0.024304647
187	0x3eb05893	0.34442577
188	0x3ca4649f	0.020067511
189	0x3e68e38d	0.22743054
190	0x3e7bcc3e	0.24589631
191	0xbe82b967	-0.25532076
192	0x3e0bbfdf	0.13647412
193	0x3e03240b	0.12806718
194	0x3d4923ac	0.049106285
195	0xbea452b1	-0.3209434
196	0x3e82430f	0.25441787
197	0xbe4fbd24	-0.20286995
198	0x3e72a85b	0.23697035
199	0xbe7982b7	-0.2436627
200	0x3b7a2d10	0.0038173832
201	0x3e809b59	0.2511852
202	0xbd5c57eb	-0.053794783
203	0xbe957f54	-0.29198706
204	0xbe0dc471	-0.13844468
205	0x3e8a37cf	0.26995704
206	0xbd424a10	-0.047433913
207	0x3e3813bb	0.17976277
208	0x3cf88ac9	0.030339615
209	0x3e5a2979	0.21304883
210	0xbda7c650	-0.08192122
211	0x3e690b79	0.22758283
212	0xbc10cf6e	-0.008838518
213	0x3e1eb7b3	0.15499763
214	0x3c13dc83	0.009024742
215	0x3e8baf9a	0.2728241
216	0x3e96e318	0.29470134
217	0xbe920d9d	-0.2852601
218	0x3de6b660	0.11265254
219	0x3d8bf2a4	0.068333894
220	0xbcab3315	-0.020898381
221	0x3dd78369	0.105231114
222	0x3e83c698	0.25737453
223	0xbdb125da	-0.08649798
224	0x3e986662	0.29765612
225	0x3e54c3fc	0.20777887
226	0x3e3028ae	0.17203018
227	0xbe336cde	-0.17521998
228	0x3e9937ae	0.29925293
229	0x3e507e3b	0.20360653
230	0xbb885b96	-0.0041613085
231	0xbe755a3a	-0.239602
232	0xbd3b1643	-0.045675527
233	0x3e62c033	0.2214363
234	0xbe4dc67e	-0.2009525
235	0x3df2be74	0.11852732
236	0xbe63b787	-0.22237979
237	0xbda1e577	-0.07905095
238	0x3e0b1ae0	0.13584471
239	0x3e2c54dc	0.16829246
240	0xbe27673e	-0.16347978
241	0xbe532a31	-0.20621563
242	0x3cb0ff1a	0.021606017
243	0xbd091fb7	-0.03347751
244	0xbe61a16d	-0.22034235
245	0xbd99436b	-0.07483562
246	0xbe8183d9	-0.25295904
247	0x3c1c72b3	0.009548831
248	0x3e3a1a9e	0.18174216
249	0xbda55ce4	-0.08074358
250	0x3d51e78d	0.051246215
251	0x3e019c2d	0.12657233
252	0xbe16927d	-0.14704318
253	0x3e8ae50c	0.27127874
254	0x3bfabccd	0.0076519013
255	0x3e208a7c	0.15677828

gnn.conv_params.2.bias f4 [32]
0	0xbd0b5b27	-0.034022477
1	0x3ce4f296	0.027947705
2	0xbce96fad	-0.028495634
3	0xbd067832	-0.03282947
4	0xbc9365f6	-0.017992955
5	0x3be444fa	0.0069662305
6	0x3cb8ead6	0.022572916
7	0xbc6edbc1	-0.014578761
8	0x3c297344	0.010342423
9	0xbc00a7fa	-0.007852549
10	0xbcbef573	-0.023310399
11	0xbcd71a9d	-0.026257807
12	0xbc840f17	-0.016120477
13	0x3ced4543	0.02896369
14	0x3d03bba1	0.03216136
15	0x3c3e118f	0.011600866
16	0xbc2b366f	-0.01044999
17	0xbceaaf80	-0.028648138
18	0xbcf0c249	-0.029389517
19	0x3ceaa52a	0.02864321
20	0xbcc2f5d0	-0.023798853
21	0x3cfac362	0.030610744
22	0xba01569b	-0.00049338647
23	0x3ba3a98b	0.0049945763
24	0xbcad1942	-0.021130208
25	0xbc8aec3f	-0.016958354
26	0xbc80f5b4	-0.01574216
27	0x3cd12a69	0.025532918
28	0x3b73fbdb	0.0037228975
29	0xbca521cf	-0.020157723
30	0xbca6ebe5	-0.020376155
31	0xbcd714f9	-0.026255118

gnn.conv_params.3.weight f4 [1, 32]
0	0xbea86f63	-0.3289748
1	0x3ce228ef	0.02760741
2	0xbcc5ce57	-0.024146242
3	0xbcb5bf3a	-0.02218591
4	0xbe1a1393	-0.1504653
5	0xbe972f61	-0.29528335
6	0x3e7695f7	0.24080645
7	0x3d702e17	0.058637705
8	0xbdc1bb9e	-0.09459613
9	0x3eb0a26b	0.34498915
10	0x3d0a480e	0.033760123
11	0x3e2ca7dc	0.16860908
12	0x3ecc8fba	0.39953405
13	0x3e3046ba	0.1721448
14	0xbbf5f2e9	-0.007505764
15	0x3e3d5c2c	0.18492192
16	0x3e398c24	0.18119866
17	0x3deb1804	0.1147919
18	0xbeca7534	-0.39542544
19	0x3e56ccdd	0.20976587
20	0xbe4f88eb	-0.20267074
21	0x3e2992f3	0.16559963
22	0xbc9de09f	-0.019272147
23	0x3e2b8781	0.1675091
24	0x3de86f59	0.11349363
25	0xbe4566b8	-0.19277465
26	0x3e918b70	0.28426695
27	0xbeaa234b	-0.3323005
28	0xbeb9376c	-0.36175096
29	0x3dfd482d	0.12367282
30	0x3ec3dfe7	0.3825676
31	0xbb807924	-0.003920691

gnn.conv1d_params1.weight f4 [16, 1, 97]
0	0x3bb8809f	0.005630567
1	0xbdc3a377	-0.09552663
2	0xbd957855	-0.07298342
3	0x3da78034	0.0817875
4	0x3d0eda58	0.034876198
5	0x3d44a3ad	0.048007656
6	0xbcb5dc79	-0.022199856
7	0xbdad6fd9	-0.08468599
8	0x3db3598d	0.08757315
9	0xbdf399b6	-0.118945524
10	0xbd999505	-0.07499126
11	0x3d9b303d	0.0757756
12	0x3de30523	0.11084964
13	0xbd563501	-0.052296642
14	0xbdbb6732	-0.09150542
15	0x3c940217	0.018067403
16	0xbbc12f80	-0.005895555
17	0x3ca5da68	0.020245746
18	0xbdb37938	-0.08763355
19	0x3d76e324	0.060275212
20	0xbc0f5838	-0.00874906
21	0x3d3b39cf	0.045709427
22	0x3d968274	0.07349101
23	0x3db53dcc	0.088496774
24	0xbca87f95	-0.020568648
25	0x3aff6adf	0.0019486806
26	0xbd7e567c	-0.062094197
27	0xbd9d0537	-0.0766701
28	0xbd530ae7	-0.05152407
29	0x3d589c0a	0.052883185
30	0xbd4d5597	-0.050130453
31	0x3d169605	0.036764164
32	0x3d5298d3	0.051415276
33	0xbd86a6a7	-0.06574755
34	0x3c97db68	0.018537238
35	0x3d5452ed	0.051836897
36	0xbd1357b7	-0.035972323
37	0x3d9dd6c9	0.07706983
38	0x3d98760a	0.07444389
39	0x3da44e4a	0.08022745
40	0xbdd22139	-0.10260243
41	0x3d970140	0.07373285
42	0xbb447d34	-0.0029981853
43	0xbd1400b8	-0.036133498
44	0x3c9f735a	0.019464184
45	0xbd3662c5	-0.044527788
46	0xbd91692a	-0.071001366
47	0xbdd2d84b	-0.10295161
48	0xbcc2ad36	-0.023764234
49	0x3ba6440c	0.00507403
50	0xbd84d6da	-0.06486292
51	0x3d2a9d94	0.041654184
52	0xbdedcb00	-0.11610985
53	0x3cff57ec	0.031169854
54	0xbdef17c9	-0.116744585
55	0x3c24555f	0.01003012
56	0x3da2f876	0.079575464
57	0xbdb7b0f5	-0.08969299
58	0xbdc9cc1b	-0.09853383
59	0xbdace76a	-0.08442576
60	0xbd1cfc6b	-0.038326662
61	0xbdbfb140	-0.0935998
62	0x3dcfcf73	0.1014699
63	0xbd236f8a	-0.039901294
64	0xbabd0358	-0.0014420552
65	0xbda17d28	-0.078852
66	0xbd8cf504	-0.068826705
67	0xbdd7fa10	-0.105457425
68	0xbdff1a31	-0.124561675
69	0xbda1dd83	-0.07903578
70	0x3c627afc	0.013823267
71	0x3d360e92	0.04444749
72	0x3d76a255	0.060213406
73	0x3cf389e9	0.029728847
74	0x3d8780b3	0.06616344
75	0xbd1aac04	-0.037761703
76	0x3da09481	0.07840825
77	0xbdab8e0b	-0.08376702
78	0xbcb7c130	-0.022430986
79	0xbd92b35d	-0.07163117
80	0xbd864924	-0.06556919
81	0xbdbf3e5b	-0.09338065
82	0xbdde00f7	-0.10840028
83	0x3ddb9133	0.10721054
84	0xbc9d3b57	-0.019193335
85	0x3d79a9da	0.060953
86	0xbdac5055	-0.084137596
87	0x3cfaf2c4	0.030633338
88	0xbd9981b0	-0.07495439
89	0xbdb77614	-0.089580685
90	0xbbe1c2bc	-0.006889669
91	0x3db1de7e	0.08685015
92	0x3ba7db9e	0.005122616
93	0x3c60cc0a	0.013720522
94	0x3ca23566	0.019800853
95	0x3d20f18d	0.03929286
96	0xbdd36370	-0.103217006
97	0xbd43e1a7	-0.04782262
98	0x3c72ec5b	0.014826859
99	0x3dbb5ff3	0.0914916
100	0x3dc52239	0.09625668
101	0xbd9e20af	-0.07721078
102	0xbd9caded	-0.07650361
103	0x3db2f2de	0.087377295
104	0xbc512cbc	-0.012767013
105	0xbd558614	-0.05212982
106	0xbd5e0dd1	-0.054212395
107	0x3d8960c3	0.06707909
108	0x3d5e5ec4	0.054289594
109	0x3d9b82f4	0.07593337
110	0xbc1d9962	-0.009619089
111	0xbd1711ed	-0.03688233
112	0x3b1d4f0d	0.0024003417
113	0x3da8fe50	0.08251631
114	0xbdc8dc8c	-0.09807691
115	0x3d38fb26	0.04516139
116	0xbd7da5b5	-0.06192561
117	0xbaf2909e	-0.0018506234
118	0x3db85f43	0.09002545
119	0xbd434d82	-0.04768134
120	0xbd4c33c4	-0.049854055
121	0x3a979e50	0.0011567567
122	0x3d30881f	0.043098565
123	0x3da0917a	0.078402475
124	0xbdbe6a30	-0.092975974
125	0x3daf5814	0.085617214
126	0xbd37b765	-0.044852633
127	0x3bd7f31c	0.00659026
128	0xbd4806b7	-0.04883453
129	0x3c932bd3	0.017965233
130	0xbdb78512	-0.08960928
131	0xbd651c3a	-0.055935122
132	0xbd1f420d	-0.03888135
133	0x3d91030f	0.070806615
134	0x3c7ad0a6	0.015308535
135	0xbd92b039	-0.07162518
136	0x3c2cdf1d	0.010551241
137	0x3dde4750	0.108534455
138	0xbdd66d49	-0.10470063
139	0x3da3f4dd	0.08005688
140	0x3db66b63	0.08907201
141	0xbb254a95	-0.0025221456
142	0xbd52ec05	-0.051494617
143	0x3d622950	0.05521518
144	0x3d69ae2a	0.05705086
145	0xbcfd2a66	-0.030904006
146	0xbd4db2da	-0.050219394
147	0xbd62475b	-0.05524383
148	0xbcf37909	-0.0297208
149	0x3c8a018a	0.016846437
150	0x3d58ee27	0.052961495
151	0xbc1d2b86	-0.009592896
152	0x3db8eb90	0.09029305
153	0x3cb43e74	0.022002436
154	0x3cba9500	0.022776127
155	0xbd20fba6	-0.03930249
156	0xbcabcdc4	-0.02097214
157	0x3d987b13	0.074453495
158	0x3d801e5e	0.06255792
159	0xbca4ead1	-0.0201315
160	0xbda0b1f2	-0.078464404
161	0xbdb0c31f	-0.086309664
162	0x3a732d7b	0.00092764915
163	0xbd55e437	-0.052219596
164	0xbc00dda3	-0.007865342
165	0xbc781d74	-0.015143741
166	0xbdc09b88	-0.09404665
167	0x3d9a1881	0.07524205
168	0xbc906613	-0.017626798
169	0xbde1b08b	-0.11020001
170	0xbdad5314	-0.084631115
171	0xbd8d83fb	-0.06909939
172	0xbcfde01b	-0.03099065
173	0xbbbb7448	-0.005720649
174	0x3d3f25b4	0.046666816
175	0xbc2da9c3	-0.010599556
176	0xbddac0a9	-0.10681278
177	0xbdb50f26	-0.0884078
178	0xbd2d2668	-0.042272955
179	0x3dbaded4	0.09124532
180	0x3a662470	0.00087792333
181	0xbda4ccf7	-0.080469064
182	0xbd242c57	-0.04008135
183	0xbd86d514	-0.0658361
184	0x3cb9a646	0.022662293
185	0x397a4b5c	0.00023869931
186	0xbccbd3cd	-0.024881268
187	0x3d9ed4c9	0.07755429
188	0xbd942a39	-0.07234616
189	0x3c0dc6f1	0.008653388
190	0xbcd53b21	-0.026029171
191	0x3cc86b89	0.02446534
192	0xbd8da79a	-0.06916733
193	0xbcfbbff1	-0.030731173
194	0x3d883a21	0.06651712
195	0xbd9b4c36	-0.075828955
196	0xbd59b6d9	-0.053152893
197	0xbd0c0982	-0.034188755
198	0xbd754cdc	-0.059887752
199	0xbdb8ddcc	-0.090266794
200	0xbd463c4c	-0.048397347
201	0x3c2b4fea	0.010456065
202	0xbd2f3492	-0.042774744
203	0x3d08ac7e	0.033367626
204	0xbdd58e51	-0.10427535
205	0xbba2381a	-0.0049505355
206	0xbde1403a	-0.10998578
207	0x3d11e85d	0.03562199
208	0x3d9e43e0	0.0772779
209	0xbdcba56e	-0.099436626
210	0xbd783230	-0.060594738
211	0x3d9e767a	0.07737441
212	0x3d9e9a7c	0.07744309
213	0x3cf5f215	0.03002266
214	0xbda48048	-0.0803228
215	0x3c1cb893	0.00956549
216	0x3c7c295c	0.01539072
217	0x3dc3796d	0.095446445
218	0x3d3923cb	0.04520015
219	0x3cb21116	0.021736663
220	0x3d70546b	0.058674257
221	0xbd8ce2bb	-0.06879183
222	0x3ce125da	0.02748387
223	0xbdb8bbee	-0.0902022
224	0x3dca6b70	0.09883773
225	0xbdbbd271	-0.09170998
226	0xbd8190a9	-0.0632642
227	0xbdb72566	-0.0894268
228	0xba4513a4	-0.00075178803
229	0x3d2efe6f	0.042723116
230	0xbcf56c2c	-0.029958807
231	0x3d630041	0.055420164
232	0xbdb2e16d	-0.08734403
233	0xbd64756d	-0.05577605
234	0x3c959b36	0.018262487
235	0xbd020a54	-0.03174813
236	0xbd47534f	-0.048663434
237	0x3dac9006	0.08425908
238	0x3d9bd0ee	0.076082096
239	0xbd6bdf9e	-0.057586305
240	0xbcc5cc56	-0.024145287
241	0x3cb683e7	0.022279693
242	0x3d2cda0f	0.042200144
243	0xbc79aff2	-0.015239703
244	0xbd0c46da	-0.034247257
245	0xbdd07146	-0.10177855
246	0x3deaf252	0.11472
247	0x3d5e6244	0.054292932
248	0xbd309c39	-0.043117736
249	0x3cd45090	0.025917321
250	0xbd23c625	-0.039983887
251	0x3a66191d	0.0008777546
252	0xbdebe10d	-0.115175344
253	0x3c6eeef7	0.014583341
254	0xbd938bc9	-0.07204396
255	0xbd39fef3	-0.045409154

gnn.conv1d_params1.bias f4 [16]
0	0xbd817b68	-0.06322366
1	0xbdbc5191	-0.09195245
2	0xbd406d14	-0.046979025
3	0x3db2f618	0.08738345
4	0xbc751de2	-0.014960738
5	0xbd952059	-0.072815605
6	0x3e0c78fe	0.1371803
7	0xb9535d54	-0.00020157296
8	0xbd975086	-0.073884055
9	0xbd79bdc2	-0.060971983
10	0x3d3eb7da	0.046562053
11	0xbd470147	-0.048585203
12	0x3d46ffbc	0.04858373
13	0xbd94b062	-0.07260205
14	0xbd976e08	-0.07394034
15	0x3d6d03a2	0.057864793

gnn.conv1d_params2.weight f4 [32, 16, 5]
0	0x3d98249f	0.0742886
1	0x3dacff88	0.08447176
2	0x3b744cde	0.0037277262
3	0xbd5614bc	-0.052265868
4	0x3dd4874c	0.10377368
5	0xbc484efa	-0.012225861
6	0x3db33773	0.087508105
7	0xbcdfa3c7	-0.027299775
8	0xbca7fede	-0.020507272
9	0xbcb88d20	-0.022528231
10	0xbd7cbd0f	-0.061703738
11	0x3d0cd147	0.03437927
12	0x3d606bcf	0.054790314
13	0xbc3406f3	-0.010987985
14	0xbd1ef3bc	-0.038806662
15	0x3dfb0ced	0.12258325
16	0x3c3f6ed9	0.011684143
17	0x3d076602	0.033056267
18	0xbd55c70f	-0.05219179
19	0x3dc32765	0.09528998
20	0x3e186126	0.14880809
21	0x3d5b5a39	0.05355284
22	0x3dfab71a	0.12241955
23	0x3da4cd91	0.08047021
24	0x3dc39423	0.09549739
25	0x3cdb48ac	0.026768051
26	0x3cfc43c6	0.030794036
27	0x3d46a316	0.048495375
28	0xbbae5a50	-0.0053208247
29	0x3dd3086c	0.10304341
30	0xbd16a018	-0.03677377
31	0x3d4a34fc	0.049366936
32	0x3d91dc80	0.07122135
33	0xbc6cf821	-0.014463455
34	0x3ddf5889	0.109055586
35	0x3b34048b	0.0027468528
36	0x3da9c7d8	0.0829007
37	0x3ddc8f41	0.10769511
38	0xbd392a23	-0.0452062
39	0x3c8a331c	0.016870074
40	0x3e139554	0.14412433
41	0xbd25937f	-0.040423866
42	0xbc76bfc0	-0.015060365
43	0xbd8d1f02	-0.0689068
44	0x3dec94b7	0.115518026
45	0x3dc88abe	0.09792088
46	0x3d1c17e2	0.038108714
47	0x3d256ccc	0.04038696
48	0xbdc5f631	-0.09666098
49	0x3d6e11d1	0.05812246
50	0xbbf1f1e5	-0.0073835724
51	0x3daabc6d	0.083367206
52	0xbd609448	-0.054828912
53	0xbd868d83	-0.0656996
54	0x3db0fbd1	0.0864178
55	0x3d880006	0.066406295
56	0xbb9cd4bd	-0.0047861026
57	0xbd1deb8d	-0.038554717
58	0xbd67d189	-0.056596313
59	0x3deae143	0.114687465
60	0xbd07a960	-0.033120513
61	0x3cc04cd1	0.023474129
62	0x3d8eae51	0.06966842
63	0xbcd1af4b	-0.025596282
64	0xbd465673	-0.04842229
65	0xbd0a2a8a	-0.033731975
66	0x3cbbf583	0.022944218
67	0x3b910e3f	0.004426747
68	0x3b823ca3	0.0039745136
69	0x3cb9cd0a	0.022680778
70	0xbdbc2e0f	-0.091884725
71	0x3d918f22	0.071073785
72	0x3c64bf7e	0.013961671
73	0xbd6bcc77	-0.05756804
74	0xbbf46dc2	-0.007459373
75	0x3d4ba043	0.049713384
76	0x3dfa1070	0.122101665
77	0x3dfd7066	0.12374954
78	0xbd04567b	-0.032309037
79	0xbd858b47	-0.06520706
80	0xbc0499dc	-0.008093324
81	0x3ce706c3	0.028201466
82	0x3cac678d	0.02104547
83	0xbe1961bf	-0.14978693
84	0xbc61b4f1	-0.01377605
85	0x3cb1bdb1	0.021696897
86	0x3ce96ff0	0.028495759
87	0xbda3e6b9	-0.08002991
88	0x3bf140f9	0.0073624817
89	0xbd3e568c	-0.046469256
90	0x3dd368a7	0.10322695
91	0xbd4cfd9a	-0.05004654
92	0x3ddc73e6	0.107642934
93	0x3d10bbf1	0.035335485
94	0x3c97d31d	0.018533284
95	0xbd942132	-0.07232894
96	0x3c16cf6b	0.009204726
97	0x3d620686	0.055182002
98	0xbd5e10f1	-0.054215375
99	0x3d40eacc	0.04709892
100	0x3b94a6a5	0.004536467
101	0x3b840e07	0.0040299925
102	0x3d499f0b	0.04922394
103	0xbdc113a3	-0.094275735
104	0xbe1ab800	-0.15109253
105	0xbe030fc7	-0.12798987
106	0xbdcc7aa2	-0.09984328
107	0x3d4a378f	0.04936939
108	0x3cbd384d	0.023098135
109	0xbde7a1a6	-0.11310129
110	0xbdb0254e	-0.08600865
111	0xbd9fb700	-0.07798576
112	0x3d8e1f6c	0.06939587
113	0x3d8657cb	0.06559714
114	0x3d3faa88	0.04679349
115	0xbdc4692e	-0.09590374
116	0x3d5ad9da	0.053430416
117	0x3d1b516c	0.037919447
118	0xbe0d0a30	-0.13773417
119	0xbddaa192	-0.10675348
120	0x3d2853bf	0.04109549
121	0xbd84700f	-0.06466686
122	0x3ce277ab	0.027644953
123	0x3d053145	0.03251769
124	0xbd9ab342	-0.07553722
125	0x3d0efba2	0.034907945
126	0xbde35d1e	-0.11101745
127	0xbddd92b8	-0.10819
128	0xbd46f547	-0.04857376
129	0xbdac4d6e	-0.08413206
130	0xbd40c396	-0.047061525
131	0xbd91abdc	-0.07112858
132	0x3dbc28d0	0.09187472
133	0xbd856bb9	-0.06514687
134	0x3c1e6c4f	0.0096693775
135	0x3ccc0ab9	0.024907457
136	0x3d0a8e41	0.03382707
137	0x3d591e85	0.05300762
138	0xbd21055e	-0.03931176
139	0x3c1992d1	0.009373383
140	0xbd8f6fe7	-0.070037656
141	0xbbded886	-0.006800714
142	0x3d2f4732	0.042792507
143	0xbd7cca69	-0.06171647
144	0xbcb64378	-0.022248968
145	0xbcaee5f4	-0.021349885
146	0xbe09e96b	-0.13467948
147	0x3d22e495	0.039768774
148	0xbda7e645	-0.08198217
149	0xbd911784	-0.070845634
150	0x3dc523db	0.096259795
151	0xbbb81ac6	-0.005618426
152	0x3d4de8cc	0.05027084
153	0x3de3e8d6	0.11128394
154	0x3dc023e4	0.093818456
155	0x3d39845a	0.045292236
156	0xbdded90e	-0.10881244
157	0x3dd562c0	0.10419226
158	0x3d55ad46	0.0521672
159	0x3d76c524	0.0602466
160	0x3beb983f	0.00718978
161	0xbd45a9f5	-0.048257787
162	0xbd93ebb1	-0.07222689
163	0x3c811ee2	0.015761796
164	0xbd9e59b4	-0.07731953
165	0xbdde2241	-0.10846377
166	0x3da8566b	0.08219608
167	0xbd16c3bd	-0.036807764
168	0xbdbe544d	-0.09293423
169	0xbdd6b905	-0.104845084
170	0x3c442761	0.011972279
171	0xbd9efaab	-0.07762655
172	0xbc9ba364	-0.01899881
173	0xbd8450e3	-0.064607404
174	0xbd24879a	-0.040168382
175	0x3d8c5c3f	0.06853532
176	0x3de53c97	0.11193197
177	0x3d63656b	0.05551664
178	0x3afdebe4	0.0019372669
179	0x3c0973e1	0.008389444
180	0xbd3853a8	-0.045001656
181	0xbc95a7be	-0.018268462
182	0x3d99a73c	0.075026006
183	0xbda0abef	-0.07845294
184	0x3d66328d	0.056200553
185	0xbc3d1552	-0.011540728
186	0xbd7f3740	-0.06230855
187	0x3d98cd1a	0.07460995
188	0x3e0b077e	0.13577077
189	0x3e0f9364	0.14021069
190	0xbd9d87ae	-0.076918945
191	0xbdd79b50	-0.105276704
192	0x3d7f4241	0.062319044
193	0xbde3671a	-0.111036494
194	0x3d773cdd	0.060360778
195	0x3e135bbd	0.14390464
196	0x3c57f2cc	0.013180446
197	0x3de783aa	0.1130441
198	0xbda6d955	-0.081469215
199	0x3dc3b8f6	0.09556763
200	0x3dd3f5c4	0.103496104
201	0x3df2138a	0.11820133
202	0x3d202544	0.03909804
203	0x3d9f96d6	0.077924415
204	0xbd75bf42	-0.05999685
205	0x3ce326af	0.027728407
206	0x3d417f84	0.04724075
207	0x3ce35706	0.027751457
208	0x3d46dce0	0.048550487
209	0x3d55fe9d	0.05224477
210	0x3de75cc8	0.112969935
211	0xbda1ab11	-0.078939565
212	0x3d1ee526	0.03879275
213	0xbda3866f	-0.079846255
214	0x3ce239d5	0.027615467
215	0x3de74ff3	0.11294546
216	0xbd2508b5	-0.040291507
217	0xbc065c80	-0.008200765
218	0xbd57c8d0	-0.052681744
219	0x3df8850f	0.12134754
220	0xbcaceb8b	-0.02110841
221	0xbd4e2f12	-0.05033786
222	0xbc912b0a	-0.017720718
223	0xbc612506	-0.013741737
224	0xbd92ac44	-0.07161763
225	0xbc675238	-0.014118724
226	0xbd8725b2	-0.06598987
227	0x3de9fbf4	0.11425009
228	0x3dbb1742	0.091352955
229	0x3d77354f	0.060353573
230	0xbd2ab73a	-0.041678645
231	0xbd92393b	-0.07139822
232	0x3de7fb38	0.11327213
233	0xbd9c23bb	-0.076240025
234	0xbdc9b62e	-0.09849201
235	0x3d98c0a2	0.07458617
236	0x3db1c59e	0.086802706
237	0x3da5f7d1	0.08103908
238	0x3ca8641a	0.020555545
239	0xbc337ee8	-0.01095555
240	0xbd2fdc47	-0.042934682
241	0x3c91b8b4	0.017788269
242	0x3da45d98	0.08025664
243	0xbccac994	-0.024754323
244	0xbc954212	-0.018219981
245	0x3d8059f9	0.06267161
246	0xbcff3822	-0.031154696
247	0x3c068b36	0.008211901
248	0xbdd684a5	-0.10474519
249	0xbc8c7f50	-0.017150551
250	0x3bdf818c	0.006820863
251	0x3d3caacf	0.046061333
252	0x3d0b3c72	0.033993192
253	0x3d88d213	0.066806935
254	0x3ddca542	0.10773708
255	0x3da43d39	0.0801949

gnn.conv1d_params2.bias f4 [32]
0	0xbd6bb0c7	-0.057541635
1	0x3d845e17	0.06463259
2	0x3d5eaea2	0.05436576
3	0xbd566cf2	-0.052349992
4	0xbd61f735	-0.055167396
5	0x3d118894	0.03553064
6	0xbd1f4b8d	-0.03889041
7	0xbaae7433	-0.0013309777
8	0xbcf362ca	-0.029710192
9	0xbdb91dac	-0.090388626
10	0x3c7be827	0.015375174
11	0x3d6cb5ba	0.057790495
12	0x3dc6881a	0.09693928
13	0xbcc63574	-0.02419541
14	0x3e0595a8	0.1304537
15	0xbd902344	-0.070379764
16	0x3cf31ec1	0.02967775
17	0x3e018cad	0.1265132
18	0x3d9812fc	0.07425496
19	0x3c832628	0.016009405
20	0xbcb46e88	-0.022025362
21	0xbc5d8972	-0.013521539
22	0x3e075d16	0.13219103
23	0xbb820a45	-0.0039685094
24	0x3dbe7cb0	0.09301126
25	0xbd98b85e	-0.0745704
26	0x3d069408	0.032856017
27	0xbd5d9511	-0.05409724
28	0xbd97b2ea	-0.07407172
29	0x3df3e0fb	0.11908146
30	0xbcf1ac9f	-0.029501257
31	0xbcf7c114	-0.030243434

mlp.h1_weights.weight f4 [128, 288]
0	0xbc14c00d	-0.009078992
1	0x3de2230b	0.1104184
2	0x3e017ad4	0.12644511
3	0x3dff922e	0.124790534
4	0xbda568ba	-0.08076616
5	0x3dabc3fb	0.0838699
6	0xbdcd15a1	-0.10013891
7	0x3dff7a58	0.12474507
8	0x3aaba79f	0.001309622
9	0xbd07294f	-0.03299838
10	0xbc147f2c	-0.009063523
11	0x3da04eac	0.078275055
12	0x3c8e1a69	0.017346578
13	0xbdcaa533	-0.098947905
14	0x3e00cc2e	0.12577888
15	0x3b1dca56	0.00240769
16	0x3d78b884	0.060722843
17	0x3d90169d	0.07035563
18	0x3e08e5fe	0.13368985
19	0xbd8c03a3	-0.06836631
20	0x3deb52ec	0.114904255
21	0xbd104cee	-0.035229616
22	0xbc01a03a	-0.007911736
23	0x3da8b212	0.08237089
24	0xbc650611	-0.013978497
25	0xbd258bbd	-0.040416468
26	0xbbc3a7d9	-0.0059709367
27	0xbbb2edc8	-0.0054604746
28	0xbd18252f	-0.037144836
29	0x3a960f4c	0.0011448651
30	0x3da80b9b	0.082053386
31	0x3d4bca21	0.049753312
32	0xba5db0a0	-0.00084568
33	0xbd8e8c33	-0.06960335
34	0xbdc75970	-0.09733856
35	0x3df38818	0.11891192
36	0xbd177539	-0.036977027
37	0xbcd75260	-0.026284397
38	0xbd92f589	-0.07175738
39	0xbd8abf92	-0.067748204
40	0xbd9fbba4	-0.077994615
41	0xbd9d6097	-0.07684439
42	0x3d90c035	0.070679106
43	0xbcfeb943	-0.031094199
44	0x3d7ba3bf	0.061435457
45	0xbd0ec434	-0.034855083
46	0x3daf960f	0.08573543
47	0xbbdbf8b1	-0.006712996
48	0xbd961291	-0.0732776
49	0xbd95963e	-0.07304047
50	0x3dd5eab1	0.104451545
51	0x3cede2ef	0.029038874
52	0x3e040294	0.12891608
53	0xbd5db674	-0.05412908
54	0xbd7fe540	-0.06247449
55	0xbca01ba1	-0.019544424
56	0x3c323397	0.010876558
57	0x3bcf1138	0.0063191913
58	0x3d5b1bd6	0.053493343
59	0xbd2a9a9b	-0.04165135
60	0x3ddc712c	0.10763773
61	0xbd9a908e	-0.07547103
62	0xbcfb9aad	-0.030713404
63	0xbd1b642c	-0.03793733
64	0xbd3d2d13	-0.046185564
65	0xbd5fffd9	-0.054687355
66	0x3cfe2444	0.031023152
67	0xbd755c22	-0.059902318
68	0xbdca4f16	-0.09878366
69	0xbdcdedeb	-0.10055145
70	0x3dbaf87a	0.091294244
71	0xbc3b7d24	-0.01144341
72	0x3df3e1c9	0.119082995
73	0xbd9582a7	-0.073003106
74	0x3de50353	0.11182275
75	0x3d8468c1	0.06465293
76	0x3b3212e7	0.0027171911
77	0x3c8e4f84	0.0173719
78	0x39a66992	0.00031740643
79	0xbb797836	-0.0038066036
80	0x3dd6fa04	0.104969054
81	0x3e014047	0.12622176
82	0xbd358c18	-0.044323057
83	0x3e19c4b5	0.15016444
84	0x3da7f900	0.0820179
85	0xb7e9dfe1	-2.7880016e-05
86	0x3d11439d	0.03546487
87	0x3d80f950	0.062975526
88	0xbdb1a380	-0.08673763
89	0x3dcd4b10	0.10024083
90	0xbd8c9c42	-0.06865741
91	0x3db674db	0.08909007
92	0xbd385b96	-0.04500922
93	0x3df46629	0.11933548
94	0xbc14470a	-0.00905014
95	0x3d889928	0.06669837
96	0x3ddd0ec5	0.10793833
97	0x3d905a76	0.07048504
98	0x3dca0f0f	0.098661534
99	0xbd5bd4d7	-0.053669777
100	0xbdd73665	-0.10508422
101	0xbd2cd49d	-0.04219495
102	0x3da963b8	0.08270973
103	0xbc427a57	-0.011869988
104	0xbddccc13	-0.107811116
105	0x3ae5c7eb	0.0017530894
106	0x3d91efbf	0.07125806
107	0xbc95ee78	-0.018302187
108	0xbddfc00e	-0.109253034
109	0x3d191b91	0.037379805
110	0x3da2a17b	0.07940956
111	0xbda20589	-0.07911212
112	0xbbf0a3fe	-0.007343768
113	0x3ca82c5c	0.020528965
114	0xbd6c5144	-0.05769469
115	0xbdaa4050	-0.08313048
116	0xbd0c9c49	-0.034328733
117	0x3d97b535	0.074076094
118	0x3d34bd5f	0.04412591
119	0x3da55d47	0.08074432
120	0x3d84564d	0.06461773
121	0xbc739ba9	-0.014868655
122	0x3df13bc4	0.117789775
123	0x3d9e54a9	0.077309914
124	0x3dfbf651	0.123028405
125	0xbda187fa	-0.078872636
126	0x3d6979f4	0.05700107
127	0xbdb683f8	-0.0891189
128	0x3da7800a	0.081787184
129	0x3dd4e002	0.103942886
130	0xbd9527c3	-0.072829746
131	0xbd416eb7	-0.047224727
132	0x3d598f4a	0.053115167
133	0xbd986f20	-0.074430704
134	0xbd7c3dc7	-0.061582353
135	0xbdac28f5	-0.084062494
136	0xbd6fb6cf	-0.05852395
137	0xbd8eba4d	-0.06969128
138	0x3bb2b4be	0.005453675
139	0x3ca3b4b2	0.019983623
140	0x3d5edd2c	0.054410145
141	0x3d258434	0.04040928
142	0x3d352c82	0.0442319
143	0xbd48233b	-0.048861723
144	0xbcb4dada	-0.022077013
145	0x3ac34de1	0.0014900529
146	0xbd42305f	-0.04740941
147	0xbcc9d3b7	-0.024637086
148	0xbce1fd9e	-0.027586754
149	0x3de2eba8	0.11080104
150	0x3d4c55f2	0.04988665
151	0xbdba2b65	-0.09090308
152	0xbdbb947e	-0.09159182
153	0x3dbe9d72	0.09307374
154	0x3d894978	0.06703466
155	0xbd552608	-0.052038223
156	0xbc3aa63b	-0.0113921715
157	0xbdd7a7a3	-0.10530021
158	0x3dae3a18	0.08507174
159	0x3d2b134b	0.041766446
160	0xbd662912	-0.05619151
161	0x3d162560	0.036656737
162	0xbdd4316c	-0.10360989
163	0x3d7bec3d	0.06150459
164	0xbd646e95	-0.05576952
165	0xbd8c086a	-0.06837542
166	0xbd9fa31a	-0.07794781
167	0xbdba6a09	-0.09102256
168	0xbdb757b3	-0.08952274
169	0xbd7a6277	-0.06112906
170	0xbd2fbf64	-0.042907134
171	0xbd24b2b0	-0.040209472
172	0x3c78a576	0.015176168
173	0x3df9eb1d	0.122030474
174	0x3d88dd25	0.06682805
175	0x3b81d074	0.003961617
176	0xbd37f283	-0.04490901
177	0xbc8edcb4	-0.017439224
178	0x3db7db6b	0.089773975
179	0x3d098638	0.033575267
180	0xbdb50405	-0.08838657
181	0x3c7a27a9	0.015268245
182	0x3db7e893	0.08979907
183	0xbd0cb40c	-0.034351394
184	0xbddb0935	-0.106951155
185	0x3d59c306	0.053164504
186	0xbdc9e1c4	-0.098575145
187	0x3d00c894	0.031441286
188	0xbd5f5125	-0.054520745
189	0x3d5fb1a2	0.054612763
190	0x3d915cf3	0.07097807
191	0xbb9e9fd2	-0.0048408294
192	0xbda84062	-0.08215405
193	0x3c81d548	0.01584877
194	0xbda232df	-0.07919859
195	0x3df7108f	0.12063705
196	0x3df4e7e4	0.11958292
197	0xba02afcb	-0.00049853016
198	0x3d036cb2	0.03208608
199	0x3d42ba51	0.047540966
200	0x3b694b0a	0.0035597705
201	0x3c09c871	0.008409605
202	0xbd862960	-0.065508604
203	0x3de0439b	0.10950395
204	0x3dd987f1	0.10621632
205	0x3d058632	0.03259868
206	0xbcd08987	-0.025456203
207	0xbdb922b5	-0.09039823
208	0x3d26ba69	0.04070512
209	0x3cf5d1e6	0.030007314
210	0x3dfd0715	0.123548664
211	0xbbad529c	-0.005289389
212	0x3dee75c3	0.11643555
213	0xbd009229	-0.03138939
214	0xbc90882f	-0.017643062
215	0xbd1f2f81	-0.038863663
216	0x3c7d226b	0.0154501
217	0xbd9383f8	-0.072029054
218	0x3c8fbb1f	0.017545281
219	0x3e02e6a0	0.12783289
220	0x3de3421c	0.11096594
221	0xbc68b03f	-0.014202177
222	0x3c297cdf	0.010344713
223	0x3dc1604b	0.094421946
224	0xbd531dbd	-0.051542033
225	0x3e0a0255	0.13477452
226	0x3d14b33d	0.036303747
227	0x3cdce171	0.026962968
228	0xbda58401	-0.08081818
229	0xbc3c90fb	-0.011509175
230	0xbda289e0	-0.07936454
231	0xbdd48a31	-0.103779204
232	0xbdb26786	-0.08711152
233	0xbdc30703	-0.09522822
234	0x3d91f1dc	0.07126209
235	0x3d0ba74b	0.03409509
236	0xbdb004dd	-0.085946776
237	0x3d7a9911	0.06118113
238	0xbd2715c8	-0.040792257
239	0xbd84595c	-0.064623564
240	0x3c259c53	0.010108071
241	0x3d7eb5f3	0.06218524
242	0xbd55783a	-0.05211661
243	0x3d58878c	0.052863643
244	0x3d7a19fa	0.06105993
245	0x3de0f6da	0.10984583
246	0xbd2e24e1	-0.04251564
247	0xbddbd8ba	-0.10734697
248	0xbdd81511	-0.10550893
249	0xbc0566e4	-0.008142207
250	0x3ded602d	0.1159061
251	0x3d71bed6	0.059019886
252	0xbe0ffaf9	-0.14060582
253	0xbdaa13ac	-0.08304533
254	0x3bd279eb	0.006423225
255	0x3d262b15	0.04056843

mlp.h1_weights.bias f4 [128]
0	0x3be8a33c	0.007099537
1	0x00000000	0.0
2	0x3c2da513	0.010598439
3	0x3c95a943	0.018269187
4	0x3bbdd479	0.005793151
5	0xbb73ac7b	-0.0037181664
6	0x3c81a051	0.015823515
7	0x3c509e37	0.012733034
8	0x3a7d03f4	0.0009651773
9	0xbc300bdf	-0.010745018
10	0xbc413927	-0.011793411
11	0x3cace343	0.02110446
12	0x3ab3ea05	0.001372636
13	0xbb8af6f3	-0.0042408644
14	0xbc2934c9	-0.010327526
15	0x3d02e487	0.031956222
16	0x3b07c53a	0.0020716921
17	0xbc26aefb	-0.0101735545
18	0x39ebc4a9	0.00044969216
19	0x3c56a560	0.013100952
20	0x3ca015ee	0.019541707
21	0x3ce816c5	0.02833117
22	0x3c25e998	0.010126494
23	0x3c4387fc	0.011934277
24	0xbbcb4838	-0.0062036775
25	0xbc81ae24	-0.015830107
26	0x3c6d1c14	0.014472026
27	0x3c2b705f	0.010463803
28	0xbc67c043	-0.01414496
29	0xbc26f4ea	-0.010190228
30	0xbca3f3f1	-0.020013781
31	0xbc8906d7	-0.016726894
32	0x3cc589c7	0.024113549
33	0xbc597a07	-0.0132737225
34	0xbb8f8ed4	-0.00438104
35	0x3c8dbb70	0.017301291
36	0x3b0a4aa0	0.002110161
37	0xbbb61daa	-0.0055577355
38	0x3ca3af18	0.019980952
39	0x3b85b6b3	0.0040806173
40	0x3b7c3b58	0.003848752
41	0xbc88fb23	-0.016721314
42	0x3c7317fa	0.014837259
43	0x3c99735b	0.018731764
44	0x3ceb2f1f	0.028708993
45	0x3c820aef	0.015874354
46	0x3bfeee70	0.007779889
47	0xbc18b6d5	-0.009320934
48	0xbae64c82	-0.0017570409
49	0x3b9fbe16	0.004874955
50	0xbbcdd2d5	-0.0062812367
51	0xbc20534c	-0.0097854845
52	0xbbb99bd7	-0.0056643295
53	0xbb8f5a75	-0.004374797
54	0xbb620562	-0.0034488072
55	0x398b4040	0.00026560016
56	0x3c09d0d7	0.008411608
57	0xbb8df945	-0.0043326938
58	0x3c6e45b9	0.01454299
59	0x393e5e46	0.00018154932
60	0x3cb76625	0.022387573
61	0x3c325e71	0.010886774
62	0xbbb924d9	-0.0056501445
63	0x3c52a3f4	0.012856472
64	0xbb1c1696	-0.0023817173
65	0x3b919be2	0.0044436315
66	0x3c8b39df	0.016995369
67	0xbc09f322	-0.008419784
68	0xbb55d547	-0.0032628344
69	0x3c943156	0.018089931
70	0xbc29b93a	-0.010359103
71	0x3cb26b87	0.021779789
72	0x3cabf8cc	0.020992659
73	0x3c2a9e75	0.010413756
74	0x3be2700e	0.0069103306
75	0xbbe41fb7	-0.0069617885
76	0xbb38697d	-0.0028139048
77	0xbb0970b2	-0.0020971713
78	0xbacdb89e	-0.0015695279
79	0xbb143ce0	-0.0022619292
80	0x00000000	0.0
81	0x3cf56a55	0.02995793
82	0x3cd047a5	0.025424788
83	0x3be774dc	0.0070634913
84	0xbb8c7559	-0.00428645
85	0xba22b84f	-0.00062072737
86	0x3c632276	0.013863197
87	0x3c811497	0.015756888
88	0xbb18ce6d	-0.0023316399
89	0xbc020908	-0.0079367235
90	0xbc4f68b0	-0.012659237
91	0xbbaaeb61	-0.0052160476
92	0xbc1ce9e9	-0.009577253
93	0x3c2bec72	0.010493385
94	0x3ca9250d	0.02064755
95	0xbc239974	-0.009985317
96	0xba8b5099	-0.0010628878
97	0x3ce4deb4	0.027938224
98	0xbbb0fdcd	-0.005401349
99	0x3c6d7343	0.014492813
100	0xbb64f3f9	-0.0034935458
101	0xbb8873f4	-0.0041642133
102	0xbc38fc9a	-0.011290694
103	0x3c88924b	0.01667132
104	0x3cf162ba	0.029466022
105	0x3bb93090	0.005651541
106	0x3cfacda5	0.030615637
107	0x00000000	0.0
108	0x37a7afef	1.9989877e-05
109	0xbb3e267b	-0.0029014635
110	0xbbf87a65	-0.00758295
111	0x3aafc641	0.0013410525
112	0xbbca7e24	-0.006179588
113	0xbbb7402c	-0.0055923667
114	0x3cb68e5d	0.022284681
115	0x38f3fda0	0.00011634384
116	0x3c7651ea	0.015034178
117	0xbb3f7ff5	-0.0029220555
118	0xbb2e15c9	-0.0026563278
119	0xbaf5ab43	-0.0018743057
120	0xbbc67203	-0.0060560717
121	0xbbd8e694	-0.006619284
122	0x389d161e	7.490463e-05
123	0x3b4f24b2	0.0031607565
124	0x3c9371db	0.017998626
125	0xbb90121c	-0.00439669
126	0xbc1ea2ac	-0.009682339
127	0xbb84844a	-0.0040440904
